pretrained model/model_XJTU_0.pth (torch, 60271 bytes, 14 tensors)

encoder.net.0.weight f4 [60, 17]
0	0x3e971c41	0.29513744
1	0x3d39231e	0.045199506
2	0xbd4f7287	-0.05064633
3	0xbe5823d7	-0.21107422
4	0xbd973245	-0.07382635
5	0x3c8e59fc	0.017376892
6	0x3d5dc5e8	0.054143816
7	0x3e044824	0.12918144
8	0xbe383492	-0.17988804
9	0x3d54e713	0.051978182
10	0xbe2893ad	-0.16462584
11	0x3e7885e9	0.24269833
12	0x3e088025	0.13330133
13	0xbe10c4c3	-0.14137559
14	0x3dd0d275	0.101963915
15	0x3eb17eaf	0.34666964
16	0x3c9f51f1	0.019448252
17	0xbe2238e4	-0.15842015
18	0x3e329f8e	0.17443678
19	0x3c67e461	0.014153571
20	0xbd370c4c	-0.04468946
21	0x3eab4a7b	0.33455262
22	0xbe0237ce	-0.127166
23	0x3c951530	0.01819858
24	0x3e031fdb	0.1280512
25	0xbe1f8083	-0.15576367
26	0x3e21a553	0.15785722
27	0xbe32fcac	-0.17479199
28	0x3cadde9c	0.021224312
29	0x3d9238c4	0.071397334
30	0x3cf144af	0.029451696
31	0xbd5e701b	-0.05430613
32	0xbd8723ad	-0.065986015
33	0x3e17198f	0.14755844
34	0x3e362430	0.17787242
35	0xbdd845f2	-0.10560216
36	0x3e33eccd	0.17570801
37	0x3ce36a78	0.02776073
38	0xbe36461e	-0.17800185
39	0x3ea92589	0.3303645
40	0xbd0c065c	-0.034185752
41	0x3db867bf	0.09004163
42	0x3cece08b	0.028915664
43	0x3e6b3686	0.22970018
44	0xbd1a29c9	-0.037637506
45	0x3dd998cc	0.10624847
46	0x3e797ffc	0.24365228
47	0x3c2e89de	0.010652987
48	0x3d95cc9d	0.073144175
49	0x3d211c8c	0.039333865
50	0x3d6096fc	0.05483149
51	0xbd418c8f	-0.047253188
52	0x3cca180f	0.024669675
53	0xbb66142b	-0.0035107236
54	0xbe17c5f7	-0.14821611
55	0xbdc4b36b	-0.09604534
56	0xbe631ae1	-0.22178222
57	0x3d0a7231	0.033800308
58	0x3afd0b5a	0.0019305751
59	0x3da60c64	0.08107832
60	0x3ec6aafd	0.3880233
61	0x3e891138	0.2677095
62	0xbe68f80f	-0.22750877
63	0x3cfbf643	0.030757075
64	0x3eb164b2	0.34647137
65	0x3e5dff45	0.21679409
66	0x3c92a261	0.017899694
67	0x3e758846	0.23977765
68	0x3c5470ce	0.012966348
69	0x3d5b8d57	0.05360159
70	0x3ded179d	0.115767695
71	0xbdd3c6a5	-0.10340623
72	0xbdd3e425	-0.103462495
73	0xbe83456e	-0.25638908
74	0x3e22034b	0.15821569
75	0xbe8c958d	-0.27457848
76	0x3dadc077	0.084839754
77	0x3dce81b5	0.100833334
78	0xbe3d5bdf	-0.18492077
79	0x3e3d786b	0.18502967
80	0xbdd0630e	-0.10175143
81	0x3d464271	0.048403207
82	0x3d24fb2c	0.0402786
83	0x3e2131dc	0.15741676
84	0xbe746153	-0.23865251
85	0xbd2eeff5	-0.04270931
86	0x3e1578e1	0.14596893
87	0x3e7ec2a6	0.2487894
88	0x3d8253c3	0.063636325
89	0x3b8d8e0d	0.0043199123
90	0xbe8410c0	-0.2579403
91	0x3ae6fa2f	0.0017622168
92	0x3dd84e47	0.10561805
93	0x3e93135d	0.2872571
94	0x3ec825cb	0.39091334
95	0xbdd08786	-0.10182099
96	0xbde24c93	-0.110497616
97	0x3ce94b81	0.028478386
98	0x3e0246a3	0.12722258
99	0x3d16868c	0.036749408
100	0x3ce15ac1	0.027509095
101	0xbd6fd64e	-0.058553986
102	0xbd828861	-0.063736685
103	0x3cd640db	0.026153972
104	0xbd9b1c00	-0.075737
105	0x3e01478b	0.12624948
106	0xbcef18ad	-0.029186571
107	0xbeaa6cab	-0.33286032
108	0xbe1217b9	-0.14266862
109	0xbc806864	-0.015674777
110	0x3dee2cbe	0.11629628
111	0x3df3d9ce	0.11906777
112	0xbea035a4	-0.31290925
113	0x3d1ba476	0.03799864
114	0xbe308ecd	-0.17241974
115	0xbd889fee	-0.06671129
116	0xbd527af4	-0.05138679
117	0xbdc9625a	-0.09833212
118	0x3e011db9	0.12608995
119	0xbdcb734a	-0.09934099
120	0x3dcef2b2	0.10104884
121	0xbe24d482	-0.1609669
122	0xbe0f8101	-0.14014055
123	0x3df0b75d	0.11753724
124	0xbd495252	-0.049150772
125	0x3e4abf44	0.19799525
126	0xbe3a2be0	-0.181808
127	0x3df224b2	0.11823405
128	0xbe343f13	-0.17602186
129	0xbc43295c	-0.011911716
130	0x3d1f2cd6	0.03886112
131	0x3e2d960d	0.16951771
132	0x3d4aba3a	0.049494006
133	0x3d02673a	0.031836726
134	0xbdb721c4	-0.08941987
135	0x3c9e1775	0.019298295
136	0x3e5b9a8d	0.21445675
137	0x3e258b1d	0.16166349
138	0x3e804af5	0.25057188
139	0xbd6b5ebf	-0.057463404
140	0x3e43b868	0.19113314
141	0x3e5c7740	0.21529865
142	0xbc8d8077	-0.01727317
143	0x3dcb2741	0.099195965
144	0xbb959192	-0.0045644725
145	0xbe3e6ceb	-0.18596236
146	0xbdd77f05	-0.10522274
147	0xbc6edafa	-0.014578575
148	0x3e692575	0.22768195
149	0x3dacbb1d	0.084341265
150	0xbe547fa1	-0.20751812
151	0x3dba8ec2	0.0910926
152	0x3dacfb96	0.08446424
153	0x3d176d72	0.03696961
154	0x3d8012c1	0.06253577
155	0x3ddc9325	0.10770253
156	0xbda2ebdf	-0.07955145
157	0x3e2293b0	0.15876651
158	0xbe1aea98	-0.15128553
159	0x3ce9951c	0.028513484
160	0x3d52fe46	0.051512025
161	0xbdb4d387	-0.08829408
162	0x3e1f49c8	0.15555489
163	0x3de814f8	0.113321245
164	0x3de43c5d	0.11144326
165	0xbe7ca909	-0.24673857
166	0xbca2fc80	-0.019895792
167	0x3d9324cf	0.07184755
168	0x3df623a3	0.12018516
169	0x3d3f2b30	0.046672046
170	0xbe1d93f3	-0.1538847
171	0xbb0ecfaa	-0.0021791258
172	0x3c065f6d	0.008201462
173	0xbd779a49	-0.060449872
174	0x3e1ed37b	0.15510361
175	0x3cdbb67a	0.02682041
176	0xbd6923da	-0.056918956
177	0xbe952aff	-0.29134366
178	0x3e76c80c	0.2409975
179	0x3cde8ab6	0.027165752
180	0x3ca7074b	0.02038922
181	0x3d7e580f	0.062095698
182	0x3da20383	0.07910826
183	0x3e3f6a74	0.18692952
184	0x3de9bef9	0.11413378
185	0xbbbf1c3c	-0.005832223
186	0xbe02a621	-0.12758686
187	0x3d98929d	0.07449839
188	0xbe20ab98	-0.15690458
189	0x3e41aa8d	0.18912716
190	0xbd12833c	-0.035769686
191	0x3d56842c	0.052372143
192	0xbe04779c	-0.12936252
193	0xbe018385	-0.12647827
194	0xbe738c47	-0.2378398
195	0x3deba582	0.115061775
196	0x3db90542	0.09034206
197	0x3d840ef2	0.06448163
198	0x3cce766f	0.025202958
199	0x3dec84f3	0.115487956
200	0x3c91b989	0.017788665
201	0xbe1e423a	-0.15454951
202	0x3e5a4da3	0.21318679
203	0xbdc6f7b2	-0.09715213
204	0xbec63118	-0.3870933
205	0x3db68d88	0.08913714
206	0xbe613332	-0.21992186
207	0x3cf91241	0.030404212
208	0x3d1e581e	0.038658254
209	0x3e1900d7	0.14941727
210	0xbe329689	-0.17440237
211	0xbe14b72a	-0.14522997
212	0xbe22d20c	-0.15900439
213	0xbdb51704	-0.088422805
214	0xbe400c04	-0.18754584
215	0x3d42e49b	0.047581296
216	0x3e437eac	0.1909129
217	0xbdea4425	-0.11438779
218	0x3d03d695	0.032187063
219	0xbd74477e	-0.059638493
220	0x3e3ea729	0.18618454
221	0xbe35960a	-0.17733017
222	0xbdd6fdc8	-0.10497624
223	0xbe44d248	-0.19220841
224	0x3e253999	0.16135253
225	0x3e4617b7	0.19344984
226	0x3dc8d213	0.098056935
227	0xbe1af653	-0.15133028
228	0xbdb40f0c	-0.087919325
229	0xbd526b42	-0.05137182
230	0x3eba20ba	0.36353093
231	0x3ccd266f	0.02504274
232	0xbe320aec	-0.17386979
233	0x3de0f2b4	0.10983792
234	0x3ccbec00	0.024892807
235	0x3e4ac2e6	0.1980091
236	0xbe03195e	-0.12802646
237	0x3dc85e8f	0.097836606
238	0xbd9dcbd9	-0.077048965
239	0x3b5a907e	0.0033350284
240	0x3e81f0ce	0.25379032
241	0xbe5bbd73	-0.21458988
242	0xbe2cedd4	-0.16887599
243	0xbb029c3f	-0.0019929556
244	0xbdc0ef8c	-0.0942069
245	0x3e00b7ba	0.12570086
246	0x3b1fdd9d	0.0024393566
247	0xbd713823	-0.058891427
248	0x3e3c251e	0.18373534
249	0x3da9e819	0.08296222
250	0xbda43cad	-0.080193855
251	0x3db2d945	0.08732847
252	0xbd4a90c6	-0.049454473
253	0x3d94b871	0.07261742
254	0x3da87569	0.08225519
255	0x3e35ac1c	0.17741436

encoder.net.0.bias f4 [60]
0	0x3ceeb191	0.029137405
1	0xbc2d10e6	-0.010563111
2	0xbd26c362	-0.040713675
3	0xbd310998	-0.04322204
4	0xbd06c1aa	-0.032899536
5	0x3d4ef079	0.0505223
6	0x3d6bcca6	0.057568215
7	0xbd11db06	-0.035609268
8	0x3d47e259	0.048799846
9	0x3cf48791	0.0298498
10	0xbd26012f	-0.040528473
11	0xbcc94f35	-0.024573902
12	0x3c87f450	0.01659599
13	0xbd464a39	-0.048410628
14	0x3d959bd2	0.07305111
15	0xbd0f7130	-0.035020053
16	0xbd88a278	-0.066716135
17	0xbcc09ff2	-0.023513768
18	0xbd0b008a	-0.03393606
19	0x3ce99ab7	0.028516157
20	0xbbd44e2b	-0.006479045
21	0x3bf87767	0.0075825932
22	0x3d1f97ad	0.03896301
23	0xbbca00c1	-0.0061646407
24	0xbd0d6809	-0.034523044
25	0xbd38a3b3	-0.04507799
26	0x3ac89122	0.0015302042
27	0x3cc30718	0.023807094
28	0xbcd2b898	-0.025722787
29	0xbc8f40ca	-0.017486949
30	0x3d97ccb8	0.07412094
31	0x3cdfa734	0.027301408
32	0xbd358ed5	-0.04432567
33	0xbc7e6ad2	-0.015528398
34	0xbd3de199	-0.046357725
35	0xbcc97bc2	-0.024595145
36	0xbd2ba33e	-0.041903727
37	0x3cf1b45d	0.02950495
38	0x3d06d7a3	0.03292049
39	0x3d377acf	0.044794854
40	0xbd317679	-0.043325875
41	0xbce99703	-0.02851439
42	0xbd0301c7	-0.031984117
43	0x3d11bf83	0.03558303
44	0xbd03dc33	-0.03219242
45	0xbd3ff2f2	-0.04686255
46	0xbcf053e4	-0.029336877
47	0x3d0ff1a1	0.035142545
48	0xbd05ef3f	-0.032698866
49	0x3ceb743e	0.028741952
50	0xbd124115	-0.0357066
51	0xbd11a6f2	-0.035559602
52	0x3c4f87be	0.012666641
53	0x3d2e69e5	0.042581458
54	0xbd01cd23	-0.031689774
55	0x3d2feee7	0.042952444
56	0xbc801256	-0.015633743
57	0x3d18c5cd	0.037298013
58	0xbd03468c	-0.0320497
59	0x3d1fd93e	0.039025538

encoder.net.2.weight f4 [60, 60]
0	0xbdc7f921	-0.097643144
1	0x3d58b43c	0.05290626
2	0xbde4cd5c	-0.11171982
3	0x3dd10d64	0.10207632
4	0xbd0a0fdc	-0.03370653
5	0xbe97efb7	-0.29675075
6	0x3e0fe2f1	0.14051415
7	0x3dc4b84b	0.096054636
8	0xbd2175cf	-0.03941899
9	0x3d8761d4	0.06610456
10	0x3d80475c	0.06263611
11	0x3e2f0bd8	0.17094362
12	0x3da6fdc9	0.081538744
13	0x3e332e2d	0.17498083
14	0xbd0b80e0	-0.03405845
15	0xbd231bc6	-0.03982141
16	0x3e033b96	0.12815699
17	0xbdaf0a12	-0.08546843
18	0x3dd2de01	0.1029625
19	0xbe0593b7	-0.1304463
20	0x3dcfbf77	0.10143941
21	0xbe7d5df1	-0.24742867
22	0xbdcdc4b7	-0.10047286
23	0x3e008f64	0.12554699
24	0x3aa55ad8	0.0012615575
25	0x3b2fe1eb	0.0026837538
26	0xbd55b6b1	-0.05217618
27	0x3c7a0ea8	0.015262283
28	0x3db07efd	0.08617971
29	0xbbe158a3	-0.0068770214
30	0xbe2fad8b	-0.17156045
31	0x3dc08e5c	0.09402153
32	0x3d01d508	0.031697303
33	0x3d8b2988	0.06795031
34	0x3e340de2	0.17583421
35	0xbe15e0fa	-0.14636603
36	0x3d8bce68	0.06826478
37	0xbe045886	-0.12924394
38	0x3e6c406e	0.23071453
39	0x3d6766f7	0.05649468
40	0x3d856828	0.06514007
41	0x3d16a5a9	0.03677908
42	0xbe3fd5b5	-0.18733867
43	0x3e10c555	0.14137776
44	0xbe580a1b	-0.21097605
45	0xbd4691b0	-0.048478782
46	0x3d3592b2	0.044329353
47	0xbd5641d4	-0.052308872
48	0xbde78467	-0.113045506
49	0xbd3c320c	-0.045946166
50	0x3e901fe1	0.28149322
51	0x3e266a91	0.1625159
52	0x3d307524	0.043080464
53	0x3c4255a1	0.011861236
54	0xbe1baa71	-0.15201737
55	0xbc9f8685	-0.019473324
56	0xbdba500d	-0.090973
57	0xbd3d4120	-0.046204686
58	0x3e120498	0.14259565
59	0x3df62654	0.12019029
60	0x3d5c9a9e	0.053858392
61	0x3dc76c27	0.09737425
62	0x3ccab17d	0.024742836
63	0xbd9d3b05	-0.07677273
64	0x3e3a061b	0.18166392
65	0xbe807a24	-0.25093186
66	0x3df4bd9b	0.11950227
67	0xbddf94f1	-0.1091708
68	0x3eaa34a1	0.33243278
69	0xbd4c9011	-0.04994208
70	0xbdd5c101	-0.10437203
71	0x3cf11686	0.029429685
72	0x3e1fd1d9	0.15607394
73	0x3c9550a9	0.018226938
74	0x3dfa1948	0.12211853
75	0x3d50138e	0.0507999
76	0x3d80e861	0.06294323
77	0x3e68518a	0.22687355
78	0xbc43ec5b	-0.011958207
79	0xbd6062df	-0.05478179
80	0xbdc8ecd8	-0.09810799
81	0xbd51027d	-0.051027764
82	0x3dd67ca6	0.104729936
83	0xbe13ef3d	-0.14446731
84	0x3e114643	0.14186959
85	0xbca8560e	-0.020548847
86	0x3d485a46	0.048914216
87	0x3da2310f	0.079195134
88	0x3da44c37	0.08022349
89	0x3e5fe97f	0.21866415
90	0x3c9582f0	0.018250912
91	0xbc1ceea6	-0.009578383
92	0x3bd627ff	0.0065355296
93	0x3c97ee20	0.018546164
94	0x3e42acb6	0.19011196
95	0x3d7cc91a	0.061715223
96	0xbe0772d9	-0.13227405
97	0xbe4c6168	-0.19959033
98	0x3d38525b	0.045000415
99	0xbd831d61	-0.06402088
100	0xbd9572d5	-0.07297293
101	0xbe25beb7	-0.16186033
102	0x3b97b165	0.0046293014
103	0xbc921e72	-0.017836783
104	0xbd5d9ef7	-0.05410668
105	0x3bfc9dae	0.0077092266
106	0x3e4fa8d6	0.2027925
107	0xbd0957a5	-0.03353085
108	0xbd4c4ea0	-0.04987967
109	0x3db7d7b8	0.08976692
110	0x3e7f8465	0.24952848
111	0xbd4f176b	-0.050559442
112	0x3e139253	0.14411287
113	0x3d56ae41	0.052412275
114	0x3e11ada4	0.14226395
115	0xbd3ff6a3	-0.04686607
116	0x3e2c99fe	0.16855618
117	0xbcd82169	-0.026383119
118	0x3db0b6a7	0.08628588
119	0x3eab8943	0.3350316
120	0x3e548096	0.20752177
121	0x3ddf616b	0.10907253
122	0xbd40dddb	-0.047086578
123	0x3e1b6aaa	0.15177408
124	0x3c913753	0.017726576
125	0xbe5b60e3	-0.21423678
126	0xbe0b144c	-0.13581961
127	0x3cb95872	0.022625182
128	0xbda1885e	-0.07887338
129	0xbdcb009e	-0.09912227
130	0x3d8b1b20	0.06792283
131	0x3daa1ef9	0.08306689
132	0x3e313bd8	0.17307985
133	0x3d070483	0.032963287
134	0xbdf8bc66	-0.12145309
135	0xbd82470c	-0.06361207
136	0x3ccf915c	0.025337867
137	0xbea93ab8	-0.3305261
138	0xbdc5d467	-0.09659653
139	0x3d16ce0d	0.0368176
140	0x3debc0d5	0.11511389
141	0x3e03dbb5	0.1287678
142	0x3d319384	0.043353572
143	0x3e5cd642	0.21566108
144	0xbe7e97c8	-0.24862587
145	0xbe0776e4	-0.13228947
146	0x3e0c80ff	0.13721083
147	0x3db0dc8c	0.08635816
148	0xbe024d65	-0.12724836
149	0x3e0cbef6	0.13744721
150	0xbca8bf24	-0.020598955
151	0x3db92966	0.09041099
152	0x3d8c050f	0.06836902
153	0xbcec2cd3	-0.028829968
154	0x3e66a9fe	0.22525784
155	0xbd35f6e1	-0.044424895
156	0x3c954c58	0.01822488
157	0x3bb03205	0.0053770565
158	0x3d3f4cd3	0.046704125
159	0xbeab55ce	-0.334639
160	0x3ad85c7f	0.0016507058
161	0x3e12ac5f	0.14323567
162	0x3b57d46d	0.0032933012
163	0x3d0979b7	0.033563342
164	0xbd0a3da8	-0.033750206
165	0x3e06f84b	0.13180654
166	0xbd9d5013	-0.076812886
167	0xbd04f0f3	-0.03245635
168	0xbe9b0da9	-0.3028386
169	0xbe709cd5	-0.23497327
170	0x3dc45a79	0.09587569
171	0x3e911fca	0.28344566
172	0xbd9398d0	-0.07206881
173	0xbd9607ac	-0.07325682
174	0xbd866b58	-0.06563443
175	0x3cd48728	0.025943354
176	0x3d5301cf	0.051515397
177	0xbe551718	-0.20809591
178	0x3cfd3366	0.030908298
179	0x3d6e2ffe	0.058151238
180	0xbd63ab95	-0.055583555
181	0x3e62d553	0.22151689
182	0x3e042b0f	0.1290705
183	0xbe21bccd	-0.15794678
184	0x3e23e117	0.16003834
185	0x3e280520	0.16408205
186	0xbdf387a9	-0.118911095
187	0x3e5df36e	0.21674892
188	0xbdba714e	-0.091036424
189	0xbccfaac0	-0.025349975
190	0x3d5df5a2	0.05418933
191	0xbcb73da5	-0.022368262
192	0xbde70a74	-0.11281291
193	0x3b2c84f6	0.0026324368
194	0x3ca2d6cb	0.019877812
195	0x3e0a4217	0.13501774
196	0xbd6378a8	-0.05553499
197	0x3da2b773	0.079451464
198	0x3e5a17b4	0.21298105
199	0xbd681d10	-0.05666834
200	0xbe21f375	-0.15815528
201	0xbd291085	-0.04127552
202	0xbe4aee0f	-0.19817375
203	0xbc814408	-0.01577951
204	0xbc9326df	-0.017962871
205	0x3e50e1f9	0.20398702
206	0xbe1cb5dd	-0.1530375
207	0xbbe0195e	-0.0068389615
208	0x3ce9e8f1	0.028553458
209	0xbcb40bc6	-0.02197827
210	0xbe46d683	-0.19417767
211	0x3d8fa493	0.07013812
212	0x3cc5a4a4	0.024126358
213	0x3d124ed5	0.03571971
214	0xbd4e0c90	-0.05030495
215	0xbc7491e6	-0.014927363
216	0x3e95e7e8	0.29278493
217	0x3db9c8c2	0.09071495
218	0xbcad7e67	-0.021178437
219	0x3d17358d	0.036916304
220	0x3d28f30d	0.041247416
221	0x3cb666fc	0.022265904
222	0x3cb77f9e	0.02239972
223	0x3d6f6c18	0.058452696
224	0xbda8806a	-0.08227618
225	0xbe318ebd	-0.17339607
226	0xbdba54ad	-0.09098182
227	0x3d9432ab	0.07236227
228	0x3d003544	0.031300798
229	0x3d0ba91d	0.034096826
230	0xbcb839a8	-0.02248843
231	0xbe5f1999	-0.21787108
232	0xbd6a0b1a	-0.057139494
233	0xbdc49d70	-0.09600341
234	0xbb9c4ea3	-0.0047701164
235	0xbe1d880c	-0.15383929
236	0xbdd4e735	-0.10395662
237	0xbda36030	-0.07977331
238	0x3ea8c76b	0.32964644
239	0xbe3ef7d5	-0.18649228
240	0x3e6c0a71	0.23050858
241	0x3b8ef274	0.0043623988
242	0x3e8acb0f	0.27108046
243	0x3d234501	0.03986073
244	0xbd84a867	-0.06477433
245	0x3c8ae0e0	0.016952932
246	0xbdffed05	-0.1249638
247	0x3deb3e1b	0.11486455
248	0xbe0b4379	-0.13599958
249	0x3b1a6b63	0.0023562543
250	0xbdcf2f8e	-0.10116492
251	0x3c79a362	0.015236707
252	0xbe43bcbf	-0.1911497
253	0x3e26ed35	0.16301425
254	0x3daab83b	0.083359204
255	0xbe7c8e1f	-0.2466359

encoder.net.2.bias f4 [60]
0	0xbd29d2f2	-0.04146094
1	0xbd020e2f	-0.031751808
2	0xbd6a28c7	-0.057167795
3	0xbd24c102	-0.04022313
4	0xbd2a5b11	-0.041590754
5	0xbd66f5d6	-0.05638679
6	0xbd374d6e	-0.044751577
7	0xbd252690	-0.04031998
8	0x3d558ddc	0.05213724
9	0x3d16a6af	0.036780056
10	0xbd074bdc	-0.03303133
11	0x3bf79ae7	0.0075563076
12	0x3d109e75	0.035307366
13	0xbd151503	-0.03639699
14	0x3d05a0b9	0.03262398
15	0xbd204649	-0.03912953
16	0x3cdc3f7c	0.02688574
17	0xbcce7308	-0.025201336
18	0xbd10c387	-0.03534272
19	0xbd320635	-0.04346295
20	0xbd281ae3	-0.041041266
21	0xbd15c32b	-0.03656308
22	0x3d3413bf	0.043964144
23	0xbd1ec1e4	-0.038759127
24	0xbd8334f3	-0.06406584
25	0xbd2396aa	-0.039938606
26	0xbd589720	-0.0528785
27	0x3cb444ec	0.02200552
28	0xbd14414a	-0.036195077
29	0xbd660812	-0.05616004
30	0x3d4f6cef	0.050640997
31	0xbc1bd56a	-0.009511331
32	0x3d16e427	0.036838677
33	0xbd13fdd1	-0.03613073
34	0x3d3afd5f	0.04565179
35	0x3cda337e	0.026635882
36	0xbd19018a	-0.037354983
37	0x3d08a405	0.033359546
38	0xbcb47d4f	-0.022032408
39	0xbc89b2b9	-0.016808854
40	0xbd0d8516	-0.03455075
41	0x3d179246	0.03700473
42	0xbd02d4a2	-0.031941064
43	0x3cee6a04	0.029103287
44	0xbd09aa67	-0.033609774
45	0xbadc2390	-0.0016795266
46	0x3cfa711f	0.030571518
47	0x3a6b5bec	0.0008978236
48	0xbd49e59a	-0.04929123
49	0xbd20a06f	-0.0392155
50	0xbd254e2b	-0.04035775
51	0x3d0fba58	0.03508982
52	0xbd88e5c1	-0.06684447
53	0x3d97ae05	0.074062385
54	0x3d14be97	0.036314573
55	0xbd845df1	-0.064632304
56	0xbce0928c	-0.027413629
57	0xbd2e0cbc	-0.042492613
58	0xbd1d359d	-0.038381208
59	0xbd11693f	-0.03550076

encoder.net.5.weight f4 [32, 60]
0	0x3df27499	0.118386455
1	0x3c99aa7f	0.018758057
2	0x3deeb602	0.11655809
3	0xbd156ab5	-0.036478717
4	0x3d26ea8b	0.04075102
5	0xbb5307bd	-0.0032200657
6	0x3dc727b3	0.09724369
7	0xbd1e04c4	-0.038578764
8	0x3df0fd3f	0.11767053
9	0xbe4e7524	-0.20161873
10	0xbe0aeb83	-0.13566403
11	0xbe31c801	-0.17361452
12	0xbe4448b2	-0.19168356
13	0xbe059d3f	-0.13048266
14	0xbe6602ad	-0.22461958
15	0xbd80689a	-0.06269951
16	0x3e44fc20	0.19236803
17	0x3ba920b7	0.0051613706
18	0xbdd4128f	-0.10355102
19	0xbd1985fc	-0.037481293
20	0x3dd08623	0.101818345
21	0xbc46493c	-0.012102421
22	0x3d69dfc1	0.057098154
23	0x3db4c62a	0.08826859
24	0xbe04ebf7	-0.12980638
25	0x3e1e6046	0.15466413
26	0x3d61e384	0.055148616
27	0xbd733575	-0.059377152
28	0x3e868ee7	0.262809
29	0x3e8e1c43	0.27755937
30	0xbe3f2435	-0.18666156
31	0x3e6147a0	0.21999979
32	0xbe18e6ab	-0.14931743
33	0xbe2a9a57	-0.16660438
34	0xbe43be41	-0.19115545
35	0x3e0908fa	0.1338233
36	0x3e103572	0.14082888
37	0xbdb9376d	-0.09043775
38	0x3e1409e3	0.14456896
39	0x3d4a940e	0.049457602
40	0x3da3f682	0.08006002
41	0xbe08f5c9	-0.1337501
42	0x3e89af8d	0.26891747
43	0x3cfb2572	0.030657504
44	0x3e421464	0.18953091
45	0x3e4a2111	0.19739176
46	0xbcc6e11f	-0.024277268
47	0xbe00e8ae	-0.1258876
48	0x3e1a8345	0.15089138
49	0x3e71546f	0.23567365
50	0x3d9464b6	0.072457716
51	0x3d06fd32	0.03295631
52	0xbe1876d7	-0.14889084
53	0xbcde5740	-0.027141213
54	0xbdf50f3c	-0.11965796
55	0x3e35d9af	0.17758821
56	0xbcf8c9c4	-0.030369647
57	0xbdbfb3a0	-0.093604326
58	0x3bd50dd3	0.006501892
59	0x3d678219	0.056520555
60	0x3e0681ae	0.13135406
61	0x3d926dd2	0.07149853
62	0xbb100103	-0.002197326
63	0x3dcd52d3	0.10025563
64	0x3e78aef0	0.24285483
65	0x3e77c7b7	0.24197279
66	0xbd80242a	-0.06256898
67	0x3e04d2d9	0.12971057
68	0xbd5f16a4	-0.05446495
69	0xbe354efd	-0.17705913
70	0x3cdfe4bd	0.02733075
71	0xbe450cdc	-0.19243187
72	0xbcd9fc4f	-0.026609568
73	0x3e49be0a	0.197014
74	0xbd322246	-0.043489717
75	0xbe4432a5	-0.19159944
76	0xbe2a2fc2	-0.1661978
77	0xbdc18cb3	-0.09450664
78	0xbd8187da	-0.0632474
79	0x3ae83b31	0.0017717836
80	0xbe556310	-0.2083857
81	0xbc48208f	-0.012214794
82	0x3e18d650	0.14925504
83	0x3c0b5e8a	0.008506427
84	0x3d4fe779	0.05075786
85	0x3deebc16	0.11656968
86	0x3e2c742d	0.16841193
87	0x3e4622ba	0.19349185
88	0x3e341092	0.17584446
89	0xbe2de7a6	-0.16982898
90	0xbe224aea	-0.1584889
91	0xbe6f8e13	-0.23394041
92	0xbe32426a	-0.17408147
93	0xbe1a5335	-0.15070803
94	0x3d8b6bee	0.06807695
95	0xbbabbaba	-0.0052407654
96	0x3e28e0be	0.16491982
97	0xbdae9d7d	-0.08526132
98	0x3d92f3c4	0.07175401
99	0x3cc1a9ae	0.02364048
100	0xbc8541f6	-0.016266804
101	0xbe3d515a	-0.18488064
102	0x3d5fedf3	0.054670285
103	0xbd8a8fc9	-0.06765706
104	0xbc4aedbd	-0.012385783
105	0x3e8d6fc2	0.27624327
106	0xbce24b01	-0.027623655
107	0xbd92ee09	-0.07174308
108	0xbbf03b35	-0.007331277
109	0x3d20304a	0.039108552
110	0xbe30b449	-0.17256273
111	0x3c88ded5	0.016707817
112	0xbdd407bd	-0.103530385
113	0x3dd863ef	0.10565936
114	0xbea9bab7	-0.33150265
115	0x3d635f0b	0.055510562
116	0x3e97ff20	0.29686832
117	0x3e1ea33b	0.15491955
118	0xbe2a5be2	-0.16636613
119	0xbda9e6ad	-0.08295951
120	0xbd17b6fa	-0.037039734
121	0xbdae7c74	-0.08519831
122	0xbdfff876	-0.12498562
123	0x3dd16f94	0.1022636
124	0x3dc6c3d8	0.09705323
125	0xbd5edb1a	-0.05440817
126	0xbd5df604	-0.054189697
127	0xbc46d1f0	-0.012135014
128	0xbcfafd4a	-0.030638356
129	0xbd9664f9	-0.07343478
130	0xbda4c3e0	-0.08045173
131	0xbe9189a6	-0.2842533
132	0xbde67d2a	-0.11254342
133	0xbd793041	-0.060837034
134	0xbd9d84a0	-0.07691312
135	0x3dcf19ad	0.10112319
136	0xbe41aa42	-0.18912604
137	0xbe460a11	-0.19339778
138	0xbe294aa5	-0.16532381
139	0xbdde9ce5	-0.10869769
140	0xbdda1f74	-0.106505305
141	0xbe3e7e22	-0.18602803
142	0x3e2337c9	0.15939249
143	0xbcf34c92	-0.029699598
144	0xbd490222	-0.0490743
145	0x3ea4d2fd	0.3219222
146	0xbdeb75f3	-0.114971064
147	0x3e1676b9	0.14693727
148	0x3c2b46b9	0.010453873
149	0x3e2190e9	0.15777935
150	0x3e3b86de	0.18313166
151	0xbeb679c6	-0.3563978
152	0x3cf0e710	0.029407054
153	0x3e02a943	0.1275988
154	0xbe11f77d	-0.14254566
155	0xbccdc893	-0.025120055
156	0x3d06ff2b	0.03295819
157	0xbcf20075	-0.029541234
158	0x3e25bf95	0.16186364
159	0xbdbeaad0	-0.09309924
160	0xbd0cff1a	-0.03442297
161	0x3b72e90d	0.0037065179
162	0x3c1ca686	0.009561187
163	0xbe024cd2	-0.12724617
164	0xbdcfaedc	-0.10140774
165	0x3e30070c	0.17190188
166	0xbe3bf354	-0.18354541
167	0xbe21c5fb	-0.1579818
168	0x3dd1031a	0.1020567
169	0xbdf27574	-0.11838809
170	0x3de9e82a	0.11421235
171	0x3c2bb803	0.0104808835
172	0x3da354f6	0.079751894
173	0x3e350688	0.17678273
174	0x3dd1291c	0.10212919
175	0x3d55613c	0.052094683
176	0x3e6b1c89	0.22960104
177	0xbd39195a	-0.045190193
178	0xbe4ca245	-0.19983776
179	0x3e324a9c	0.17411274
180	0xbe0823fd	-0.13294978
181	0x3dadd943	0.08488705
182	0x3db514e0	0.08841872
183	0xbd76de44	-0.060270563
184	0xbe21245e	-0.15736529
185	0xbcca13eb	-0.0246677
186	0x3e2d826f	0.16944288
187	0x3de1c00c	0.11022958
188	0xbda27bc2	-0.07933761
189	0xbdc2e937	-0.095171385
190	0x3d86a5fa	0.06574626
191	0xbe06f460	-0.13179159
192	0xbd442555	-0.047887165
193	0xbd4cccab	-0.049999874
194	0x3dba2a5c	0.09090111
195	0xbd8482dc	-0.06470272
196	0x3e22691c	0.15860409
197	0x3dc69ba9	0.096976586
198	0xbd7c6874	-0.06162305
199	0x3daa8a2c	0.083271354
200	0x3de5938b	0.11209782
201	0xbd45d452	-0.048298188
202	0x3e023dc8	0.1271888
203	0xbe1415db	-0.14461462
204	0x3da883be	0.08228253
205	0x3e2d5633	0.16927414
206	0x3dd939b5	0.1060671
207	0x3a99dee6	0.0011739403
208	0x3da1a49f	0.07892727
209	0x3dc16f16	0.09445016
210	0xbe287c34	-0.1645363
211	0x3d9561f8	0.07294077
212	0xbd00609b	-0.03134213
213	0x3d9170ed	0.07101617
214	0x3da34f94	0.07974163
215	0x3d80597c	0.06267068
216	0x3cb02d94	0.021506108
217	0xbb8e75c0	-0.004347533
218	0xbdfcda11	-0.1234628
219	0x3e2e50f6	0.17023072
220	0xbebc42a2	-0.36769587
221	0xbdc254b9	-0.09488816
222	0xbdfa2ab2	-0.12215175
223	0x3e36a819	0.17837562
224	0xbd9c5baa	-0.07634671
225	0x3d1bbf95	0.038024504
226	0xbe125dcf	-0.14293598
227	0x3d2d8faa	0.042373337
228	0x3dfc43d5	0.123176254
229	0x3e0d027f	0.13770483
230	0x3d1d26c8	0.038367063
231	0xbe0259bf	-0.12729548
232	0x3da7a9ab	0.081866585
233	0xbe5d467f	-0.21608923
234	0xbe3280eb	-0.17431991
235	0x3e01352d	0.12617941
236	0x3d692832	0.0569231
237	0x3dc1f3e7	0.09470349
238	0xbce6b53f	-0.028162597
239	0xbe2be64f	-0.16787075
240	0xbe60ef9b	-0.21966402
241	0x3d1f5fae	0.038909607
242	0xbe5ef077	-0.21771418
243	0x3d32b47a	0.043629147
244	0xbd84112b	-0.06448587
245	0xbd985c46	-0.07439475
246	0x3d7c94b0	0.061665237
247	0x3d260cc2	0.04053951
248	0x3d5a66e0	0.053320765
249	0xbea884a2	-0.3291369
250	0x3e0ade2e	0.13561317
251	0xbe3f8d52	-0.18706253
252	0xbde37615	-0.11106507
253	0x3ea2fe6c	0.31834733
254	0x3e3aa868	0.18228304
255	0x3da3f47d	0.08005617

encoder.net.5.bias f4 [32]
0	0xbd3940d7	-0.04522785
1	0xbd0632e1	-0.032763366
2	0xbd93c231	-0.072147734
3	0xbe0aecee	-0.13566944
4	0xbd1f941d	-0.03895961
5	0x3d378721	0.044806603
6	0x3d675048	0.056473047
7	0x3cd3ca19	0.025853204
8	0x3d19b8ab	0.03752963
9	0x3db7dcd7	0.08977669
10	0xbd6d494e	-0.057931237
11	0x3d4f407d	0.05059861
12	0x3d363556	0.04448446
13	0xbd557b6a	-0.05211965
14	0xbd349320	-0.04408562
15	0xbd8849ac	-0.06654677
16	0x3d70b678	0.058767766
17	0xbd2c93cf	-0.04213315
18	0xbd303a89	-0.043024573
19	0x3d4f12ac	0.050554916
20	0xbd420179	-0.047364686
21	0x3d000178	0.0312514
22	0xbd68593d	-0.05672573
23	0x3d88fcd0	0.06688845
24	0xbd30a4c9	-0.0431259
25	0xbd7cbcbf	-0.06170344
26	0x3cd8f4a6	0.026483845
27	0xbd9dd5a9	-0.07706768
28	0xbd333828	-0.043754727
29	0xbd3e0a62	-0.04639662
30	0xbd475e05	-0.04867365
31	0xbd183daf	-0.0371682

predictor.net.1.weight f4 [32, 32]
0	0xbb069adb	-0.0020539078
1	0x3e81a668	0.2532227
2	0xbdb7d27e	-0.08975695
3	0x3e265f12	0.16247204
4	0x3e7187ec	0.23587006
5	0xbe8a52d0	-0.27016306
6	0x3d626f59	0.05528197
7	0xbd974163	-0.073855184
8	0x3d4c211d	0.049836267
9	0xbe68fa55	-0.22751744
10	0xbe79e755	-0.24404652
11	0x3e1517b7	0.14559828
12	0xbc1130e6	-0.008861756
13	0xbd666cfd	-0.056256283
14	0xbdc245ad	-0.09485946
15	0x3ddc4143	0.10754635
16	0x3d90abfd	0.07064054
17	0xbdd18412	-0.102302685
18	0xbde6b513	-0.11265006
19	0xbd33f4d5	-0.043934662
20	0xbe96b100	-0.29431915
21	0xbddd4e79	-0.10805983
22	0xbd9f3beb	-0.077751
23	0xbd04f362	-0.03245867
24	0x3e48d8a3	0.1961389
25	0xbd050069	-0.032471094
26	0xbe0bd985	-0.13657196
27	0x3d8f5984	0.069994956
28	0xbdc815d8	-0.09769791
29	0x3bad4601	0.005287886
30	0xbe6e5bed	-0.23277254
31	0x3da612b0	0.08109033
32	0x3e070cb5	0.13188441
33	0xbd72f165	-0.059312243
34	0xbcb47a63	-0.022031015
35	0x3d925cf5	0.071466364
36	0xbe1aad40	-0.15105152
37	0xbcd7eea6	-0.026358914
38	0x3e8a995a	0.27070123
39	0x3e335ce6	0.17515907
40	0x3d9e5875	0.077317156
41	0x3db49872	0.08818139
42	0xbd966568	-0.073435605
43	0x3e60aa44	0.21939951
44	0x3eaf3c77	0.3422582
45	0x3e1e98ce	0.15487978
46	0x3dcfa295	0.10138432
47	0xbe64f766	-0.2236
48	0x3efcbf3b	0.49364647
49	0x3dd7e0c2	0.10540916
50	0x3e041f35	0.1290253
51	0x3e1da09d	0.153933
52	0x3dd393d1	0.10330928
53	0xbe02c2bd	-0.127696
54	0x3e3156a8	0.17318213
55	0x3e4d18e8	0.20029032
56	0x3e3398d4	0.17538768
57	0x3e13599c	0.14389652
58	0x3ebf3a36	0.373491
59	0x3e0a0330	0.13477778
60	0x3eb87ac7	0.36031172
61	0x3c641abe	0.013922391
62	0x3da9c06e	0.08288656
63	0x3dd633fa	0.104591325
64	0xbe6fbb0a	-0.23411193
65	0xbdd613d9	-0.104530044
66	0xbd1e6a2f	-0.038675483
67	0xbd95a54c	-0.073069185
68	0x3d62412b	0.05523793
69	0x3e3835c7	0.17989264
70	0x3e624520	0.22096682
71	0x3e6ee837	0.2333077
72	0x3d31d5cc	0.043416783
73	0x3e79b090	0.2438376
74	0xbe0af195	-0.13568719
75	0x3d8aef65	0.06783942
76	0xbe791730	-0.24325252
77	0xbe0cea45	-0.13761242
78	0xbeba063c	-0.3633288
79	0xbcde95af	-0.027170984
80	0x3e02f081	0.12787057
81	0x3dcfc5be	0.10145138
82	0xbe84e12b	-0.2595304
83	0xbe0ac658	-0.13552225
84	0xbd871471	-0.06595696
85	0xbd9acb81	-0.075583465
86	0xbe473a74	-0.19455892
87	0x3e28489f	0.16433953
88	0xbdc48609	-0.09595878
89	0xbdec806e	-0.115479335
90	0xbe026591	-0.12734057
91	0xbeefa0f0	-0.46802473
92	0xbe3d7fc3	-0.18505768
93	0xbd37e996	-0.0449005
94	0xbe537b1f	-0.20652436
95	0xbd0b7037	-0.034042563
96	0xbe85da07	-0.26142904
97	0xbbf080a1	-0.0073395525
98	0xbe8327d6	-0.2561633
99	0xbc9d3791	-0.019191535
100	0x3d5b1a02	0.0534916
101	0x3da67566	0.08127861
102	0x3e17d2bd	0.14826484
103	0xbeb6449f	-0.3559923
104	0x3e26e29d	0.16297384
105	0x3e743db6	0.23851666
106	0xbe22875b	-0.15871947
107	0xbeac36a9	-0.33635452
108	0xbe93c0f0	-0.28858137
109	0x3e3c4c30	0.18388438
110	0x3f16ebca	0.58953536
111	0x3dc08846	0.09400992
112	0xbe02693d	-0.12735458
113	0x3e83c899	0.2573898
114	0x3e513954	0.20432025
115	0x3e191184	0.14948088
116	0x3d83c875	0.064347185
117	0x3e46d52b	0.19417255
118	0xbd1a2101	-0.03762913
119	0x3e0ed847	0.13949691
120	0xbe654409	-0.22389235
121	0xbd0bd883	-0.03414203
122	0x3e0c38a4	0.13693482
123	0x3d2c3d97	0.042050924
124	0x3d8f1f46	0.06988387
125	0xbda63af4	-0.08116713
126	0x3db652bf	0.08902501
127	0x3e1adfac	0.15124387
128	0xbc1ab972	-0.009443628
129	0xbd4bcab0	-0.049753845
130	0x3e8a360d	0.26994362
131	0x3d6483f8	0.055789918
132	0xbd85cc89	-0.065331526
133	0x3e80c83f	0.25152776
134	0x3e655812	0.22396877
135	0x3e0d8acd	0.1382248
136	0x3e248044	0.16064554
137	0xbe23681d	-0.15957685
138	0x3d8862f1	0.066594966
139	0xbc8b1a2a	-0.01698025
140	0x3dddd092	0.10830797
141	0xbde3b096	-0.111176655
142	0xbe14f1a8	-0.1454531
143	0xbdd9263d	-0.106029965
144	0xbd3ebf39	-0.046569083
145	0xbdad0657	-0.08448475
146	0x3e19f956	0.1503652
147	0xbe28fb3d	-0.1650209
148	0xbe4ff80b	-0.20309465
149	0x3daab5d2	0.08335461
150	0x3e0434a6	0.12910709
151	0x3db25a4c	0.08708629
152	0x3caf3620	0.021388113
153	0xbea52373	-0.32253608
154	0xbe9f15c0	-0.3107128
155	0x3e36af26	0.17840251
156	0xbd90b71a	-0.07066174
157	0xbd5d725a	-0.054064132
158	0xbd958a2b	-0.07301744
159	0x3e9212c6	0.28529948
160	0xbe68acf2	-0.22722223
161	0xbc73871a	-0.014863754
162	0xbe308598	-0.17238462
163	0xbe8b6a16	-0.27229375
164	0x3ededdcd	0.43528596
165	0x3db0213b	0.08600088
166	0x3e94500d	0.28967324
167	0x3e360d1e	0.17778441
168	0xbdbf449e	-0.093392596
169	0xbe4b00c9	-0.19824518
170	0x3e1408cb	0.14456479
171	0xbd99137b	-0.07474419
172	0xbca84273	-0.020539498
173	0xbd8961fc	-0.06708142
174	0xbe506253	-0.20350008
175	0x3ea3f3ac	0.32021844
176	0x3e12408f	0.1428244
177	0xbcfc49e3	-0.03079695
178	0xbd8eca25	-0.0697215
179	0x3e6ceccd	0.23137207
180	0xbe01f22f	-0.12690042
181	0xbe73c786	-0.23806581
182	0x3d7a6c95	0.06113871
183	0x3e7ba949	0.24576296
184	0xbe07258b	-0.13197915
185	0x3d5ebdc6	0.0543802
186	0xbd86e318	-0.065862834
187	0xbe5b4d5d	-0.2141623
188	0x3d06e44c	0.032932565
189	0xbe6d963f	-0.23201846
190	0xbd4478ad	-0.047966648
191	0xbe314770	-0.17312407
192	0x3d3f0113	0.046631884
193	0x3c360b5f	0.0111111095
194	0xbcf55484	-0.029947527
195	0x3e6ed6c5	0.23324116
196	0xbe8febfe	-0.28109735
197	0xbdbc85aa	-0.09205182
198	0xbcc4330e	-0.023950126
199	0xbdc93cdc	-0.09826061
200	0x3e08ae8b	0.13347833
201	0x3dbf7714	0.09348884
202	0x3dcb9366	0.099402234
203	0x3d116d76	0.03550478
204	0xbdfb1914	-0.12260643
205	0xbd28ad42	-0.041180857
206	0xbe30b3c0	-0.17256069
207	0x3e9b205a	0.3029812
208	0x3d28c406	0.041202568
209	0x3ddb45a3	0.107066415
210	0xbd8c35f8	-0.06846231
211	0x3d1e5977	0.03865954
212	0x3c770515	0.015076895
213	0xbe8c0c14	-0.27352965
214	0x3d98801d	0.07446311
215	0x3d1ca20c	0.038240477
216	0xbcb37025	-0.02190406
217	0xbcae73cb	-0.021295449
218	0xbddd82a5	-0.10815934
219	0x3da55e66	0.08074646
220	0x3c99d5cb	0.018778702
221	0x3e170e90	0.14751649
222	0x3e2d076b	0.16897361
223	0xbd2d8330	-0.04236144
224	0x3deb7229	0.11496384
225	0xbe45fece	-0.19335482
226	0x3d4ace03	0.049512874
227	0xbcf0ca2a	-0.029393274
228	0x3e110556	0.14162192
229	0x3c8d2ad1	0.01723233
230	0xbe0ec062	-0.13940576
231	0xbe60662d	-0.21913977
232	0x3e8aab9e	0.2708406
233	0xbd0ff2b6	-0.035143577
234	0x3c69986c	0.014257532
235	0xbc9f781d	-0.019466454
236	0x3df1db86	0.11809449
237	0xbe66f8e8	-0.22555888
238	0x3ce912d2	0.028451357
239	0x3de23e1c	0.11047003
240	0xbe1afe37	-0.15136038
241	0xbdc1288e	-0.09431563
242	0x3e30ac05	0.1725312
243	0xbe2a573b	-0.16634838
244	0xbcfa7b76	-0.030576449
245	0xbde33139	-0.11093373
246	0xbd39c2dd	-0.04535185
247	0xbe8b21b7	-0.2717416
248	0x3e11ab7c	0.14225572
249	0x3cf0de55	0.029402891
250	0xbd0f86c7	-0.035040643
251	0xbd3c3c50	-0.045955956
252	0x3e53bbbd	0.20677085
253	0x3dee11b7	0.116244726
254	0x3de2ee1b	0.11080571
255	0xbe7a4da3	-0.24443679

predictor.net.1.bias f4 [32]
0	0xbddf2bcb	-0.10897025
1	0xbdd8786e	-0.10569845
2	0x3dec33df	0.11533331
3	0x3dfbf872	0.123032466
4	0xbde4e79e	-0.1117699
5	0xbde8873c	-0.11353919
6	0xbdd029a2	-0.10164191
7	0xbdbbda2c	-0.09172472
8	0xbe026b3d	-0.1273622
9	0xbe6a7ad3	-0.22898416
10	0x3dd4aef4	0.10384932
11	0xbdee93eb	-0.11649307
12	0x3dcd32a5	0.10019425
13	0xbe0b5398	-0.13606107
14	0x3e40e76e	0.18838283
15	0xbda7bd25	-0.08190373
16	0xbdc6464c	-0.09681377
17	0xbdd37fc0	-0.10327101
18	0x3c9a096e	0.018803325
19	0x3dd4f54a	0.10398348
20	0xbdbeeb24	-0.09322193
21	0x3db68f3d	0.08914039
22	0xbdc65b77	-0.09685414
23	0xbdd14351	-0.10217918
24	0x3dcd44af	0.10022866
25	0xbdcc9dbf	-0.09991025
26	0x3dd19968	0.10234338
27	0xbe18fbad	-0.14939757
28	0xbdc2769c	-0.09495279
29	0xbdd63eab	-0.10461172
30	0xbdc41353	-0.09573998
31	0x3dc24002	0.09484865

predictor.net.3.weight f4 [1, 32]
0	0xbe33eb36	-0.17570195
1	0xbe237f3f	-0.1596651
2	0x3ea98a1f	0.3311319
3	0x3e3fc9e2	0.18729356
4	0xbec3802e	-0.3818373
5	0xbe333f12	-0.17504528
6	0xbed8dee6	-0.42357558
7	0xbd811d78	-0.06304449
8	0xbe5027ed	-0.2032773
9	0xbdb6ef2a	-0.08932336
10	0x3eeb938c	0.46011007
11	0xbe0177d9	-0.12643375
12	0x3dda9d7f	0.10674571
13	0xbe0c6a11	-0.13712336
14	0x3e05ee7f	0.1307926
15	0xbd447436	-0.04796239
16	0xbe2be4a4	-0.16786438
17	0xbeaf3879	-0.34222773
18	0xbcf10d85	-0.029425392
19	0x3f17e403	0.59332293
20	0xbe97ad6c	-0.29624498
21	0x3e14a139	0.14514627
22	0xbe781cf4	-0.24229795
23	0xbe000cfb	-0.12504952
24	0x3e598084	0.21240431
25	0xbe9f105e	-0.31067175
26	0x3d45ba43	0.048273336
27	0xbe196f12	-0.14983776
28	0xbe5ff250	-0.21869779
29	0xbe09de05	-0.134636
30	0xbe54d2bd	-0.20783515
31	0x3ebc3983	0.36762628

net.0.weight f4 [60, 35]
0	0x3d8012e0	0.062536
1	0x3e208c8d	0.15678616
2	0x3d9f2519	0.07770748
3	0xbc4bb0e6	-0.012432313
4	0x3e4e73ae	0.20161316
5	0x3c8d8681	0.01727605
6	0x3e3920b2	0.18078879
7	0xbe2ddfa9	-0.16979851
8	0x3da9b731	0.08286894
9	0x3cf61050	0.030037075
10	0xbe0724e5	-0.13197668
11	0x3de67e55	0.11254565
12	0x3e892782	0.26787955
13	0xbdad28a2	-0.08455016
14	0xbd6adaf4	-0.057337716
15	0xbde9aef4	-0.11410323
16	0xbd272afa	-0.04081247
17	0x3d2c0361	0.04199541
18	0xbe10fde3	-0.1415935
19	0xbea33eab	-0.3188375
20	0xbd96450f	-0.07337391
21	0xbdba833d	-0.09107063
22	0xbe5989d8	-0.2124399
23	0xbb58345e	-0.0032990198
24	0xbe0c9f2f	-0.13732599
25	0x3de86b2b	0.11348566
26	0xbe09aeac	-0.13445538
27	0x3d63ae3f	0.055586096
28	0xbed6f0e3	-0.41980657
29	0xbe0f9106	-0.14020166
30	0x3e746e3e	0.23870179
31	0xbb29b5cd	-0.0025895715
32	0xbd8f20ba	-0.06988664
33	0x3e05b53d	0.13057418
34	0xbe120c9a	-0.1426262
35	0x3ce71b58	0.02821128
36	0x3e280f06	0.16411981
37	0x3e8652ea	0.26235133
38	0xbdbd8f72	-0.09255876
39	0xbd86b218	-0.065769374
40	0x3ebd6d6b	0.36997542
41	0x3dfcae15	0.12337891
42	0x3d4d5442	0.050129183
43	0xbe884da7	-0.26621744
44	0xbd7cf53a	-0.061757304
45	0xbcf18bac	-0.029485546
46	0xbe1e7612	-0.15474728
47	0xbd907c52	-0.07054962
48	0x3d8e7480	0.06955814
49	0x3e0d8de9	0.13823666
50	0x3dcbacd6	0.09945075
51	0xbd186466	-0.037205122
52	0xbd70ba30	-0.058771312
53	0x3eaef327	0.34169886
54	0xbead6741	-0.3386784
55	0x3e00321b	0.12519114
56	0x3e772f7b	0.24139206
57	0xbea2db54	-0.3180796
58	0x3ded4a8b	0.115864836
59	0x3e323d3c	0.17406172
60	0xbe7d6440	-0.24745274
61	0xbda9507c	-0.08267304
62	0xbd153fe6	-0.03643789
63	0x3d51296d	0.051064897
64	0xbd275ce3	-0.040860068
65	0x3d823de1	0.06359459
66	0x3ec00c9c	0.3750962
67	0x3d774829	0.06037155
68	0xbe0fe14b	-0.14050786
69	0xbdf56ad0	-0.119832635
70	0xbdd47281	-0.103734024
71	0xbe27e842	-0.16397193
72	0xbe33a6a4	-0.17544037
73	0xbcd5f3df	-0.026117263
74	0x3cd61c8d	0.026136661
75	0x3e157fc1	0.14599515
76	0x3d6a4368	0.05719319
77	0xbdd7175d	-0.10502503
78	0x3e41f7c3	0.1894217
79	0xbd72ebd6	-0.059306942
80	0xbcd2f9c8	-0.02575387
81	0xbbd078ab	-0.006362041
82	0xbdc563d9	-0.09638185
83	0x3c5124ca	0.012765119
84	0x3d39c06d	0.045349527
85	0xbeb16610	-0.3464818
86	0xbdab5918	-0.08366603
87	0xbcfcc4d6	-0.030855577
88	0x3d79999f	0.06093752
89	0x3e91fcb0	0.28513098
90	0xbd8cee39	-0.06881375
91	0xbe9f4008	-0.3110354
92	0xbd83d5b0	-0.06437242
93	0x3c9a219c	0.018814854
94	0xbe92e383	-0.28689203
95	0x3c91fc2c	0.01782044
96	0x3c9e1d46	0.019301068
97	0x3d1f4403	0.03888322
98	0x3e557186	0.20844087
99	0x3d96a96a	0.07356532
100	0xbce2a674	-0.027667262
101	0xbdad5a63	-0.084645055
102	0x3dbfe7f9	0.09370417
103	0x3ef3ab0b	0.47591433
104	0xbeb621e4	-0.35572731
105	0x3e8b76a5	0.27238956
106	0x3e02a504	0.12758261
107	0xbd47bda3	-0.048764836
108	0x3d93b73a	0.07212682
109	0xbe073eb7	-0.13207518
110	0xbeb6ae55	-0.3567988
111	0xbd26a87b	-0.04068802
112	0xbd9cf6a6	-0.07664232
113	0xbd0f1c27	-0.034938958
114	0x3d473329	0.048632775
115	0xbd9209d0	-0.07130778
116	0x3d0f77ae	0.035026245
117	0xbd48a33d	-0.0489838
118	0x38cad294	9.671334e-05
119	0x3dae90d2	0.08523716
120	0xbd9c25db	-0.07624408
121	0xbe433b50	-0.19065595
122	0xbe0ca7fb	-0.13735954
123	0x3e1f87de	0.15579173
124	0xbe8e038d	-0.27737084
125	0x3e224a49	0.1584865
126	0xbe1aca6f	-0.15116285
127	0xbe7e0feb	-0.2481076
128	0xbe27e1d7	-0.16394745
129	0x3e528a8c	0.20560664
130	0xbd27e336	-0.04098817
131	0xbe17532c	-0.14777821
132	0x3e6658a8	0.22494757
133	0xbd001044	-0.031265512
134	0x3dc1f94d	0.094713785
135	0xbd689c2d	-0.056789566
136	0xbda30051	-0.07959045
137	0xbe8f368b	-0.279713
138	0xbd5fd370	-0.054645002
139	0xbd8631bc	-0.06552455
140	0xbc63c1ba	-0.0139011685
141	0x3cf2c768	0.0296361
142	0x3e808f4d	0.2510933
143	0xbd5bc9bf	-0.053659197
144	0xbe9c866d	-0.3057131
145	0x3e1d6b22	0.15372899
146	0xbddb646a	-0.10712512
147	0x3d416c2f	0.047222313
148	0xbccf663b	-0.025317302
149	0x3da7cc92	0.081933156
150	0xbe12d84e	-0.14340326
151	0x3e4677a5	0.19381578
152	0x3d1bb397	0.038013067
153	0xbd484e18	-0.0489026
154	0x3cdca35a	0.02693336
155	0x3e4d611c	0.20056576
156	0x3d39b89e	0.04534208
157	0xbb0ca94e	-0.0021463218
158	0xbd8426fa	-0.06452747
159	0x3e4514f3	0.19246273
160	0xbc77c5fe	-0.015122889
161	0x3d647c1d	0.055782426
162	0x3e3d3c7a	0.18480101
163	0xbe0d1647	-0.1377803
164	0x3e002d84	0.12517363
165	0x3d7fab0a	0.062418975
166	0xbd3bcdcb	-0.045850556
167	0xbc9c74b9	-0.019098626
168	0xbdcb8a04	-0.09938434
169	0x3da7fe59	0.0820281
170	0xbd9b9182	-0.07596113
171	0xbe8d6c32	-0.2762161
172	0x3d9985d2	0.07496227
173	0x3d616c5a	0.055034973
174	0xbe17cd37	-0.14824377
175	0x3d9ca565	0.07648734
176	0x3d05e0e7	0.032685187
177	0xbe51ec5b	-0.20500319
178	0xbe0a06ae	-0.1347911
179	0x3c07db2c	0.008292001
180	0xbe56fa75	-0.2099398
181	0x3df618fb	0.120164834
182	0xbdb42e1a	-0.08797856
183	0x3d73d5ef	0.059530195
184	0xbadc9503	-0.0016829077
185	0xbe85acf8	-0.26108527
186	0x3e511d6f	0.20421384
187	0xbd7620a4	-0.060089722
188	0xbcf941aa	-0.030426819
189	0x3daac91f	0.08339142
190	0x3c32ecc7	0.01092071
191	0xbd969576	-0.07352726
192	0x3df6c145	0.12048582
193	0xbcc5780e	-0.024105098
194	0x3d998781	0.074965484
195	0x3d7351d2	0.0594042
196	0xbd0d2923	-0.03446306
197	0xbd023375	-0.031787354
198	0xbdb2462e	-0.08704792
199	0xbdc33284	-0.095311195
200	0x3e5ee49e	0.21766898
201	0xb88cce20	-6.714114e-05
202	0x3de3e9a3	0.11128547
203	0xbca43346	-0.02004398
204	0xbda3844c	-0.07984218
205	0x3e1686b1	0.14699818
206	0xbd1d3a12	-0.03838546
207	0x3c99723d	0.01873123
208	0xbbb38adf	-0.005479201
209	0x3c30d63b	0.010793264
210	0xbdbf073c	-0.09327552
211	0x3b8be1fc	0.004268883
212	0xbd4148a1	-0.047188405
213	0x3e18c363	0.14918284
214	0x3dcccc51	0.09999908
215	0xbe04b287	-0.12958728
216	0x3e00197b	0.1250972
217	0xbbc8cbc5	-0.006127807
218	0xbdd23a52	-0.1026503
219	0x3c583b35	0.01319771
220	0xbde0abb0	-0.10970247
221	0x3e2f1142	0.17096427
222	0x3caa9c8d	0.020826602
223	0x3e2b2801	0.16714479
224	0xbdcdb26d	-0.10043798
225	0xbe5d76c5	-0.21627338
226	0xbd85ae45	-0.0652738
227	0x3d866950	0.065630555
228	0x3c5ee60e	0.013604654
229	0xbe2c9cca	-0.16856685
230	0xbe54d12b	-0.20782916
231	0xbb6d4e0d	-0.0036209852
232	0x3e43559a	0.19075623
233	0xbe806809	-0.25079373
234	0xbdb96d98	-0.090541065
235	0x3dacb7c7	0.0843349
236	0xbd77f257	-0.060533848
237	0x3e2f881c	0.17141765
238	0xbc2dfa14	-0.010618705
239	0xbd956ff4	-0.07296744
240	0xbe188d51	-0.14897658
241	0xbec4396d	-0.38325062
242	0x3e7f441b	0.24928324
243	0x3ca1fe12	0.01977447
244	0x3e1c4c5d	0.15263505
245	0x3dc7e871	0.097611316
246	0x3d89e412	0.06732954
247	0x3d49e2bd	0.0492885
248	0x3d953b1d	0.072866656
249	0x3d3995ae	0.04530876
250	0x3dbda364	0.0925968
251	0xbe4b31a3	-0.19843154
252	0x3c952c64	0.018209644
253	0xbe3f422d	-0.18677588
254	0x3e468067	0.19384919
255	0xbd1795c8	-0.037008077

net.0.bias f4 [60]
0	0xbd2ab633	-0.041677665
1	0x3dcf4790	0.10121071
2	0x3d0ebe61	0.03484953
3	0xbc18b6fe	-0.0093209725
4	0x3d7a0c08	0.06104663
5	0x3d0528ec	0.03250973
6	0x3c4fe986	0.012689954
7	0x3da850c5	0.082185306
8	0x3de6fcb7	0.1127867
9	0x3d532d2e	0.05155676
10	0x3dab7b9f	0.08373188
11	0xbe0af400	-0.13569641
12	0xbe012b33	-0.12614135
13	0xbd627e60	-0.0552963
14	0xbdc8c2a2	-0.09802748
15	0x3de52ef4	0.11190596
16	0x38117fe0	3.4689787e-05
17	0x3d26da21	0.040735368
18	0xbe19557d	-0.14974017
19	0xbda4d881	-0.08049107
20	0x3d5f974e	0.054587655
21	0x3e19f796	0.15035853
22	0xbdaf7952	-0.08568062
23	0x3d2a649f	0.041599866
24	0xbd73ab5c	-0.059489593
25	0x3d5f9697	0.054586973
26	0x3dc2805a	0.09497137
27	0x3d984c56	0.07436435
28	0xbc9e31e2	-0.019310895
29	0xbe13ec09	-0.14445509
30	0xbdd3daa8	-0.1034444
31	0x3e254257	0.16138588
32	0xbd8854fd	-0.06656835
33	0xbd9794e5	-0.07401446
34	0x3e245939	0.1604966
35	0xbd955131	-0.07290877
36	0xbdfc1c25	-0.12310056
37	0xbe0b5404	-0.13606268
38	0xbd9ef27e	-0.077610955
39	0x3dc1fb28	0.094717324
40	0xbda5a47f	-0.08088016
41	0x3d2d4022	0.04229749
42	0x3c583504	0.013196234
43	0x3db213d3	0.086951874
44	0xbdf55e7f	-0.11980914
45	0xbc67a14f	-0.01413758
46	0x3d9d0344	0.076666385
47	0x3d548863	0.05188788
48	0xbd545bc7	-0.05184534
49	0xbdb095d1	-0.08622325
50	0xbe0fc082	-0.1403828
51	0xbda1eda1	-0.07906652
52	0xbe159805	-0.14608772
53	0x3cd5c1fa	0.026093472
54	0xbe2162bc	-0.1576032
55	0x3db919be	0.09038113
56	0xbd80ee3c	-0.062954396
57	0xbd9fd514	-0.07804313
58	0x3d1014ac	0.035175964
59	0x3dc5cb86	0.0965796

net.2.weight f4 [60, 60]
0	0xbd4ed338	-0.050494403
1	0x3e629185	0.22125824
2	0xbd7e64b4	-0.062107757
3	0x3d2b6435	0.04184361
4	0x3da4e9b4	0.08052388
5	0x3c3b27fb	0.011423106
6	0xbd93d1b7	-0.07217734
7	0xbda86606	-0.082225844
8	0xbd979ae2	-0.074025884
9	0x3dad9312	0.08475317
10	0xbdb02c9f	-0.08602261
11	0x3e1fb9da	0.1559824
12	0xbe24f6ad	-0.16109724
13	0x3e3f6c55	0.18693669
14	0xbe26f2c9	-0.16303553
15	0xbdd2dec9	-0.10296399
16	0xbca8cfa0	-0.020606816
17	0x3d114adf	0.035471793
18	0x3cbd7c49	0.023130553
19	0xbe0fa5ab	-0.14028041
20	0xbd1ca516	-0.038243376
21	0xbdb5e3fa	-0.08881374
22	0xbe62aa58	-0.22135293
23	0xbe062216	-0.1309894
24	0x3d5f5cd6	0.054531895
25	0xbbc253ef	-0.005930416
26	0xbdc9dd40	-0.09856653
27	0xbce38793	-0.027774608
28	0x3de74d4b	0.11294039
29	0x3e0df581	0.13863184
30	0xbc87442b	-0.016511997
31	0x3dc8a4c3	0.09797051
32	0xbe274c6a	-0.16337743
33	0x3cfe328e	0.031029966
34	0x3d8369df	0.06416678
35	0x3e3adb74	0.18247777
36	0x3e0bc6bd	0.13650031
37	0x3cacb2dc	0.02108138
38	0xbe0f3524	-0.13985115
39	0xbca8b7ab	-0.020595392
40	0x3d58d672	0.052938886
41	0xbded745c	-0.115944594
42	0x3b9fd7b4	0.0048780087
43	0xbe3abe3c	-0.18236631
44	0x3db0d549	0.08634431
45	0x3d65b8dd	0.056084502
46	0x3cfc33d5	0.030786434
47	0x3ecbec86	0.3982889
48	0xbeab908f	-0.33508727
49	0x3ec3f9a8	0.3827641
50	0xbe5b8e5f	-0.21441029
51	0x3d51a7ce	0.05118542
52	0x3e1575c7	0.1459571
53	0xbdc7992a	-0.097460106
54	0xbd2c39f4	-0.042047456
55	0x3c1d165b	0.0095878495
56	0x3d41ce9a	0.04731617
57	0x3e1e96f6	0.15487275
58	0xbe142c74	-0.14470083
59	0x3b19f1f0	0.0023490153
60	0xbd513e4a	-0.051084794
61	0x3c9e7971	0.019345017
62	0xbd8dac34	-0.06917611
63	0xbd7a0ff8	-0.061050385
64	0x3e19922d	0.14997168
65	0x3e0831f7	0.1330031
66	0x3ce524d2	0.027971659
67	0xbe1743fb	-0.14772026
68	0x3dc276a0	0.09495282
69	0xbe2581bf	-0.16162775
70	0xbe072a5b	-0.13199751
71	0xbd886f43	-0.066618465
72	0xbb76b04a	-0.0037641698
73	0x3e287e09	0.16454329
74	0x3e1daadc	0.15397209
75	0xbe82b69f	-0.25529954
76	0xbe4aefcb	-0.19818036
77	0x3d42e9ea	0.04758636
78	0x3eb8b524	0.360757
79	0xbd63f4ff	-0.05565357
80	0xbe3e6051	-0.1859143
81	0xbb4d0047	-0.0031280683
82	0xbddbf1b0	-0.107394576
83	0x3dfe81cd	0.12427101
84	0x3d249771	0.04018349
85	0xbba7f10d	-0.005125171
86	0x3e0686ec	0.13137406
87	0x3e878365	0.26467434
88	0xbe722afd	-0.23649211
89	0x3d724118	0.05914411
90	0x3ea20833	0.3164688
91	0x3d388bda	0.045055248
92	0xbbbc2f91	-0.005742975
93	0x3cc46cc0	0.023977637
94	0xbda403d6	-0.08008544
95	0xbda5926e	-0.0808457
96	0x3e50cc1c	0.20390362
97	0x3de9e00c	0.11419687
98	0xbe2bae65	-0.16765745
99	0xbe6a3905	-0.22873314
100	0x3dac9bd7	0.084281616
101	0xbe74d16d	-0.23908015
102	0xbe0b797f	-0.13620566
103	0xbdd5302d	-0.104095794
104	0xbe3fe886	-0.18741044
105	0x3e3c0e7f	0.18364905
106	0x3d1b737e	0.03795194
107	0x3e00a3b0	0.12562442
108	0xbdf2565f	-0.1183288
109	0xbe5ffcf7	-0.21873842
110	0x3d2b0bfd	0.04175948
111	0xbceeef3c	-0.02916681
112	0xbd02f5f9	-0.03197286
113	0x3d0ce20f	0.034395274
114	0xbe3e6e84	-0.18596846
115	0xbb272e36	-0.0025509722
116	0x3e499e0e	0.196892
117	0x3cb3bc86	0.02194048
118	0x3e339290	0.17536378
119	0x3e597a4e	0.21238062
120	0xbd463e27	-0.048399117
121	0x3e292877	0.16519342
122	0xbe37ac84	-0.17936903
123	0x3e452676	0.19252953
124	0xbe289ddc	-0.16466469
125	0x3cdc2093	0.026871001
126	0x3d9e5c0c	0.077324
127	0x3d25c632	0.040472217
128	0xbd58352e	-0.05278509
129	0x3ccc5680	0.02494359
130	0xbe3f84a0	-0.18702936
131	0x3e08b7d4	0.13351375
132	0x3dd4dec3	0.10394051
133	0xbe40d483	-0.18831067
134	0x3e3d1950	0.18466687
135	0xbddc373a	-0.10752721
136	0x3deb1b58	0.11479825
137	0xbdaa8bf4	-0.08327475
138	0x3d0fa9db	0.035074096
139	0x3ce9e47f	0.028551338
140	0xbc07fb6b	-0.008299689
141	0xbe16480d	-0.14675923
142	0xbe1cbb14	-0.1530574
143	0xbe2a7bd3	-0.16648798
144	0xbe91c6e1	-0.28472045
145	0x3dcc36e6	0.099714085
146	0x3e18c79f	0.149199
147	0xbd66d691	-0.05635697
148	0xbda4ad81	-0.08040906
149	0x3e1df2c3	0.15424637
150	0xbcfdbdf1	-0.03097436
151	0xbe3078ea	-0.17233625
152	0xbd40d36c	-0.047076628
153	0xbd97bebd	-0.07409427
154	0xbe25ec22	-0.16203359
155	0xbe424b49	-0.18974032
156	0x3da4ea69	0.08052523
157	0xbe0e2409	-0.13880934
158	0xbcf10727	-0.029422356
159	0x3d63245c	0.055454597
160	0x3d8eb474	0.069680125
161	0xbdcdb918	-0.100450695
162	0xbe16bbd5	-0.1472009
163	0xbe2160a3	-0.1575952
164	0xbd887b6a	-0.06664164
165	0x3dc4001f	0.095703356
166	0x3deb40f3	0.114869975
167	0x3e0eb1e4	0.13935047
168	0x3e1639b7	0.14670454
169	0xbe7282a0	-0.23682642
170	0xbd424dfd	-0.047437657
171	0xbdf72c26	-0.120689675
172	0x3da3c850	0.07997191
173	0xbd8b623e	-0.068058476
174	0x3dbee4ae	0.09320961
175	0xbe053c4f	-0.13011287
176	0x3b9335ac	0.004492482
177	0x3daabb1c	0.083364695
178	0x3ca7a1a2	0.020462815
179	0x3e4427eb	0.19155852
180	0xbc5f87a7	-0.013643182
181	0x3e4536b5	0.1925915
182	0xbd306909	-0.04306892
183	0x3d93d48e	0.07218276
184	0x3c5badc5	0.013408129
185	0xbe461c1c	-0.1934666
186	0x3e147fb1	0.14501835
187	0xbd3210e9	-0.043473158
188	0x3e33f8fa	0.17575446
189	0xbe1f1348	-0.15534699
190	0x3d99d7c2	0.07511856
191	0xbd6e5860	-0.05818975
192	0xbd0ff2d8	-0.035143703
193	0xbd9347bd	-0.07191417
194	0xbdaba749	-0.083815165
195	0x3d59117f	0.0529952
196	0xbdd56cde	-0.104211554
197	0xbdae5a3b	-0.08513304
198	0xbd97ab86	-0.074057624
199	0xbccd8f7b	-0.02509283
200	0xbe529849	-0.20565905
201	0xbb79c495	-0.0038111557
202	0x3e0958de	0.13412806
203	0x3c91d337	0.01780091
204	0xbdc97395	-0.09836499
205	0x3dfb531b	0.122717105
206	0xbd15f418	-0.03660974
207	0xbdae5124	-0.0851157
208	0xbd443fc1	-0.047912363
209	0x3b4fead7	0.0031725669
210	0xbe60d520	-0.219563
211	0x3e02860b	0.12746446
212	0x3ddce95a	0.10786696
213	0xbd864a67	-0.0655716
214	0x3e5df322	0.21674779
215	0x3d72cb97	0.05927619
216	0xbe5f16d6	-0.21786055
217	0x3dbc7799	0.09202499
218	0xbe85720f	-0.26063582
219	0x3d50a582	0.05093909
220	0x3e338e66	0.1753479
221	0x3d1b0dda	0.037855007
222	0xbd78c5e8	-0.060735613
223	0x3bcca4e8	0.0062452443
224	0x3d91add1	0.07113231
225	0xbe25d01d	-0.1619267
226	0x3ccb4249	0.02481188
227	0x3d80900c	0.06277475
228	0x3cbaf31b	0.022821
229	0x3ddecaa9	0.10878498
230	0x3d936daa	0.07198651
231	0xbe154762	-0.14578012
232	0xbdd814ab	-0.10550817
233	0xbb204358	-0.0024454203
234	0xbd7376c3	-0.059439432
235	0x3e03dc1d	0.12876935
236	0xbd2d2706	-0.042273544
237	0x3e052242	0.1300135
238	0xbe0f63cc	-0.14002913
239	0xbc91ded1	-0.017806442
240	0x3d6a1944	0.057153
241	0xbe306454	-0.17225772
242	0xbc0f2a00	-0.008738041
243	0xbe172bec	-0.14762849
244	0xbe00b34d	-0.12568398
245	0xbe16998e	-0.14707014
246	0x3d8d46ab	0.068982445
247	0xbe999f19	-0.30004194
248	0xbe0c0b56	-0.136762
249	0xbcb31888	-0.021862283
250	0xbd9ccf69	-0.07656748
251	0x3dad4bd0	0.08461726
252	0xbd66e869	-0.056373987
253	0xbca19ec5	-0.019729028
254	0xbe11cccf	-0.14238285
255	0x3d90c2d8	0.070684135

net.2.bias f4 [60]
0	0xbd3494dc	-0.044087276
1	0xbd28b808	-0.04119113
2	0xbdad3cf0	-0.084588885
3	0xbd024009	-0.03179935
4	0x3d09d20d	0.033647586
5	0xbcc79813	-0.024364507
6	0x3d9cfe55	0.076656975
7	0xbdb5791f	-0.08860993
8	0xbd2d44e9	-0.042302046
9	0x3d6aa009	0.057281528
10	0x3b91afce	0.0044460064
11	0xbd423f4b	-0.047423642
12	0xbdba766f	-0.09104621
13	0xbdd9cfaf	-0.106353156
14	0xbda64214	-0.08118072
15	0xbdb55484	-0.08854011
16	0x3da2fa4c	0.079578966
17	0x3d3a2df0	0.045453966
18	0xbdb2aab7	-0.087239675
19	0xbc787ec1	-0.015166939
20	0xbd49cc87	-0.049267318
21	0x3a8ab4ba	0.0010582425
22	0xbd03f917	-0.032219972
23	0x3cafca65	0.021458814
24	0x3e02a282	0.12757304
25	0xbd30676f	-0.043067392
26	0x3d90ad8b	0.07064351
27	0xbde37894	-0.11106983
28	0x3e08b74e	0.13351175
29	0xbd4bcd9a	-0.049756624
30	0xbd5b53ff	-0.0535469
31	0x3c6b6c8d	0.014369142
32	0x3d8a7ff6	0.06762688
33	0xbd8f7560	-0.070048094
34	0x3d53589a	0.05159817
35	0xbe05c6a3	-0.13064055
36	0xbd8680fb	-0.0656757
37	0x3da86723	0.08222797
38	0x3c97f722	0.01855046
39	0xbc0de3f5	-0.008660306
40	0x3c2eddf6	0.010673037
41	0xbda23470	-0.07920158
42	0xbc8bcc79	-0.017065274
43	0xbdb12f74	-0.08651629
44	0xbcbf77ef	-0.023372618
45	0x3da755e2	0.08170678
46	0xbd996101	-0.07489205
47	0xbdac9cf8	-0.08428377
48	0xbde72095	-0.112855114
49	0x3d609d14	0.0548373
50	0xbdb545a7	-0.08851176
51	0xbd27b10f	-0.04094034
52	0x3d94c4a0	0.07264066
53	0x3d81a22e	0.063297614
54	0xbd461df6	-0.048368417
55	0x3d0be66b	0.03415529
56	0x3cf7240d	0.030168558
57	0x3dbb44db	0.091439925
58	0x3dc6a144	0.09698728
59	0xbd15adfc	-0.036542878
