pretrained model/model_XJTU_3.pth (torch, 60271 bytes, 14 tensors)

encoder.net.0.weight f4 [60, 17]
0	0xbda876ed	-0.08225808
1	0xbe1beda9	-0.15227379
2	0xbd6d9425	-0.05800261
3	0xbe6d6298	-0.23182142
4	0x3cef23c1	0.029191853
5	0x3da8ceee	0.08242594
6	0x3dc2242f	0.09479558
7	0xbe149995	-0.14511712
8	0xbdf7d4d9	-0.12101144
9	0x3dc382fb	0.09546467
10	0x3e126d40	0.14299488
11	0x3d7318b4	0.05934973
12	0x3dd4099f	0.103533976
13	0xbdca7b67	-0.098868184
14	0x3d388680	0.045050144
15	0xbe0791dd	-0.13239236
16	0xbb27754c	-0.0025552092
17	0xbe13b841	-0.14425756
18	0x3e85bee5	0.26122203
19	0x3d71ae03	0.05900384
20	0xbe4e88e4	-0.20169407
21	0xbe0ba0a1	-0.13635494
22	0x3d93c990	0.07216179
23	0x3c2c51b6	0.010517528
24	0x3dc522cf	0.0962578
25	0x3e38fbfb	0.18064873
26	0xbe6852ba	-0.22687808
27	0x3c6c7220	0.014431506
28	0xbdaf48d2	-0.08558811
29	0xbe366357	-0.17811333
30	0xbe05142e	-0.12995979
31	0xbd590c80	-0.052990437
32	0xbe898fd8	-0.26867557
33	0x3e0c15d7	0.13680206
34	0xbcf6e369	-0.030137734
35	0xbc680fd7	-0.014163933
36	0xbd4226fd	-0.047400463
37	0x3c6b0828	0.014345206
38	0x3e129747	0.1431552
39	0xbe0b80c1	-0.13623334
40	0xbe36e8b2	-0.17862204
41	0x3c1a894e	0.00943215
42	0xbd8fd269	-0.070225544
43	0xbe2f7cd3	-0.1713746
44	0x3db81a6b	0.08989414
45	0xbcddd812	-0.02708057
46	0xbe834131	-0.25635675
47	0x3e7d1a7b	0.24717133
48	0x3e06d7ed	0.13168307
49	0x3dc676b7	0.09690612
50	0xbd881f23	-0.06646564
51	0xbdd57731	-0.104231246
52	0x3e4809ec	0.19535035
53	0x3e12844e	0.14308283
54	0xbd9d1e54	-0.076718
55	0xbd76d248	-0.060259134
56	0x3e030a18	0.12796819
57	0xbdd69668	-0.104779065
58	0x3e29849a	0.1655449
59	0x3d1f00c2	0.038819082
60	0x3dc5db1b	0.09660932
61	0xbbdd849c	-0.006760193
62	0x3d6d9a12	0.05800826
63	0xbe4a9907	-0.19784938
64	0x3d19599b	0.03743897
65	0xbe3e6dc0	-0.18596554
66	0x3e715b24	0.23569924
67	0x3e0605dd	0.13088174
68	0x3e21c9b7	0.15799604
69	0xbe04219e	-0.12903449
70	0x3dd83686	0.105572745
71	0x3d89cf67	0.06729012
72	0xbcd6d1b4	-0.026223041
73	0xbcd68177	-0.02618478
74	0xbd2a20ce	-0.04153519
75	0x3d258085	0.04040577
76	0xbcf3ffd7	-0.02978508
77	0xbe6dcf35	-0.23223574
78	0x3d2dc9e6	0.042428873
79	0xbdd2afc3	-0.1028743
80	0x3d666ce7	0.0562562
81	0xbda0eb3a	-0.07857366
82	0x3d0c4569	0.034245882
83	0x3d9bb2a4	0.07602432
84	0xbe463bfd	-0.19358821
85	0xbdb0f877	-0.08641141
86	0x3e4a5914	0.19760543
87	0x3c7fc291	0.015610353
88	0xbda0beb5	-0.078488745
89	0x3c9c7994	0.019100942
90	0xbe62f40d	-0.2216341
91	0xbd8a193c	-0.06743094
92	0x3e201290	0.15632081
93	0x3dc6fbe4	0.09716013
94	0x3ce264ec	0.027636014
95	0x3db517e9	0.08842451
96	0xbe1ef7ad	-0.15524168
97	0x3d7e089d	0.062019933
98	0xbd798131	-0.060914222
99	0x3d3d4ca8	0.046215683
100	0xbe73bb76	-0.2380198
101	0x3d136cf8	0.035992593
102	0x3cb93758	0.022609398
103	0xbca0d8b7	-0.019634588
104	0x3cfb6501	0.03068781
105	0xbd0c99b1	-0.03432626
106	0xbe63ea03	-0.22257237
107	0xbc34451b	-0.011002804
108	0x3ce15576	0.027506571
109	0x3e3213b7	0.17390333
110	0xbd917296	-0.07101934
111	0xbe8b3031	-0.27185205
112	0x3e1fb1be	0.15595147
113	0xbd082816	-0.033241354
114	0x3dbaa94d	0.09114323
115	0x3dd0f896	0.10203664
116	0xbe40f519	-0.18843497
117	0xbddeb4fe	-0.10874365
118	0xbc5f6d92	-0.013636963
119	0x3d6b85d9	0.057500694
120	0xbe4ad5b3	-0.19808082
121	0x3d825bf8	0.06365198
122	0xbe5218dc	-0.20517296
123	0xbde71c2e	-0.11284672
124	0xbc6c346e	-0.014416797
125	0x3e2548f4	0.1614111
126	0xbdc285df	-0.0949819
127	0xbe0d7602	-0.13814548
128	0xbe69834a	-0.22803989
129	0xbdd8171f	-0.10551285
130	0x3e4c0639	0.19924249
131	0xbcfea4ea	-0.031084497
132	0xbe22ae45	-0.15886791
133	0x3e1c1916	0.15243945
134	0xbca5ce1c	-0.020239882
135	0xbd062165	-0.03274669
136	0x3d95aea2	0.07308699
137	0x3db224b3	0.08698406
138	0xbe0f1658	-0.13973367
139	0x3d82fc0f	0.063957326
140	0x3e6adcf0	0.22935843
141	0xbe228c22	-0.15873769
142	0x3c81c525	0.015841076
143	0x3e0913e4	0.13386494
144	0x3d09caaf	0.03364056
145	0xbe390682	-0.18068889
146	0xbe08078e	-0.13284132
147	0xbde925d0	-0.11384165
148	0xbcc4e525	-0.024035046
149	0x3d2e4bfc	0.042552933
150	0xbda0dc18	-0.078544796
151	0x3dad5010	0.08462536
152	0xbdf60cea	-0.12014182
153	0x3da3a448	0.079903185
154	0x3d35a461	0.044346217
155	0xbd357325	-0.044299264
156	0xbd529e9f	-0.051420804
157	0x3d350cf9	0.044201825
158	0xbdc8061f	-0.097667925
159	0xbdc193d5	-0.09452025
160	0x3e07f307	0.13276301
161	0x3d0100b8	0.031494826
162	0xbeddfd8b	-0.433575
163	0x3e0a2797	0.13491665
164	0x3dd26e7b	0.10274979
165	0xbd750ca0	-0.059826493
166	0x3e40d1cd	0.18830033
167	0xbeadfb81	-0.33980945
168	0xbe19d1b8	-0.15021408
169	0x3db323a7	0.087470345
170	0xbc9241a2	-0.017853562
171	0xbe5902f7	-0.21192537
172	0x3e1f59d1	0.15561606
173	0x3e7e0d4f	0.24809764
174	0xbe31b0a3	-0.17352538
175	0x3e7339b2	0.23752478
176	0xbe79b317	-0.24384724
177	0x3e668152	0.2251027
178	0xbc05426b	-0.008133511
179	0xbe557670	-0.20845962
180	0xbe056c8f	-0.13029693
181	0x3d979ddc	0.07403156
182	0xbdb79573	-0.08964052
183	0x3dce6260	0.10077357
184	0xbe452ca0	-0.19255304
185	0xbdf71e39	-0.120663114
186	0xbccb73ee	-0.024835553
187	0xbe273ee8	-0.1633259
188	0x3d0bc3fe	0.03412246
189	0xbd2352e0	-0.039873958
190	0x3c447c41	0.011992515
191	0x3d984dc1	0.074367054
192	0x3cf44aae	0.029820766
193	0x3d307340	0.04307866
194	0xbd03ca0d	-0.032175113
195	0x3db720a0	0.089417696
196	0x3e130210	0.14356256
197	0x3dab7d4e	0.08373509
198	0x3e3703ce	0.17872545
199	0xbe4f5733	-0.20248108
200	0x3dd3f1ef	0.103488795
201	0x3cf2fb00	0.029660702
202	0xbe83e39b	-0.25759587
203	0xbd36b862	-0.044609435
204	0x3da4205f	0.08013987
205	0x3e095d7b	0.13414566
206	0xbe29ea59	-0.16593303
207	0xbe4cb973	-0.19992618
208	0xbe4165e0	-0.18886518
209	0x3d4eec2a	0.050518192
210	0xbc57faac	-0.013182323
211	0xbb88de99	-0.0041769263
212	0x3df607b9	0.12013192
213	0x3e1155bb	0.1419286
214	0xbdb11bc9	-0.08647878
215	0x3e3e79c0	0.18601131
216	0x3dc4349c	0.09580347
217	0x3ebd907f	0.37024304
218	0x3d8c45d6	0.06849258
219	0x3ddea28c	0.10870847
220	0xbdd5d00b	-0.10440072
221	0xbda86fea	-0.08224471
222	0x3e749479	0.23884763
223	0x3d9ccee5	0.076566495
224	0xbdd1f386	-0.102515265
225	0x3d99c93f	0.07509088
226	0xbe9b2bd1	-0.30306867
227	0xbe18485d	-0.14871354
228	0xbe0535e1	-0.13008834
229	0xbe9505b4	-0.29105914
230	0x3e684cdc	0.2268557
231	0xbd0801a5	-0.033204693
232	0x3dd32343	0.1030946
233	0xbd2b6bf8	-0.041851014
234	0xbb444a3b	-0.0029951471
235	0x3dad2ca9	0.08455784
236	0x3e6d6de1	0.23186447
237	0xbe6553d0	-0.22395253
238	0xbc410e37	-0.011783174
239	0x3db38c1c	0.08766958
240	0x3d71ba60	0.05901563
241	0x3db0605a	0.086121276
242	0xbde800ff	-0.11328315
243	0x3d65ba11	0.05608565
244	0x3d3324bf	0.043736216
245	0x3dee4058	0.11633366
246	0x3dd5bd2c	0.10436472
247	0xbe135a23	-0.14389853
248	0x3e42657e	0.18984029
249	0x3ccb10ab	0.024788221
250	0xbda7c192	-0.081912175
251	0xbd626549	-0.055272374
252	0xbdd0a400	-0.101875305
253	0x3e4e0ba7	0.20121633
254	0xbddbe5b2	-0.1073717
255	0x3de0065a	0.109387115

encoder.net.0.bias f4 [60]
0	0xbd080c1b	-0.03321467
1	0xbc64c288	-0.0139623955
2	0x3cf98c11	0.030462297
3	0xbcbb12e2	-0.022836152
4	0x3d104fcb	0.035232347
5	0xbca424c8	-0.02003707
6	0x3bb81ad3	0.005618432
7	0xbcc8c98e	-0.024510171
8	0xbb08b9a2	-0.00208626
9	0x3b1acefa	0.0023621903
10	0x3ce1e6b0	0.02757582
11	0x3ceaba9c	0.028653435
12	0xbd0ec64e	-0.034857087
13	0xbd346533	-0.044041824
14	0xbcc9abee	-0.024618115
15	0xbc952f01	-0.01821089
16	0x3cc5495c	0.024082832
17	0x3d1a7c7d	0.037716378
18	0x3cf91949	0.030407565
19	0xbd0aa6c9	-0.033850465
20	0x3cc4b00f	0.024009733
21	0xbcf22523	-0.029558724
22	0x3d09b3a4	0.033618584
23	0x3cc4e1c1	0.02403343
24	0xbcef0923	-0.029179161
25	0xbc8e7fdb	-0.01739495
26	0x38f24ff6	0.00011554353
27	0x3cc2b77b	0.02376913
28	0x3ca5cd08	0.020239368
29	0x3d297564	0.041371718
30	0x3cc83ff5	0.02444456
31	0x3cf46dd7	0.029837532
32	0xbcd1f5be	-0.025629874
33	0xbd0a0b1b	-0.033701997
34	0xbbc497a3	-0.005999522
35	0xbd17628b	-0.036959212
36	0xbd1aeb5a	-0.037822105
37	0x3c603754	0.013685066
38	0x3cb8dc1d	0.022565896
39	0xbc13151a	-0.008977199
40	0x3d503475	0.050831277
41	0x3d16a403	0.036777508
42	0xbcf0f2c3	-0.029412633
43	0x39be6736	0.00036316522
44	0x3cf16ca4	0.02947075
45	0x3d2bfb0c	0.041987464
46	0x3cb8a347	0.022538794
47	0xbca5c5a0	-0.020235837
48	0xbcf64013	-0.03005985
49	0x3ce64d00	0.028112888
50	0x3d01ef37	0.031722274
51	0xbbf9fdb5	-0.007629121
52	0xbc822909	-0.015888708
53	0xbccd3ad6	-0.02505247
54	0x3d1b6e26	0.037946843
55	0x3cf8343f	0.03029835
56	0x38a81e4b	8.016507e-05
57	0xbb8c3fce	-0.004280067
58	0xbcf5f70d	-0.03002503
59	0x3d0c5ba1	0.03426707

encoder.net.2.weight f4 [60, 60]
0	0xbde3c40e	-0.11121379
1	0xbcce337b	-0.025171032
2	0xbd726c1a	-0.059185125
3	0xbdd504ab	-0.10401281
4	0xbda30f8f	-0.07961952
5	0x3e028c6b	0.12748878
6	0x3d96a315	0.07355324
7	0xbe69b9b0	-0.2282474
8	0x3da1d654	0.07902208
9	0x3dc42178	0.09576696
10	0x3d2da9cc	0.04239826
11	0x3c5bc36b	0.0134132905
12	0x3e4174e2	0.18892244
13	0xbe3c9a74	-0.18418294
14	0xbe98fdc2	-0.29881102
15	0x3e0fcf83	0.14044003
16	0xbe2df430	-0.16987681
17	0x3dfbd0c4	0.12295678
18	0x3dad78ac	0.08470282
19	0x3db1a8f5	0.08674804
20	0xbe1f16fa	-0.15536109
21	0x3d8c87f9	0.06861872
22	0xbe58e20f	-0.21179985
23	0xbe0e2f6b	-0.13885276
24	0x3e5f4279	0.21802701
25	0x3dc9af2a	0.09847863
26	0x3d8834ee	0.066507205
27	0xbc807348	-0.01567997
28	0x3df0a39b	0.11749955
29	0xbd5350ef	-0.051590856
30	0x3e85a689	0.2610362
31	0xbd3bc4ba	-0.04584191
32	0x3dfc4474	0.12317744
33	0x3dc45da8	0.09588176
34	0x3d3058f1	0.04305357
35	0x3de2851f	0.11060547
36	0x3d982ee3	0.07430818
37	0xbd1b02f7	-0.037844624
38	0x3da88509	0.082284994
39	0x3d0313ea	0.032001413
40	0x3dbf8929	0.09352333
41	0xbe6b98b5	-0.23007472
42	0xbdd1480c	-0.1021882
43	0xbe7ca4b4	-0.24672204
44	0x3d1702d4	0.03686793
45	0xbe10e3cb	-0.14149396
46	0x3d9adb9e	0.0756142
47	0x3c681e51	0.014167384
48	0x3c9fe4d3	0.019518292
49	0x3dacc46b	0.08435901
50	0x3bf8f377	0.0075973826
51	0x3d8be111	0.068300374
52	0xbd8cfffe	-0.06884764
53	0x3e472da4	0.19451004
54	0x3b4c0d70	0.003113594
55	0xbda8f9e6	-0.08250789
56	0x3d2918bc	0.041283354
57	0xbca21847	-0.019786967
58	0xbe115df2	-0.14195994
59	0xbd7983c2	-0.06091667
60	0x3e4dae77	0.20086084
61	0x3dd073ad	0.101783134
62	0x3dccc061	0.09997631
63	0xbde2ea39	-0.11079831
64	0x3e44393a	0.19162455
65	0xbcf93fa6	-0.030425858
66	0x3e145e55	0.1448911
67	0xbc02ef94	-0.00799169
68	0xbda64713	-0.08119025
69	0xbd9a5013	-0.07534804
70	0x3e4e43d5	0.20143063
71	0xbd4130ae	-0.047165565
72	0x3d0c6fc6	0.034286283
73	0x3dad9cd8	0.08477181
74	0x3de316cf	0.11088335
75	0x3d6f3e7e	0.058409207
76	0xbdd99a64	-0.10625151
77	0x3c8d24d5	0.017229477
78	0x3e5638d9	0.20920123
79	0xbd5fae8b	-0.054609817
80	0xbe6964a8	-0.22792304
81	0x3d373999	0.044732664
82	0x3e789ae7	0.2427784
83	0xbe0ef837	-0.13961874
84	0x3e9709fb	0.29499802
85	0xbd381bb5	-0.0449483
86	0x3dbdea07	0.09273153
87	0x3e2a29ca	0.16617504
88	0xbe3a769d	-0.1820931
89	0x3d82d755	0.063887276
90	0xbd863d04	-0.065546066
91	0x3d760f8b	0.060073417
92	0xbdba9617	-0.091106586
93	0x3da06f82	0.078337684
94	0x3b3d3297	0.0028869265
95	0x3e211a93	0.15732794
96	0xbe2284ee	-0.15871021
97	0xbd86afce	-0.06576501
98	0x3d3be5e5	0.04587354
99	0x3cf4b413	0.029871022
100	0x3e0a5497	0.13508831
101	0xbe17bd2f	-0.14818262
102	0x3cce98c6	0.025219332
103	0xbd345a80	-0.04403162
104	0xbbcc02dc	-0.006225927
105	0xbd15330e	-0.036425643
106	0xbca3d118	-0.019997165
107	0xbdff41e9	-0.12463743
108	0xbcfffcf3	-0.031248545
109	0x3d48a660	0.048986793
110	0x3cb893cc	0.022531413
111	0x3e8fc902	0.28083044
112	0x3e2637bf	0.16232203
113	0x3dc17d88	0.09447771
114	0xbdd8c65d	-0.1058471
115	0xbdf8ed06	-0.12154584
116	0x3da143b6	0.07874243
117	0xbe1cb855	-0.15304692
118	0xbdac8e76	-0.0842561
119	0x3b014d82	0.0019730036
120	0xbe2a84df	-0.16652249
121	0x3cd8d902	0.026470665
122	0xbcffb8d7	-0.031216068
123	0xbe257d69	-0.16161121
124	0x3da62480	0.081124306
125	0xbdcce9d0	-0.10005534
126	0x3cdf8e60	0.02728957
127	0xbe1effbf	-0.15527247
128	0x3dbd9df2	0.09258641
129	0x3e3536dd	0.1769671
130	0x3d9b39c6	0.07579379
131	0x3c763ffb	0.015029903
132	0x3e7d5441	0.24739172
133	0x3e7e8693	0.24856023
134	0xbe39263c	-0.18080992
135	0x3db30e4f	0.087429635
136	0xbd9f21d1	-0.07770122
137	0x3dcac41a	0.09900685
138	0x3db1e206	0.08685689
139	0xbdec1015	-0.11526505
140	0x3e7fe45f	0.2498946
141	0xbdf603d7	-0.12012451
142	0xbdd9745e	-0.106178984
143	0xbd0563f6	-0.032566033
144	0x3e38e184	0.18054777
145	0xbe248ada	-0.16068593
146	0xbdf074bb	-0.117410146
147	0x3d97e16e	0.07416044
148	0xbdd660cf	-0.104676835
149	0x3d7be989	0.061502013
150	0x3d501a98	0.05080661
151	0x3afd0e55	0.001930664
152	0xbda1ff3e	-0.07910012
153	0x3e3863a7	0.18006764
154	0x3dd7c623	0.105358385
155	0x3dc1f3fb	0.09470364
156	0x3d99b0b8	0.075044096
157	0x3bd25b55	0.006419579
158	0x3abdf043	0.0014491159
159	0xbde64b88	-0.11244875
160	0x3e15a297	0.14612804
161	0xbb3bfda5	-0.002868512
162	0xbe1a4977	-0.15067087
163	0x3d8d0ef2	0.06887616
164	0x3d56df81	0.052459244
165	0x3e09b082	0.13446239
166	0xbdce0c61	-0.10060955
167	0x3e7606d3	0.2402604
168	0xbd7db926	-0.06194415
169	0x3cbb099b	0.022831729
170	0xbc7fe2b6	-0.015618017
171	0xbe04a675	-0.12954123
172	0x3d5881d8	0.052858204
173	0x3c09e66f	0.008416756
174	0xbd1f5235	-0.038896758
175	0xbd9ba306	-0.07599454
176	0x3e0bc75a	0.13650265
177	0x3df2875c	0.11842224
178	0xbdce16a4	-0.10062912
179	0xbd8f47e0	-0.06996131
180	0x3d8de1e5	0.069278516
181	0xbd44de04	-0.048063293
182	0x3db5827f	0.08862781
183	0x3e19ee17	0.1503223
184	0x3e5d3d74	0.21605474
185	0xbdd1e217	-0.10248201
186	0xbe0df1a3	-0.13861708
187	0x3d54580e	0.051841788
188	0x3b586867	0.0033021213
189	0x3d3daa4a	0.04630498
190	0x3d90a0e4	0.070619375
191	0x3e4b2846	0.19839582
192	0xbe0f341f	-0.13984726
193	0x3dbc8d60	0.09206653
194	0xbdf965d3	-0.121776246
195	0x3e829d8c	0.25510824
196	0x3dd18c0c	0.1023179
197	0x3dff223c	0.124577016
198	0xbdf7a8dc	-0.12092754
199	0xbd4dfd71	-0.05029053
200	0xbd125895	-0.03572901
201	0x3e68d35c	0.22736877
202	0x3e18034d	0.14845009
203	0xbe3a5908	-0.18198025
204	0x3e0b7045	0.13617046
205	0xbd8b75de	-0.06809591
206	0xbdf6cfe0	-0.12051368
207	0xbd0239e2	-0.031793483
208	0xbb353162	-0.0027647843
209	0x3dc0c884	0.09413245
210	0xbd0d5036	-0.034500323
211	0xbe1ebe71	-0.15502335
212	0xbe0331ee	-0.12812015
213	0xbe85fd7b	-0.26169953
214	0x3e3270c0	0.17425823
215	0x3da3f8ee	0.08006464
216	0x3d670721	0.056403283
217	0x3dbd108c	0.09231672
218	0x3e4eb307	0.20185481
219	0xbd9e4ab8	-0.07729095
220	0x3dce4f96	0.100737736
221	0xbdf3c20a	-0.119022444
222	0x3cd96066	0.026535224
223	0xbd662506	-0.056187652
224	0x3e6cd3ce	0.23127672
225	0xbd4eb7f4	-0.0504684
226	0x3d8732af	0.06601464
227	0x3d55a4fa	0.052159287
228	0x3e3dda69	0.18540348
229	0x3d552762	0.05203951
230	0x3db20df2	0.08694066
231	0xbd22b22f	-0.03972071
232	0x3cf16804	0.029468544
233	0xbce2227c	-0.027604334
234	0xbe164570	-0.14674926
235	0x3d6314b4	0.055439666
236	0x3e0b9234	0.13629991
237	0x3e1cad56	0.15300497
238	0x3d53dbcf	0.051723298
239	0xbbc1b72a	-0.0059117274
240	0x3e103e90	0.14086366
241	0xbd88e6ac	-0.06684622
242	0xbcb3cd48	-0.021948472
243	0xbdd46f4e	-0.10372792
244	0xbd6f580c	-0.058433577
245	0xbd349c5d	-0.044094432
246	0xbcd1e481	-0.025621654
247	0xbd306aac	-0.04307048
248	0x3d503371	0.05083031
249	0xbdf238c5	-0.11827234
250	0x3e1aaaa4	0.15104157
251	0x3d9ba46a	0.07599719
252	0x3d2f4997	0.04279479
253	0x3e001eb5	0.12511714
254	0x3e2e567c	0.17025179
255	0x3c955eab	0.018233618

encoder.net.2.bias f4 [60]
0	0xbd0b9c38	-0.03408453
1	0xba97d650	-0.0011584256
2	0x3cc66037	0.0242158
3	0x3d104f01	0.035231594
4	0xbd1fd500	-0.039021492
5	0x3cea2ab3	0.028584814
6	0xbcdb6237	-0.02678023
7	0x3cd758c6	0.026287448
8	0x3c8df329	0.017327862
9	0x3d1a7577	0.03770968
10	0xbcd607b1	-0.026126714
11	0x3ce7e193	0.028305804
12	0xbcf69378	-0.030099615
13	0x3ca3993d	0.01997053
14	0x3d26a37a	0.040683247
15	0xbcbf616d	-0.023361886
16	0xbd1ffb06	-0.039057754
17	0xbc4eeca9	-0.012629666
18	0x3d07a4c4	0.033116117
19	0x3d2788da	0.040901996
20	0xbcfbfced	-0.030760253
21	0xbd348e27	-0.04408088
22	0x3d21755f	0.039418574
23	0xbc85a0f7	-0.016312106
24	0xbd1515eb	-0.036397856
25	0xbd10f9eb	-0.03539459
26	0x3ce903ce	0.028444197
27	0x3d0e183c	0.03469108
28	0x3ce3d713	0.027812516
29	0x3cefe74c	0.029285096
30	0xbcbe52d6	-0.023232859
31	0x3d6e915e	0.0582441
32	0xbd03ca58	-0.032175392
33	0x3ccf2a32	0.025288675
34	0xbd0440b1	-0.032288257
35	0xbd0f458f	-0.034978446
36	0x3ac76782	0.0015213343
37	0x3cce68be	0.02519643
38	0xbcf0f20f	-0.029412298
39	0x3d141de4	0.03616132
40	0xbc7afba8	-0.015318789
41	0xbd19a580	-0.03751135
42	0xbcfaf7c1	-0.030635716
43	0x3d100404	0.03516008
44	0x3c51d5f6	0.01280736
45	0xbd22e19c	-0.03976594
46	0x3c955d91	0.018233093
47	0x3bb6589e	0.005564763
48	0x3cd67abe	0.026181575
49	0xbce80c7f	-0.028326271
50	0x3d5d45cf	0.054021653
51	0x3ce757d1	0.028240116
52	0xbceba46c	-0.028764926
53	0xbcf74c2f	-0.030187694
54	0x3cf88fde	0.030342039
55	0xbd1a17a9	-0.03762022
56	0x3cf56cd5	0.029959122
57	0xbc9eec13	-0.019399678
58	0xbb89a821	-0.0042009507
59	0x3c806a9e	0.015675839

encoder.net.5.weight f4 [32, 60]
0	0xbe4a68f0	-0.19766593
1	0x3dc75caf	0.09734475
2	0x3e3028d5	0.17203076
3	0xbd858475	-0.06519405
4	0xbe4c8f52	-0.19976547
5	0xbe3fc8ff	-0.18729018
6	0x3d94aef2	0.07259931
7	0x3e2b1e9a	0.16710892
8	0xbe82036b	-0.25393233
9	0x3dbe863d	0.09302948
10	0x3e338ca2	0.17534116
11	0x3daa2d29	0.08309395
12	0x3e02a56d	0.12758417
13	0xbe1cb15d	-0.15302034
14	0xbdca5273	-0.09879007
15	0xbc9c72b1	-0.019097658
16	0x3d216d93	0.03941114
17	0x3c776d86	0.015101796
18	0x3d87a4c8	0.066232264
19	0x3bae010d	0.005310184
20	0x3ddc943c	0.10770461
21	0x3dfb8a28	0.122822106
22	0x3d3e9bca	0.04653529
23	0x3e67cd24	0.22636849
24	0x3e550295	0.20801766
25	0x3d869b52	0.06572594
26	0xbd3cdc50	-0.046108544
27	0xbc5a7d2a	-0.0133355055
28	0x3d9af2dc	0.07565853
29	0xbe2cbdc6	-0.16869268
30	0xbd838339	-0.06421513
31	0xbdc5e5fd	-0.096630074
32	0xbcfaaa81	-0.03059888
33	0xbd6836cb	-0.05669288
34	0x3dc9ae68	0.098477185
35	0x3c78cd3f	0.015185653
36	0xbdcbfdce	-0.09960519
37	0xbc1a22f2	-0.009407746
38	0x3c203244	0.009777609
39	0xbdc00eda	-0.09377833
40	0x3e81ef98	0.25378108
41	0x3e444e29	0.1917044
42	0x3d8ffe31	0.07030905
43	0xbb27fb47	-0.002563195
44	0xbdc649c8	-0.096820414
45	0xbcab22df	-0.020890651
46	0xbe432eb9	-0.19060792
47	0xbdaa3e0f	-0.08312618
48	0xbe7cdfb6	-0.24694714
49	0xbc1a7f8e	-0.0094298255
50	0xbcdc8f27	-0.02692373
51	0xbc37cd77	-0.01121842
52	0x3e246228	0.16053069
53	0x3dbd57c1	0.09245253
54	0x3e395ad8	0.1810106
55	0x3d5ad0b3	0.053421687
56	0xbd5ffc33	-0.054683875
57	0xbd3e6142	-0.04647947
58	0x3e048e65	0.12944944
59	0xbe73a666	-0.23793945
60	0x3dd51e2a	0.10406144
61	0x3d84d67e	0.06486224
62	0xbd042647	-0.032263067
63	0xbe26fd9e	-0.16307685
64	0x3d63f0b4	0.055649474
65	0x3dec82c2	0.115483776
66	0x3e8b441c	0.272004
67	0xbe3de214	-0.18543273
68	0x3cd3665e	0.025805648
69	0xbe421a37	-0.18955313
70	0xbdb84e8b	-0.08999356
71	0x3ddbf841	0.1074071
72	0xbd9b1dc3	-0.07574036
73	0xbe1a4b3c	-0.15067762
74	0xbd8084d6	-0.062753364
75	0xbd295e27	-0.041349556
76	0x3d0e4002	0.03472901
77	0xbdc16739	-0.09443516
78	0xbd3e6ac7	-0.04648855
79	0x3dfded46	0.12398772
80	0x3e319857	0.1734327
81	0xbc845d02	-0.01615763
82	0xbecab4ee	-0.39591163
83	0xbce43a50	-0.027859837
84	0xbe516d73	-0.20451908
85	0xbd76e5e7	-0.060277846
86	0x3cd7b810	0.026332885
87	0xbd4d284f	-0.05008727
88	0xbe8e1f4c	-0.27758253
89	0x3e2f3885	0.17111404
90	0xbe676dbc	-0.22600454
91	0xbe89f96b	-0.26948103
92	0xbdd0c901	-0.101945885
93	0xbe66ab88	-0.22526371
94	0x3e798928	0.24368727
95	0xbbbbd6ed	-0.0057324083
96	0xbe05f940	-0.13083363
97	0x3dc0de77	0.09417432
98	0xbe38e65b	-0.18056624
99	0xbd407b34	-0.046992496
100	0x3cf978f8	0.03045319
101	0xbe66683d	-0.22500701
102	0xbe55d3f3	-0.20881633
103	0x3eb5a358	0.35476184
104	0xbddc631f	-0.10761093
105	0xbd6030fa	-0.054734208
106	0xbd8265ff	-0.063671105
107	0xbc1e55bd	-0.009663996
108	0x3e359dca	0.17735973
109	0xbcaf080a	-0.021366138
110	0xbc8fc6d0	-0.017550856
111	0x3e854cfc	0.26035297
112	0x3c8ccee1	0.017188491
113	0xbb6cc5a3	-0.0036128543
114	0x3d9817ad	0.07426391
115	0xbe0db5ff	-0.13838957
116	0xbddea58d	-0.1087142
117	0xbd600273	-0.054689836
118	0x3da8e186	0.0824614
119	0xbe88df87	-0.26733038
120	0xbe212e65	-0.15740354
121	0x3d60f7b0	0.054923713
122	0x3d72d7c4	0.0592878
123	0x3e12c80e	0.14334127
124	0x3e55b435	0.20869525
125	0xbe16828b	-0.14698236
126	0x3d85fe2e	0.065426216
127	0xbc5dff63	-0.0135496585
128	0xbd39e530	-0.045384586
129	0x3d18894f	0.037240323
130	0xbe0d357d	-0.13789935
131	0x3d95c2a1	0.07312513
132	0xbc80b70e	-0.015712287
133	0x3dadaad4	0.084798485
134	0xbcf03343	-0.029321318
135	0xbcb9729a	-0.022637654
136	0x3eae1993	0.34003887
137	0x3cf10ad1	0.029424103
138	0x3dc43767	0.0958088
139	0xbd2df4e5	-0.042469878
140	0x3c199f96	0.009376427
141	0xbe67cd12	-0.22636822
142	0xbdf53143	-0.119722866
143	0x3e20e1a7	0.1571108
144	0xbe49e55f	-0.19716404
145	0xbe115447	-0.14192306
146	0x3e2a4c06	0.16630563
147	0xbd8a08f3	-0.06739988
148	0x3d78ee60	0.060774207
149	0xbda83357	-0.08212917
150	0xbe432a73	-0.19059162
151	0x3db347e3	0.08753946
152	0xbddb7bdc	-0.10716984
153	0x3dbe3292	0.09286989
154	0xbd8f6b51	-0.07002891
155	0x3e50b8fd	0.20383067
156	0xbcb85f8a	-0.022506494
157	0xbd9ab988	-0.075549185
158	0xbd5e7e4a	-0.054319657
159	0x3c243fca	0.010024974
160	0x3e20a8f4	0.1568945
161	0x3d83fc22	0.06444575
162	0xbd228ac5	-0.039683122
163	0xbc72d762	-0.014821859
164	0x3a48152e	0.00076325506
165	0x3dd7b721	0.10532976
166	0x3c46697a	0.0121101085
167	0x3e9cb065	0.30603328
168	0x3e626ae3	0.22111087
169	0xbc62836b	-0.013825278
170	0x3e8ccd5f	0.27500436
171	0xbcc00920	-0.023441851
172	0x3e035d3f	0.1282854
173	0x3d2b8f7d	0.041884888
174	0x3d0b5c4f	0.03402358
175	0xbe16b2e5	-0.1471668
176	0xbdf58b9b	-0.11989518
177	0xbd8a56f2	-0.06754865
178	0x3d6e9d94	0.058255747
179	0x3d1c5483	0.038166534
180	0x3e679915	0.2261699
181	0xbd9f96e6	-0.077924535
182	0xbe8e64ec	-0.27811372
183	0x3d82fb95	0.06395642
184	0xbea27ebe	-0.31737322
185	0xbcbe2f57	-0.023215933
186	0xbd8e674d	-0.06953297
187	0xbde338aa	-0.11094792
188	0xbdc71048	-0.09719902
189	0x3e105929	0.14096512
190	0x3dd3e305	0.10346035
191	0xbe572eba	-0.21013919
192	0xbe26ddb5	-0.16295512
193	0x3df757d8	0.12077302
194	0x3da9158e	0.08256064
195	0x3db992bc	0.090611905
196	0xbe2995ee	-0.165611
197	0x3e253dc9	0.1613685
198	0x3d116dee	0.035505228
199	0x3dec7db3	0.11547413
200	0xbb9c541d	-0.0047707693
201	0x3d3dc9e2	0.04633511
202	0x3c3fdbcf	0.011710121
203	0xbc8ec4a7	-0.017427756
204	0xbe454c89	-0.19267477
205	0xbd417b21	-0.047236566
206	0xbe09ebfe	-0.1346893
207	0x3ddda70a	0.10822876
208	0xbdc917f6	-0.09819023
209	0xbd460f96	-0.048354708
210	0xbd9206ca	-0.07130201
211	0x3b215e2a	0.0024622777
212	0x3ae167f5	0.0017197119
213	0xbdb2b189	-0.087252684
214	0xbe18fd21	-0.14940311
215	0xbda79514	-0.08182731
216	0xbe56fc6e	-0.20994732
217	0xbd1aa532	-0.0377552
218	0x3d686c55	0.05674394
219	0xbd8f1f9a	-0.069884494
220	0x3d993340	0.07480478
221	0x3b474d34	0.0030411007
222	0x3d172ba5	0.036906857
223	0x3d14083c	0.036140665
224	0x3daa842a	0.083259895
225	0x3c9a8588	0.0188625
226	0xbe3bf880	-0.18356514
227	0xbdefed56	-0.1171519
228	0x3dac1580	0.08402538
229	0xbda1a899	-0.078934856
230	0x3dc681fa	0.0969276
231	0x3caec8f1	0.02133605
232	0x3d6714b2	0.05641622
233	0x3da37fd8	0.07983369
234	0xbd534f49	-0.051589284
235	0xbd27786f	-0.04088634
236	0x3dccec5a	0.10006018
237	0x3e0915b4	0.13387185
238	0x3e134f16	0.14385638
239	0xbe0d2b55	-0.13786061
240	0x3d832c00	0.06404877
241	0xbd66205e	-0.05618321
242	0x3d338247	0.043825414
243	0xbd8eae5e	-0.06966852
244	0x3dfee35a	0.124457076
245	0xbe275dfc	-0.16344446
246	0x3ea86040	0.32885933
247	0x3d8cb13c	0.06869742
248	0x3db1c287	0.08679681
249	0x3db66230	0.089054465
250	0xbd349030	-0.04408282
251	0x3d1e0292	0.03857667
252	0xbd66e9ba	-0.056375243
253	0x3e9be4cb	0.30447993
254	0xbdbdb164	-0.0926235
255	0xbe322c0b	-0.17399614

encoder.net.5.bias f4 [32]
0	0xbd154dff	-0.036451336
1	0xbd3aec91	-0.045635764
2	0x3cedc526	0.029024672
3	0x3d59b9c6	0.053155683
4	0xbd465219	-0.04841814
5	0xbd6283e1	-0.05530155
6	0x3d5dec5b	0.054180484
7	0xbd5be916	-0.053689085
8	0xbd220032	-0.039550968
9	0xbda584a3	-0.08081939
10	0xbd22bc59	-0.039730404
11	0xbd259185	-0.04042198
12	0xbd01f4c0	-0.031727552
13	0x3d24f987	0.04027703
14	0x3d2aaeea	0.041670717
15	0xbd254a3d	-0.040354002
16	0x3d1d4943	0.038399946
17	0x3d5894b7	0.0528762
18	0x3d1d00c8	0.038330823
19	0x3d992a27	0.07478743
20	0x3d1d788e	0.038445048
21	0x3d3a799b	0.04552613
22	0x3d594c71	0.053051416
23	0x3d3ada5b	0.045618396
24	0xbd2b8a37	-0.04187986
25	0xbd517aa2	-0.051142342
26	0x3d235e40	0.039884806
27	0xbd66aaf7	-0.05631539
28	0xbd38390a	-0.04497627
29	0x3d7cc57f	0.061711784
30	0x3d03dd26	0.032193325
31	0xbd54cc9e	-0.05195295

predictor.net.1.weight f4 [32, 32]
0	0xbe8278f0	-0.25482893
1	0xbe2d3d4a	-0.16917911
2	0x3eade181	0.33961108
3	0xbd59418b	-0.053041022
4	0x3e90f4aa	0.28311664
5	0x3e968287	0.2939646
6	0xbe4c8d5a	-0.19975796
7	0xbdb2e282	-0.08734609
8	0x3eb1ceae	0.34727997
9	0x3e31f17f	0.1737728
10	0x3c3b0fd8	0.011417352
11	0xbde10b7c	-0.109885186
12	0xbdc6d003	-0.09707644
13	0x3d970fe9	0.073760815
14	0x3d1a0a9a	0.037607767
15	0x3e00eb95	0.12589867
16	0x3e85e216	0.26149052
17	0x3d5f27fa	0.054481484
18	0xbe2934fd	-0.1652412
19	0x3ca69f5d	0.020339662
20	0xbcb97470	-0.02263853
21	0xbe3f0b4c	-0.18656653
22	0xbe410a8d	-0.18851681
23	0x3ed7af44	0.42125905
24	0x3d2293a1	0.03969157
25	0x3e437ae3	0.19089846
26	0x3defc113	0.11706748
27	0xbeae4cce	-0.34042972
28	0xbc3ba0c9	-0.011451908
29	0x3d416cd9	0.047222946
30	0x3d53eff2	0.0517425
31	0x3dd0d10e	0.10196124
32	0x3d21ef9a	0.039535142
33	0x3e3eeea8	0.18645728
34	0xbc85efe1	-0.016349735
35	0xbdf81376	-0.12113087
36	0x3df0becb	0.11755141
37	0x3dbe239b	0.09284135
38	0x3dbd26bd	0.09235904
39	0xbd92d3a5	-0.07169274
40	0x3e71f498	0.23628461
41	0xbdc64341	-0.096807964
42	0xbe9ed073	-0.3101841
43	0xbe8a30f5	-0.26990476
44	0xbe723a8f	-0.23655151
45	0x3e95b72d	0.29241315
46	0x3e291c26	0.16514644
47	0xbd8b0239	-0.06787533
48	0x3d3e67fc	0.046485886
49	0x3d216585	0.039403457
50	0x3e00961c	0.12557262
51	0xbcf01554	-0.029307045
52	0x3aefc343	0.0018292445
53	0xbe783a7b	-0.24241059
54	0xbd63b5de	-0.055593364
55	0xbcf782b9	-0.0302137
56	0x3db4308c	0.08798322
57	0xbf034eb7	-0.51291984
58	0x3bc211d6	0.0059225364
59	0xbdbcfc39	-0.09227795
60	0xbde89dc7	-0.11358219
61	0xbde11f87	-0.109923415
62	0x3e5ffc50	0.21873593
63	0xbe5c378e	-0.21505567
64	0xbdeec015	-0.116577305
65	0xbda308ef	-0.07960688
66	0x3da4a112	0.08038534
67	0x3e2314ea	0.15925947
68	0xbdbd3de1	-0.09240318
69	0x3dc21463	0.09476545
70	0xbe3632b6	-0.17792782
71	0xbd661eda	-0.056181766
72	0x3db9037a	0.09033866
73	0x3e3893f1	0.18025185
74	0xbdf24af2	-0.11830701
75	0x3e79376b	0.24337547
76	0xbe0fdbf5	-0.1404875
77	0xbeb0e9f2	-0.34553486
78	0x3e9e2a4f	0.30891654
79	0xbeac68d4	-0.33673728
80	0x3da31f2f	0.07964932
81	0x3c1d660b	0.0096068485
82	0x3ecdd48d	0.40201226
83	0x3b92bb00	0.0044778585
84	0x3c915446	0.01774038
85	0x3c4752e7	0.012165762
86	0xbd61f82f	-0.055168327
87	0x3d177006	0.03697207
88	0xbe253f3e	-0.16137406
89	0x3e058fc6	0.13043126
90	0xbd91bc26	-0.071159646
91	0x3e06dbee	0.13169834
92	0xbc67719b	-0.014126207
93	0x3eb80728	0.3594296
94	0xbe37c3ad	-0.17945738
95	0xbdf1294e	-0.11775456
96	0x3e3c4c09	0.1838838
97	0xbd8d7cca	-0.06908567
98	0x3dff5ca5	0.124688424
99	0xbd3fe936	-0.046853267
100	0x3cc40488	0.023927942
101	0x3c87d5ec	0.016581498
102	0xbdbc78fb	-0.09202763
103	0x3ea5570e	0.3229298
104	0xbe5f3489	-0.21797384
105	0x3dcb85b4	0.09937611
106	0x3e0c4ea9	0.13701881
107	0x3e5f4aa9	0.21805824
108	0x3e0ab17e	0.1354427
109	0xbd8b0c4d	-0.067894556
110	0x3e56ef79	0.20989789
111	0xbd160bd1	-0.036632363
112	0x3acfcaeb	0.0015853321
113	0xbe0628ad	-0.13101454
114	0xbdd8c778	-0.10584921
115	0xbd90ae79	-0.07064528
116	0x3eaa7503	0.33292398
117	0xbd632b57	-0.055461254
118	0x3d9323f2	0.071845904
119	0x3bcafca3	0.0061946674
120	0x3de07db9	0.1096148
121	0x3e1f2571	0.15541627
122	0xbdb1044d	-0.086433984
123	0xbc693180	-0.014232993
124	0xbe8258c8	-0.2545836
125	0x3eb90ede	0.36144155
126	0x3e889627	0.26677057
127	0x3e46311a	0.19354668
128	0xbd5d4a08	-0.05402568
129	0xbc79068d	-0.015199316
130	0xbe85aa15	-0.26106325
131	0xbd1e8a30	-0.038706005
132	0x3db20fab	0.08694395
133	0xbe535a83	-0.20639996
134	0x3e0a1698	0.13485181
135	0x3d8ef1c3	0.06979706
136	0x3dddc5eb	0.108287655
137	0x3e8fc481	0.28079608
138	0x3d8208f6	0.063493654
139	0xbc6d1912	-0.014471309
140	0xbdb45a2c	-0.088062614
141	0x3e089f6c	0.13342065
142	0x3cc97e17	0.024596257
143	0x3d6856e8	0.056723505
144	0x3dc8ea1d	0.098102786
145	0xbc052205	-0.008125787
146	0x3e653b12	0.22385815
147	0x3e632e21	0.22185566
148	0x3e0ab6c7	0.13546287
149	0xbeace582	-0.3376885
150	0xbd3f0aeb	-0.04664127
151	0xbe717ac7	-0.23581992
152	0x3dcaada3	0.098964
153	0xbf09b416	-0.53790414
154	0x3d80cb78	0.062888086
155	0xbe099a96	-0.13437876
156	0x3e5ef345	0.21772487
157	0xbdf485d9	-0.11939592
158	0xbdb1a2ed	-0.08673654
159	0x3daef982	0.085436836
160	0xbe138776	-0.14407143
161	0xbe0274f0	-0.1273992
162	0x3eb58e4b	0.35460123
163	0x3e055228	0.13019621
164	0xbe437694	-0.19088203
165	0x3dbbcbe3	0.09169748
166	0x3d926e9d	0.07150004
167	0xbd96d319	-0.073644824
168	0x3c6d4146	0.014480894
169	0xbdde7c8a	-0.10863598
170	0x3e5047db	0.2033991
171	0xbede1956	-0.43378705
172	0x3ed11625	0.40837207
173	0xbe104c77	-0.14091669
174	0xbea3e692	-0.3201185
175	0x3e54023b	0.20703976
176	0x3d672463	0.056431185
177	0x3e14043c	0.1445474
178	0xbdb573d6	-0.088599846
179	0x3d942de7	0.07235318
180	0x3d362fc4	0.044479147
181	0x3c989d1f	0.018629609
182	0xbea240a4	-0.31689942
183	0x3e391651	0.1807492
184	0xbd764750	-0.060126603
185	0x3e69ee26	0.22844753
186	0x3b221cc6	0.0024736389
187	0xbd65cbbc	-0.0561025
188	0x3d57639a	0.05258522
189	0x3e825fda	0.25463754
190	0x3e99b3cc	0.30019987
191	0x3ba523d4	0.0050396714
192	0x3de75550	0.11295569
193	0xbdf65a65	-0.1202896
194	0xbcc9c858	-0.024631664
195	0x3dc8b981	0.09801007
196	0xbd5502ac	-0.0520045
197	0xbe3dbba9	-0.18528618
198	0x3d786755	0.06064542
199	0xbde895ad	-0.113566734
200	0x3e4476d5	0.19185956
201	0x3ea86a33	0.32893524
202	0xbdbb9fff	-0.09161376
203	0xbdd31c79	-0.10308165
204	0xbde7f22a	-0.11325486
205	0x3dc66465	0.096871175
206	0x3e169acd	0.1470749
207	0xbe289a57	-0.16465126
208	0xbe4313bc	-0.19050497
209	0x3e04ccd7	0.12968765
210	0x3e6240f2	0.22095087
211	0x3d3548b0	0.044258773
212	0x3d8849d5	0.06654707
213	0xbdd66979	-0.10469336
214	0xbd33f0d1	-0.043930832
215	0x3e900033	0.28125152
216	0xbc93ca51	-0.018040808
217	0xbdaae683	-0.08344748
218	0x3df4b0ba	0.119477704
219	0xbe3cefd4	-0.18450862
220	0xbd2568f8	-0.04038331
221	0xbd8583f3	-0.06519308
222	0x3d415ef9	0.047209714
223	0x3d9b2732	0.07575835
224	0xbd8dc320	-0.06921983
225	0xbe1453f0	-0.14485145
226	0x3cb710df	0.022346912
227	0x3d65a783	0.056067955
228	0x3e5cf277	0.21576868
229	0xbdf8849c	-0.12134668
230	0xbd5c70bb	-0.053818446
231	0x3d6f052a	0.058354534
232	0x3d20081d	0.039070237
233	0xbc4fd3e9	-0.012684801
234	0xbe139d3a	-0.14415446
235	0xbe3f18a4	-0.18661743
236	0xbe375b67	-0.17905961
237	0xbe4eea81	-0.20206644
238	0xbdd3adc7	-0.1033588
239	0xbdcee170	-0.101015925
240	0xbcfb6c8b	-0.030691406
241	0xbca9a07c	-0.020706408
242	0x3d8b7db2	0.06811084
243	0x3e52d430	0.20588756
244	0x3e5d8b33	0.21635132
245	0xbc8364a4	-0.0160392
246	0xbd2d7583	-0.042348396
247	0xbe8dd7bb	-0.27703652
248	0xbdf59f31	-0.11993254
249	0x3e10bc14	0.14134246
250	0x3c5b7e0e	0.013396753
251	0xbe9e941f	-0.30972382
252	0xbefaf898	-0.49017787
253	0xbe82ad36	-0.25522774
254	0xbe9083d8	-0.2822559
255	0xbe2c0abb	-0.16800968

predictor.net.1.bias f4 [32]
0	0xbdc7fb3d	-0.09764717
1	0xbde85b8e	-0.11345588
2	0xbe6e51af	-0.23273347
3	0xbdb993c9	-0.09061391
4	0xbdc7f80b	-0.09764107
5	0xbdacc24c	-0.08435497
6	0x3dc4bd7f	0.09606456
7	0xbdea498e	-0.11439811
8	0x3dc5af26	0.096525475
9	0x3db4fcaf	0.08837258
10	0xbdd786ea	-0.1052378
11	0x3dbfc434	0.09363595
12	0x3dc8fa10	0.09813321
13	0x3dd5a86f	0.10432517
14	0xbdc4f6f4	-0.09617415
15	0xbdb4aab2	-0.0882162
16	0x3dbcd72d	0.09220729
17	0xbdb3cc21	-0.08779169
18	0xbdd26a9f	-0.102742426
19	0x3dc43ba0	0.09581685
20	0x3dca72eb	0.098852
21	0x3db8b2b2	0.090184584
22	0xbdc843ca	-0.09778555
23	0xbdba1a3f	-0.09087037
24	0xbdc4deac	-0.09612784
25	0x3dc884ac	0.0979093
26	0x3dd7f9f6	0.10545723
27	0xbdd0bea9	-0.101926155
28	0x3dd7de67	0.10540467
29	0xbdc59638	-0.096477926
30	0x3db31fa1	0.08746267
31	0x3e2c73d6	0.16841063

predictor.net.3.weight f4 [1, 32]
0	0xbe866ed9	-0.26256445
1	0xbe7328c7	-0.23746024
2	0xbdb3deb0	-0.08782709
3	0xbed2f3e6	-0.41201705
4	0xbe81c523	-0.25345716
5	0xbdea3b0a	-0.11437042
6	0x3ed669b7	0.4187753
7	0xbe44c81e	-0.19216964
8	0x3eea0b35	0.45711675
9	0x3ebe4889	0.37164715
10	0xbe485f84	-0.19567686
11	0x3ead61f7	0.33863804
12	0x3f087b9e	0.53313625
13	0x3e0da09a	0.13830796
14	0xbe3bb815	-0.1833194
15	0xbe394deb	-0.1809613
16	0x3dd690df	0.10476851
17	0xbdcbd827	-0.09953337
18	0xbe875fca	-0.2644027
19	0x3ea4f322	0.32216746
20	0x3e92f01a	0.28698808
21	0x3dd41be5	0.10356883
22	0xbea81f03	-0.3283616
23	0xbed96b8f	-0.42464873
24	0xbea1a9c1	-0.31574824
25	0x3ec4c0b3	0.38428268
26	0x3e2a875f	0.16653202
27	0xbe32508c	-0.17413539
28	0x3e85fd79	0.26169947
29	0xbf0d2511	-0.55134684
30	0x3cc05dac	0.023482166
31	0x3dec3481	0.11533452

net.0.weight f4 [60, 35]
0	0xbe527585	-0.20552643
1	0x3e432c62	0.190599
2	0xbe2e046b	-0.16993873
3	0xbd65ac9f	-0.056072827
4	0xbd6e4187	-0.05816796
5	0x3b5126ed	0.003191407
6	0xbde3559a	-0.111003116
7	0x3df80d93	0.12111964
8	0x3d297bea	0.04137794
9	0x3e213d41	0.15746023
10	0xbe0ca8ac	-0.13736218
11	0x3e7c36a1	0.24630214
12	0x3d4ad0bb	0.049515467
13	0x3e0132fb	0.12617104
14	0x3b9259f0	0.004466288
15	0xbdd5df74	-0.10443011
16	0x3e2459cf	0.16049884
17	0x3d427d32	0.047482677
18	0xbdb2755a	-0.08713789
19	0x3ac2c5a3	0.0014859926
20	0x3e434c2f	0.1907203
21	0x3e199f26	0.15002117
22	0xbda4ecec	-0.08053002
23	0xbe79e7d1	-0.24404837
24	0x3e20182d	0.15634222
25	0xbe0059ee	-0.12534305
26	0xbe0626b0	-0.13100696
27	0xbce104be	-0.027468082
28	0x3d4b462e	0.049627475
29	0x3e63af74	0.22234899
30	0x3ca23b97	0.019803805
31	0x3d918caf	0.071069114
32	0xbd52803d	-0.05139183
33	0x3e2480d9	0.16064776
34	0xbe5cd600	-0.2156601
35	0x3e9d64f8	0.30741096
36	0xbe388e54	-0.18023044
37	0x3dbe15f4	0.09281531
38	0xbcedcb9e	-0.029027756
39	0xbe740013	-0.23828153
40	0x3e4a0b4a	0.19730869
41	0xbe0ac242	-0.13550666
42	0xbd5c7a7d	-0.05382775
43	0x3b944233	0.004524493
44	0xbe8c777d	-0.27434912
45	0xbdc13a21	-0.09434915
46	0x3da37279	0.07980818
47	0x3e42a171	0.19006898
48	0x3d1b72e6	0.037951373
49	0x3ce44ebc	0.027869575
50	0xbdd5126d	-0.10403905
51	0xbd3e382c	-0.04644029
52	0x3e02ed7c	0.12785906
53	0xbb086c41	-0.0020816477
54	0x3c5036c5	0.012708371
55	0x3e150af3	0.14554958
56	0x3e5d30fb	0.21600716
57	0x3de5c927	0.112200074
58	0xbc8fa0d1	-0.017532738
59	0xbda3f09d	-0.08004878
60	0xbe504147	-0.20337401
61	0xbd58589f	-0.05281889
62	0xbc58cbef	-0.013232215
63	0x3dc574d7	0.09641426
64	0x3d8c5353	0.0685183
65	0x3d9f71a7	0.07785349
66	0x3d574568	0.052556425
67	0xbdec7933	-0.115465544
68	0x3da2271e	0.07917617
69	0xbe2ff193	-0.17181997
70	0x3d603ac4	0.054743543
71	0x3c67c0b8	0.014145069
72	0xbe14345b	-0.14473097
73	0xbddb6420	-0.10712457
74	0xbd63c27a	-0.05560539
75	0xbe0ce190	-0.1375792
76	0x3e9d3fc2	0.30712706
77	0xbcf88adb	-0.030339649
78	0x3d1264fe	0.035740845
79	0x3aff068d	0.0019456908
80	0x3e36623a	0.17810908
81	0x3d6a0772	0.057136007
82	0x3defae00	0.1170311
83	0xbdda00a0	-0.106446505
84	0x3d8280da	0.06372233
85	0xbcd3213d	-0.025772685
86	0xbe366a28	-0.17813933
87	0x3da717b9	0.081588216
88	0x3e050c47	0.12992965
89	0xbe7387b3	-0.23782234
90	0x3e6f7890	0.23385835
91	0xbe433703	-0.19063954
92	0xba8dede6	-0.0010828346
93	0x3e10a5e9	0.1412579
94	0xbde2463a	-0.11048551
95	0x38b99228	8.848711e-05
96	0x3d0d0d77	0.03443667
97	0xbc898bb6	-0.016790252
98	0xbd656e1c	-0.05601321
99	0xbe49cd28	-0.19707167
100	0xbdaf3d7f	-0.08556651
101	0xbd1e709e	-0.03868162
102	0x3e06bc3c	0.13157743
103	0xbe617665	-0.2201782
104	0x3d981e70	0.074276805
105	0x3d8e844a	0.06958826
106	0xbe1a6f14	-0.15081435
107	0x3dc89e10	0.09795773
108	0xbdf2580b	-0.11833199
109	0x3d983e55	0.07433764
110	0x3e1b0e47	0.15142165
111	0x3e4cd534	0.20003206
112	0xbc3cc7f8	-0.011522286
113	0x3d38b9cc	0.045099065
114	0xbe8e60a4	-0.27808106
115	0xbdbba70f	-0.09162723
116	0x3d530a88	0.051523715
117	0xbde8a0bb	-0.11358782
118	0xbd8c7a20	-0.06859231
119	0x3dcf4aea	0.101217106
120	0x3e2e3b7d	0.1701488
121	0x3e0b6616	0.13613161
122	0xbd9d2d21	-0.07674623
123	0xbc63c4bf	-0.013901888
124	0xbd985938	-0.07438892
125	0x3cb86073	0.022506928
126	0x3d23aa24	0.03995718
127	0xbdf5df49	-0.12005479
128	0xbd75ca99	-0.060007665
129	0x3d4082f0	0.04699987
130	0xbe3a005d	-0.18164201
131	0xbe286253	-0.16443758
132	0xbde1b6b4	-0.11021176
133	0x3bf6a62d	0.007527134
134	0xbe939b13	-0.2882925
135	0xbda1a4d2	-0.07892765
136	0xbdcd4950	-0.10023749
137	0x3e4a21f6	0.19739518
138	0x3ec75ba4	0.38937104
139	0x3bfb182f	0.007662795
140	0x3c6ea072	0.01456462
141	0x3d929ca9	0.07158787
142	0xbc3ae584	-0.01140726
143	0x3d570ef0	0.05250448
144	0x3dee6773	0.11640825
145	0xbca4e509	-0.020128744
146	0xbdf533c7	-0.11972766
147	0x3d07e06f	0.03317302
148	0x3e1e419e	0.15454718
149	0xbd810e82	-0.06301595
150	0x3dd67a3c	0.10472533
151	0xbe2f3ad5	-0.17112286
152	0x3c41d282	0.011829974
153	0x3cecfcd0	0.028929144
154	0x3d678343	0.056521665
155	0xbe4b3f14	-0.19848281
156	0x3e04ee47	0.1298152
157	0x3d937030	0.071991324
158	0xbe1e71e1	-0.15473129
159	0xbdbf729f	-0.09348034
160	0xbbe019e3	-0.0068390234
161	0xbe415fa6	-0.18884143
162	0xbe1afbe9	-0.15135159
163	0xbe9832b1	-0.29726174
164	0x3dda8e92	0.106717244
165	0xbe9239bf	-0.28559682
166	0x3d57ae12	0.05265624
167	0x3e0c7771	0.13717438
168	0x3d623df5	0.055234868
169	0x3e25bc94	0.16185218
170	0xbe4b55ef	-0.19857
171	0x3d143b09	0.036189113
172	0x3ca6a7fe	0.020343777
173	0x3dc2eb12	0.09517492
174	0xbecc4801	-0.39898685
175	0xbe1aa47f	-0.15101813
176	0xbd4bbad0	-0.049738705
177	0x3e8b8b4a	0.27254707
178	0xbdad18ea	-0.084520176
179	0x3e7431fb	0.23847191
180	0xbc5124ca	-0.012765119
181	0x3ce982ed	0.028504813
182	0xbd5cdf13	-0.053923678
183	0x3b911879	0.004427966
184	0x3e77cc65	0.24199064
185	0x3d1bc4cb	0.038029473
186	0x3de79225	0.11307172
187	0x3dfb63f6	0.122749254
188	0xbac2d977	-0.0014865835
189	0xbd968f15	-0.073515095
190	0x3eb6e839	0.35724047
191	0xbcf03112	-0.029320274
192	0x3d81547b	0.063149415
193	0xbde376bf	-0.111066334
194	0xbdcf79d3	-0.10130658
195	0xbc2d812f	-0.010589882
196	0xbe5f6972	-0.21817568
197	0x3e5ee32c	0.21766347
198	0x3dd591ec	0.10428223
199	0x3e9978fe	0.29975122
200	0xbcd9db63	-0.02659387
201	0x3cd8fa7d	0.02648663
202	0xbe2c07bf	-0.1679983
203	0xbd8f9042	-0.07009937
204	0x3d369221	0.044572953
205	0x3b2ea819	0.0026650487
206	0xbd9d80d1	-0.076905854
207	0x3bbaf12f	0.005705021
208	0x3e0f327c	0.13984102
209	0xbe0db89f	-0.13839959
210	0x3e7ed76e	0.24886867
211	0x3e14a79b	0.14517061
212	0xbd8b156e	-0.06791197
213	0xbc8c7b6c	-0.017148696
214	0xbd156a93	-0.03647859
215	0xbe650519	-0.22365226
216	0x3e1b6b64	0.15177685
217	0xbcffd0d0	-0.0312275
218	0xbdaa2f87	-0.08309846
219	0x3ead4b09	0.3384631
220	0xbe529cbb	-0.205676
221	0xbd96b462	-0.07358624
222	0xbe2b4645	-0.16726024
223	0x3e04fe2b	0.12987582
224	0x3e0d54ce	0.13801882
225	0x3e5257fd	0.20541377
226	0xbdc452a9	-0.09586079
227	0x3e346483	0.17616467
228	0xbd91f01e	-0.07125877
229	0xbe584134	-0.21118623
230	0x3caa1278	0.02076076
231	0x3d820cc8	0.06350094
232	0xbd7ea609	-0.062170062
233	0x3eb2191e	0.34784788
234	0xbd29612f	-0.041352447
235	0xbe2f2c76	-0.17106804
236	0x3dcf1e9c	0.1011326
237	0xbdf06979	-0.11738867
238	0xbe5c2942	-0.21500114
239	0x3d8c7940	0.06859064
240	0xbd8eb220	-0.069675684
241	0xbdc0230a	-0.09381683
242	0x3ee7d765	0.4528152
243	0x3e3d869f	0.18508385
244	0x3de440bc	0.111451596
245	0xbe7a802d	-0.24462958
246	0xba864dc9	-0.001024657
247	0x3da03205	0.078220405
248	0x3d992555	0.07477824
249	0x3d722bce	0.059123807
250	0xbe20a418	-0.15687597
251	0x3d04dc54	0.032436684
252	0x3e14b0cd	0.14520569
253	0x3da6af99	0.08138961
254	0xbd739d9c	-0.05947648
255	0x3ccf60be	0.025314685

net.0.bias f4 [60]
0	0xbd27e6aa	-0.040991463
1	0x3ca59269	0.020211415
2	0xbd2af25f	-0.04173505
3	0xbd8b8fd8	-0.068145454
4	0x3d96f743	0.0737138
5	0x3e03a346	0.12855253
6	0x3d966152	0.07342781
7	0xbe1410dd	-0.14459558
8	0x3ddfaf94	0.10922161
9	0x3d2aae2f	0.04167002
10	0xbbf2568f	-0.0073955725
11	0x3c7f9e2c	0.015601676
12	0xbcfdc9fe	-0.030980106
13	0x3c2acb36	0.010424426
14	0x3e08bb84	0.13352782
15	0x3a8ba333	0.0010653496
16	0xba9808b6	-0.0011599276
17	0xbda21341	-0.07913829
18	0x3e18b19f	0.14911507
19	0xbdb9554b	-0.090494715
20	0x3dec678b	0.11543187
21	0x3e28284f	0.16421627
22	0xbdecf4aa	-0.115701035
23	0xbd93d869	-0.07219011
24	0xbe0c854b	-0.13722722
25	0x3daadbb0	0.08342683
26	0xbd9cdb69	-0.07659037
27	0x3cb74fa2	0.02237684
28	0x3df6b7c8	0.12046772
29	0x3e0a1dc5	0.13487919
30	0x3de8a5d9	0.11359758
31	0xbd194640	-0.03742051
32	0x3db67fe2	0.089111105
33	0x3d9b1752	0.07572807
34	0xbe2bda59	-0.16782512
35	0x3e1252f7	0.14289461
36	0x3d2accac	0.041699097
37	0xbdb8dea0	-0.09026837
38	0x3d8f8a5f	0.07008814
39	0xbdf7f6fc	-0.121076554
40	0x3deee16e	0.11664091
41	0x3e31186c	0.17294472
42	0xbd37ca28	-0.044870526
43	0x3db84ff4	0.08999625
44	0x3d743c44	0.059627786
45	0xbe34251e	-0.17592284
46	0xbd49335b	-0.049121242
47	0x3e5fc697	0.218531
48	0x3df98fb4	0.12185612
49	0xbd8c6357	-0.06854885
50	0x3d30dca2	0.04317916
51	0xbd5968e5	-0.05307855
52	0x3db0ef42	0.08639385
53	0x3b394e9c	0.0028275615
54	0xbd559da1	-0.05215228
55	0x3c2b02d8	0.01043769
56	0xbe0b3018	-0.13592565
57	0xbdc18c5b	-0.09450599
58	0x3e075a76	0.13218102
59	0xbd98a661	-0.07453609

net.2.weight f4 [60, 60]
0	0xbe34e6c8	-0.17666161
1	0x3d284761	0.041083697
2	0xbd4ad325	-0.04951777
3	0x3d688c4b	0.05677442
4	0xbd9ada71	-0.07561196
5	0x3d1f0b14	0.038828924
6	0xbd31347f	-0.043262955
7	0x3e28b76c	0.1647622
8	0xbd9fa025	-0.07794217
9	0x3e0676fc	0.13131326
10	0xbdbdfb50	-0.0927645
11	0x3d015666	0.031576537
12	0xbe984a8a	-0.2974437
13	0x3e7aafa1	0.2448106
14	0xbd7b07cc	-0.061286733
15	0x3e45e07d	0.19323917
16	0xbe40c085	-0.1882344
17	0xbda65e35	-0.08123437
18	0xbd069b08	-0.032862693
19	0x3cd20e28	0.025641516
20	0x3e2e2d66	0.17009506
21	0xbd8db866	-0.06919937
22	0x3e7348ca	0.23758236
23	0xbc2e215c	-0.010628071
24	0xbc472b66	-0.012156343
25	0x3e1e9f41	0.15490438
26	0x3d0d2e57	0.03446802
27	0x3d1951cb	0.03743152
28	0xbdbae1b6	-0.09125082
29	0xbde0708d	-0.10958967
30	0xbb65cd6b	-0.0035065066
31	0xbe102f28	-0.14080489
32	0x3dc4470e	0.09583865
33	0x3c72cdb3	0.01481955
34	0x3ea59b92	0.32345253
35	0x3e6a538d	0.22883435
36	0xbcb5f337	-0.0222107
37	0x3e022054	0.12707645
38	0xbba9cc6b	-0.005181839
39	0xbc019afd	-0.007910487
40	0x3e03eeef	0.12884115
41	0xbe90d1f6	-0.28285187
42	0x3d282e94	0.041060045
43	0x3cce654f	0.025194792
44	0x3db6722d	0.08908496
45	0xbd9763f4	-0.073921114
46	0x3d658049	0.056030545
47	0xbe6aa5ef	-0.22914861
48	0x3e1cae51	0.15300871
49	0xbcfff861	-0.031246366
50	0x3ceb8f47	0.028754843
51	0xbd6cd74f	-0.05782252
52	0xbe281452	-0.16414002
53	0xbe0d0065	-0.13769682
54	0xbe144172	-0.1447809
55	0x3bb816a6	0.0056179343
56	0x3d9f7b8f	0.07787239
57	0x3d64c29c	0.055849656
58	0xbe05ca39	-0.13065423
59	0x3dc7df71	0.09759415
60	0xbcd237d2	-0.025661383
61	0xbc9d8cfc	-0.019232266
62	0x3b90472e	0.0044030165
63	0x3cf72d4a	0.030172963
64	0x3e50a687	0.20376025
65	0xbd9fc96e	-0.078020915
66	0xbde9265c	-0.113842696
67	0x3d9f0346	0.07764296
68	0xbe3ba4ff	-0.1832466
69	0x3d715a16	0.058923803
70	0x3cfcf50f	0.030878572
71	0x3cf98c94	0.03046254
72	0x3da40609	0.080089636
73	0xbe03b3a3	-0.12861495
74	0x3e783fce	0.2424309
75	0xbe24e315	-0.1610225
76	0xbe3cf450	-0.18452573
77	0x3c94d31d	0.018167073
78	0xbda293ab	-0.07938322
79	0x3cb497ab	0.022044977
80	0x3d9230f8	0.07138246
81	0xbd889a84	-0.066700965
82	0xbe6a2be5	-0.22868307
83	0xbe05129f	-0.12995385
84	0xbb864756	-0.0040978594
85	0xbcdaf5cd	-0.026728535
86	0xbd5f0a4c	-0.05445318
87	0xbe3ea11a	-0.18616143
88	0xbd744a7b	-0.059641343
89	0x3c329530	0.010899827
90	0x3e24a082	0.16076854
91	0x3da95a82	0.08269216
92	0xbdfb27a3	-0.122634195
93	0x3dbabfb1	0.091185935
94	0x3e128c6b	0.14311378
95	0x39563438	0.00020428083
96	0x3d144d5f	0.0362066
97	0x3da2cb54	0.07948938
98	0xbcc3fcbc	-0.023924224
99	0x3cb48234	0.022034742
100	0xbd34e5f5	-0.044164617
101	0xbdf7a072	-0.120911494
102	0x3cb90970	0.022587508
103	0xbdc074f6	-0.093973085
104	0xbea36bc0	-0.31918144
105	0x3e01119c	0.12604374
106	0xbe2b8ffd	-0.16754146
107	0xbdaecc92	-0.085351124
108	0x3cfc3889	0.030788677
109	0xbdf5d972	-0.12004365
110	0x3e3e7f15	0.18603165
111	0x3e0282ec	0.12745255
112	0x3deafff0	0.114745975
113	0xbd8dfa91	-0.069325574
114	0x3d979074	0.07400599
115	0xbb807c52	-0.00392107
116	0x3d93b210	0.07211697
117	0x3d75473a	0.05988238
118	0xbeba8897	-0.36432335
119	0xbd92fdfd	-0.07177351
120	0xbdfec73b	-0.12440344
121	0xbe56f7f0	-0.20993018
122	0xbba9a370	-0.005176954
123	0x3d7959f1	0.06087679
124	0xbda06db3	-0.078334235
125	0x3ddea2de	0.10870908
126	0xbde227f3	-0.11042776
127	0x3da10c0f	0.07863628
128	0x3ddc2c4a	0.10750635
129	0xbd313771	-0.043265764
130	0x3d9d430e	0.07678805
131	0x3e1aa85d	0.15103288
132	0xbce24656	-0.02762143
133	0x3e3ddd2f	0.18541406
134	0xbe0e384b	-0.13888662
135	0xbd089045	-0.03334071
136	0xbe196379	-0.14979352
137	0x3c5786e1	0.013154716
138	0xbe347dbb	-0.17626087
139	0x3dcd2e3d	0.10018585
140	0xbe25cf9d	-0.1619248
141	0x3e376071	0.17907883
142	0xbcf66fb4	-0.030082561
143	0xbdfc80ac	-0.1232923
144	0xbd21bc40	-0.03948617
145	0xbe148b2d	-0.14506216
146	0x3e6613c2	0.22468475
147	0xbe41d062	-0.18927148
148	0x3e26eeee	0.16302082
149	0xbdfa5df7	-0.122249536
150	0x3d75f0f7	0.060044255
151	0xbdecff78	-0.11572164
152	0xbd97c521	-0.07410646
153	0xbd92a18f	-0.07159721
154	0x3c3d9495	0.011571069
155	0x3e554930	0.208287
156	0x3d211778	0.039329022
157	0x3e16567f	0.14681433
158	0xbdab3498	-0.08359641
159	0x375ddfc3	1.3224725e-05
160	0xbe6927e2	-0.2276912
161	0x3e649fe7	0.22326623
162	0x3da3e16f	0.080019824
163	0xbe5f8f90	-0.21832108
164	0xbe0b9b36	-0.13633427
165	0xbe17a6e0	-0.14809752
166	0xbe167c86	-0.1469594
167	0xbd6acccb	-0.057324212
168	0xbddf1808	-0.108932555
169	0xbe548ac1	-0.20756055
170	0xbda28b50	-0.07936728
171	0xbc742efb	-0.014903779
172	0x3c425e8f	0.011863365
173	0x3d7d1e05	0.061796207
174	0xbe3b37fa	-0.18283072
175	0x3db263bc	0.08710429
176	0xbdb9369a	-0.090436175
177	0x3cdc4970	0.026890486
178	0xbddce8b8	-0.10786575
179	0x3e04656f	0.12929319
180	0x3e1ed02b	0.15509097
181	0x3e17b467	0.14814912
182	0xbde57678	-0.11204237
183	0x3d974567	0.07386284
184	0x3df8f15b	0.1215541
185	0x3cf811af	0.03028187
186	0x3d8189a5	0.06325082
187	0xbe9b6e03	-0.3035737
188	0x3dfa48fe	0.122209534
189	0xbd9ed37a	-0.0775518
190	0x3e3e6f19	0.18597068
191	0x3df6ab28	0.12044364
192	0x3e05cc56	0.13066229
193	0x3e2ee80a	0.17080703
194	0xbdfd153b	-0.12357565
195	0x3cf7f277	0.030266983
196	0x3c5b431d	0.0133827
197	0x3d4a21fe	0.049348824
198	0xbe42960e	-0.19002554
199	0x3e39b950	0.18137097
200	0xbd2c06db	-0.041998725
201	0x3b7f7a44	0.0038982788
202	0xbe1a7b2d	-0.1508605
203	0x3dc2d56b	0.095133625
204	0xbddbb9f2	-0.10728826
205	0x3d8223b0	0.06354463
206	0xbdb34c9b	-0.08754846
207	0xbe1b665b	-0.15175764
208	0xbd5278f1	-0.05138487
209	0x3b248210	0.0025101937
210	0x3cabc490	0.020967752
211	0x3d152576	0.03641268
212	0xbd55dd58	-0.052213043
213	0x3cf586b0	0.02997145
214	0x3cf7f376	0.030267458
215	0xbb4f67ef	-0.0031647643
216	0x3dfa20a0	0.12213254
217	0x3e1f4f3f	0.15557574
218	0x3d1f72af	0.03892773
219	0xbb4cd02f	-0.0031252017
220	0xbdd15eb7	-0.102231435
221	0x3dd015dd	0.1016042
222	0xbe0a6492	-0.13514927
223	0x3e4aa03f	0.19787692
224	0x3dbf8de6	0.09353237
225	0x3c41a623	0.011819395
226	0x3d54b25f	0.05192792
227	0xbe677a14	-0.22605163
228	0xbd7f109d	-0.062271703
229	0xbe38cd68	-0.18047106
230	0x3cf9e6f0	0.030505627
231	0x3e6fc1a5	0.23413713
232	0x3d0a0b9d	0.03370248
233	0x3d3b769c	0.04576741
234	0xbe1c2f7f	-0.15252493
235	0x3d8952fe	0.06705283
236	0x3ea88cb7	0.32919857
237	0xbd0af4b8	-0.03392479
238	0xbe0aa520	-0.13539553
239	0xbd96c2fe	-0.073614106
240	0x3e3baa88	0.18326771
241	0x3cd97346	0.026544224
242	0xbe65621c	-0.22400707
243	0x3bbea723	0.005818264
244	0x3cd5d444	0.026102193
245	0xbd660866	-0.056160353
246	0x3be264dd	0.0069089965
247	0xbcc89a9f	-0.024487792
248	0xbbf13fc4	-0.007362338
249	0x3dd0147e	0.101601586
250	0x3cb8d471	0.022562237
251	0x3c8c0f60	0.017097175
252	0xbdf8a4a9	-0.121407814
253	0x3d54cf48	0.05195549
254	0x3ca3631d	0.019944722
255	0x3cfe3bc6	0.031034362

net.2.bias f4 [60]
0	0xbce84a38	-0.028355703
1	0x3cd522ff	0.026017664
2	0x3d9e93d6	0.07743041
3	0x3d801d9d	0.06255648
4	0xbd66d094	-0.05635126
5	0x3d85b16b	0.065279804
6	0xbd9f6de6	-0.07784633
7	0xbc8007f4	-0.015628792
8	0xbdb39fd7	-0.087707214
9	0x3dc638a3	0.09678771
10	0x3d1b8a4c	0.037973687
11	0xbcd75789	-0.026286857
12	0x3d067bc9	0.032832894
13	0xbd8f16bb	-0.06986757
14	0x3cc2b574	0.023768164
15	0x3dfe7975	0.1242551
16	0x3d7c4a1f	0.061594125
17	0x3bde3627	0.006781358
18	0x3ce762a6	0.028245281
19	0xbde14366	-0.10999183
20	0xbdb78932	-0.08961715
21	0xbd6ac30b	-0.057314914
22	0xbd0ce12a	-0.03439442
23	0xbdfb82c7	-0.12280803
24	0xbdfa0a7c	-0.12209031
25	0x3d834ac1	0.064107426
26	0xbdec351f	-0.115335695
27	0x3da50e90	0.08059418
28	0x3de68bdc	0.11257145
29	0x3d607805	0.05480196
30	0xbb9104fe	-0.004425644
31	0x3cfc0b6b	0.030767163
32	0x3c7fb1b8	0.015606336
33	0xbdbb1a6b	-0.09135898
34	0xbcef75cb	-0.029230973
35	0x3dc1f0bd	0.09469745
36	0x3d6e1a0f	0.05813032
37	0xbb9881eb	-0.0046541593
38	0xbc1d4d9d	-0.009601024
39	0x3d417ed7	0.047240105
40	0x3d6ca925	0.057778496
41	0xbc97fac0	-0.018552184
42	0xbd29700e	-0.04136663
43	0xbd331bda	-0.043727733
44	0x3cb31357	0.021859808
45	0xbcbd5703	-0.02311278
46	0x3da4d387	0.08048158
47	0xbd1bde10	-0.038053572
48	0x3d9723c6	0.0737987
49	0xbd21161d	-0.03932773
50	0x3de43a2a	0.111439064
51	0xbc303c34	-0.010756541
52	0x3c2d702a	0.010585824
53	0x3d98662e	0.07441364
54	0x3a53dcf5	0.00080819364
55	0x3cb0d13b	0.021584144
56	0x3d4bbd7a	0.049741246
57	0x3dec3b6f	0.115347736
58	0x3d3488da	0.044075824
59	0xbd9adfb1	-0.07562197
