pretrained model/model_XJTU_1.pth (torch, 60271 bytes, 14 tensors)

encoder.net.0.weight f4 [60, 17]
0	0xbe14a516	-0.145161
1	0xbea06415	-0.31326357
2	0xbe2a1287	-0.1660863
3	0x3e2f6450	0.1712811
4	0x3e157b6a	0.1459786
5	0xbcb7e2d4	-0.022447027
6	0xbdcfea1f	-0.10152077
7	0xbe8745b7	-0.26420376
8	0xbe84c01e	-0.25927824
9	0xbde76fd8	-0.113006294
10	0xbddb225f	-0.10699915
11	0x3cf5b00a	0.029991169
12	0x3de4556d	0.11149106
13	0xbe132012	-0.14367703
14	0xbee84708	-0.45366693
15	0x3e81f6dc	0.2538365
16	0xbdedf486	-0.11618905
17	0x3dfc6fe8	0.12326032
18	0x3d06151a	0.032734968
19	0xbe1c62c6	-0.15272054
20	0x3d9057cb	0.07047995
21	0x3d8d1a61	0.06889797
22	0xbf14a913	-0.58070487
23	0xbe1cbbba	-0.15305987
24	0xbe9bf095	-0.30456987
25	0xbda8a431	-0.08234442
26	0x3db61942	0.08891536
27	0x3e5bfef4	0.21483976
28	0xbe86674d	-0.26250687
29	0x3dd614d2	0.1045319
30	0x3e05900f	0.13043235
31	0x3de9896a	0.11403163
32	0xbcac916b	-0.021065434
33	0xbde4e5e7	-0.11176663
34	0xbe5904de	-0.21193263
35	0xbe3b8c15	-0.18315156
36	0xbcc5e684	-0.02415777
37	0x3e2b62ed	0.16736956
38	0xbe25516e	-0.16144344
39	0xbdfb8ea3	-0.12283065
40	0x3cfe0455	0.031007925
41	0x3c473e4a	0.012160847
42	0x3dc87bd4	0.09789243
43	0x3d33d694	0.04390581
44	0x3d58a9e4	0.052896395
45	0xbdcc6016	-0.099792644
46	0x3cf01317	0.029305978
47	0x3e43ba0c	0.1911394
48	0xbe0985e6	-0.13429984
49	0xbdb3eee6	-0.08785801
50	0x3e272820	0.163239
51	0x3df14d38	0.117823064
52	0xbd5e1640	-0.054220438
53	0xbdec3f29	-0.11535484
54	0xbded67a0	-0.115920305
55	0xbdb4b818	-0.088241756
56	0x3e84034b	0.25783762
57	0x3d3e943c	0.046528086
58	0x3dbfcf8b	0.093657576
59	0x3e3cc415	0.18434174
60	0x3d7e6af8	0.062113732
61	0x3d0b9811	0.03408057
62	0xbdecc1ca	-0.115604
63	0x3defb331	0.117041
64	0x3e8094ad	0.2511343
65	0x3c2da581	0.010598541
66	0xbe0e1283	-0.13874249
67	0xbe007394	-0.1254409
68	0x3dd4d056	0.103912994
69	0x3dc1fbb2	0.09471835
70	0xbd298fbf	-0.041396853
71	0xbd8e505f	-0.06948923
72	0x3ebb9a0d	0.3664097
73	0x3e4c9565	0.19978864
74	0x3ea833a9	0.32851914
75	0x3d7176e8	0.05895129
76	0x3df94165	0.12170676
77	0xbdd84277	-0.10559552
78	0x3df48d83	0.11941054
79	0xbddfc043	-0.10925343
80	0x3e758921	0.23978092
81	0xbe4c263d	-0.19936462
82	0xbd9e1cf4	-0.07720366
83	0xbdceeddc	-0.10103962
84	0x3e048f96	0.12945399
85	0x3cc3a02b	0.023880085
86	0x3bebff99	0.0072021005
87	0xbca49aab	-0.020093283
88	0xbd32d7d2	-0.043662854
89	0xbe591c96	-0.21202311
90	0x3dc5d142	0.096590534
91	0xbd71efaf	-0.05906647
92	0xbd742a27	-0.059610512
93	0x3e176b0f	0.14786933
94	0x3e347787	0.17623721
95	0x3c5c2af9	0.01343798
96	0xbe518820	-0.20462084
97	0xbd491546	-0.049092554
98	0x3d296bee	0.041362695
99	0x3ec618e5	0.38690868
100	0xbd67521c	-0.05647479
101	0x3e8ee8e4	0.27912056
102	0xbc446415	-0.011986752
103	0x3d7e2bc5	0.06205346
104	0x3c5ea1ef	0.013588413
105	0xbe38a110	-0.1803019
106	0x3d8bac03	0.06819918
107	0xbb825ce1	-0.003978357
108	0xbd4892f2	-0.048968263
109	0x3dbb8e58	0.09158009
110	0xbe07950b	-0.13240449
111	0x3e4ecc05	0.20195015
112	0x3cd413d2	0.025888357
113	0xbe78f476	-0.24312004
114	0x3d859ddc	0.0652425
115	0xbe575672	-0.2102907
116	0x3e6448d2	0.22293404
117	0xbdfd3b7c	-0.12364861
118	0x3b54d62d	0.0032476292
119	0xbdbbcd28	-0.0916999
120	0x3df84e63	0.12124326
121	0xbcbf69a7	-0.023365809
122	0x3d637e52	0.05554039
123	0xbe12f854	-0.14352542
124	0xbe6d37e4	-0.23165852
125	0xbe451075	-0.19244559
126	0x3ececb45	0.40389457
127	0xbdb90852	-0.0903479
128	0x3dbddea0	0.09270978
129	0x3ced545c	0.02897089
130	0xbe120d49	-0.1426288
131	0xbd54e088	-0.051971942
132	0x3ee6f5cd	0.45109406
133	0xbe3a65ae	-0.1820285
134	0xbe3bc7ad	-0.18337889
135	0x3e93a595	0.28837267
136	0x3dbbbce1	0.09166885
137	0x3dd7109b	0.10501214
138	0x3eaf3806	0.3422243
139	0xbdb30ce8	-0.08742696
140	0xbd0caea4	-0.034346238
141	0x3d9c265a	0.076245025
142	0xbe314ab3	-0.17313652
143	0xbe261192	-0.1621764
144	0x3d848370	0.06470382
145	0xbebe5928	-0.37177396
146	0xbc870d23	-0.016485756
147	0x3ee428b9	0.4456232
148	0xbd6b7e6b	-0.05749361
149	0x3c339f01	0.010963202
150	0x3bc94077	0.006141718
151	0x3dec8388	0.11548525
152	0x3d659b59	0.056056354
153	0x3e39743d	0.18110748
154	0xbdbecca6	-0.09316377
155	0x3da3dd5d	0.08001206
156	0x3e5f88ed	0.21829577
157	0xbdb5b3ec	-0.08872208
158	0xbc131a68	-0.008978464
159	0xbea7d991	-0.32783177
160	0x3e488ede	0.1958575
161	0x3e6c0100	0.23047256
162	0xbe81e329	-0.25368622
163	0x3db71800	0.089401245
164	0xbe2b93f8	-0.16755664
165	0x3e0a0807	0.13479625
166	0x3c8b778e	0.017024782
167	0x3e3193ec	0.17341584
168	0xbc53fc99	-0.012938642
169	0x3db91b99	0.09038467
170	0x3e90db29	0.28292206
171	0xbe37c2d5	-0.17945416
172	0x3cdeb1db	0.027184417
173	0x3d6ad8e3	0.057335746
174	0xbd864bf8	-0.06557459
175	0xbc24c4c0	-0.0100566745
176	0x3dba6c00	0.091026306
177	0x3d360ced	0.04444592
178	0xbe1c7241	-0.1527796
179	0x3cf38940	0.029728532
180	0x3d613ed3	0.054991554
181	0x3e6db654	0.23214084
182	0x3e055e2b	0.13024203
183	0xbdde4b16	-0.10854165
184	0x3e1e813b	0.15478985
185	0xbdbff9ad	-0.09373794
186	0x3da580c4	0.08081201
187	0xbcbe8dc4	-0.023260958
188	0x3e3c859d	0.18410344
189	0x3c1654e3	0.009175512
190	0xbc8e9f09	-0.017409818
191	0x3d850603	0.06495287
192	0xbe9cf14e	-0.3065285
193	0x3e71d8cd	0.23617859
194	0x3db79646	0.08964209
195	0xbdb57d88	-0.08861834
196	0x3c31a9c9	0.010843703
197	0x3c87daf6	0.0165839
198	0x3db6d12f	0.08926617
199	0xbdf80c42	-0.12111713
200	0xbde65b53	-0.112478875
201	0xbe3864ba	-0.18007174
202	0x3e0a77f2	0.13522318
203	0xbe293d48	-0.16527283
204	0xbd997a9e	-0.074940905
205	0x3d33f6fa	0.043936707
206	0x3dcd7a37	0.10033076
207	0xbd969ba1	-0.073539026
208	0xbcb9afb8	-0.022666797
209	0xbdfcca66	-0.12343292
210	0xbdc5103a	-0.096222356
211	0x3d5e3e49	0.05425862
212	0xbe640186	-0.22266206
213	0xbe64d435	-0.22346576
214	0xbd8e3625	-0.06943921
215	0xbdc87dcd	-0.097896196
216	0x3e09d67a	0.13460723
217	0x3e129f21	0.14318515
218	0x3eaa36c0	0.33244896
219	0xbe7a30a4	-0.24432617
220	0x3da98598	0.08277434
221	0xbdf2db5c	-0.11858246
222	0xbe1f1402	-0.15534976
223	0x3def1bc5	0.116752185
224	0x3ecd317c	0.40076816
225	0xbe2e55ba	-0.1702489
226	0x3e5f2c29	0.2179419
227	0xbdcc9752	-0.099897996
228	0xbe4d8940	-0.20071888
229	0x3ea179f7	0.31538364
230	0xbe1341b4	-0.14380533
231	0x3d317695	0.04332598
232	0x3dd0cde1	0.10195518
233	0x3d64b247	0.05583408
234	0xbe846e82	-0.2586556
235	0x3dd72796	0.10505597
236	0x3d942659	0.07233877
237	0x3da32971	0.07966889
238	0xbdd633b7	-0.104590826
239	0xbde85dfa	-0.113460496
240	0xbd404386	-0.046939395
241	0xbde7c26b	-0.11316379
242	0xbe7956e4	-0.24349552
243	0xbdb969b9	-0.09053368
244	0xbe0831c6	-0.13300237
245	0x3e47ec27	0.19523679
246	0xbe635253	-0.22199373
247	0x3e8022d4	0.25026572
248	0xbe543a24	-0.20725304
249	0xbdba5159	-0.09097547
250	0x3d310594	0.04321821
251	0x3e7374dd	0.23775049
252	0xbe379310	-0.17927194
253	0xbe7a849f	-0.24464653
254	0x3e51f6e2	0.20504335
255	0xbe610b30	-0.21976924

encoder.net.0.bias f4 [60]
0	0x3cea9783	0.0286367
1	0xbd04f8fd	-0.032464016
2	0x3d06aee7	0.032881644
3	0xbd5411b1	-0.051774684
4	0xbd882c39	-0.0664906
5	0x3cc466d4	0.023974814
6	0xbd0b3814	-0.033989027
7	0x3ca98d57	0.020697279
8	0xbcde3a14	-0.027127303
9	0xbca34392	-0.019929681
10	0x3d2c252d	0.04202764
11	0x3c7d6639	0.015466266
12	0xbc357ddf	-0.011077373
13	0x3d0f94be	0.03505396
14	0xbcd38f7d	-0.025825256
15	0xbcff119d	-0.031136328
16	0xbc3fc605	-0.011704926
17	0x3cc529e8	0.024067834
18	0xbb9e4183	-0.004829587
19	0x3b80acbf	0.003926843
20	0x3cf4c093	0.029876983
21	0xbdf0145c	-0.11722633
22	0xbcfee3c2	-0.031114463
23	0x3d211482	0.0393262
24	0xbcc22275	-0.023698071
25	0x3cd184a4	0.025575943
26	0xbdd0b849	-0.101913996
27	0xbd0fa949	-0.035073552
28	0x3d4c9e81	0.04995585
29	0x3d0728cd	0.032997895
30	0xbd5416b8	-0.05177948
31	0xbced6d23	-0.028982705
32	0xbd9e1d1b	-0.07720395
33	0x3d133c69	0.035946283
34	0x3cde6f98	0.027152821
35	0xbcde072f	-0.027103035
36	0x3cf98a4d	0.030461455
37	0xbcc06293	-0.023484504
38	0xbc1bb102	-0.009502651
39	0x3d0edd3e	0.03487896
40	0x3d21f073	0.03953595
41	0xbc29a44f	-0.010354116
42	0xbd46467c	-0.048407063
43	0x3cc5035b	0.024049452
44	0xbd4d72f2	-0.05015845
45	0xbcfa2f80	-0.030540228
46	0xbcd264a6	-0.025682759
47	0x3dced70c	0.10099611
48	0x3d21577a	0.039390065
49	0xbd322229	-0.04348961
50	0xbc494221	-0.012283833
51	0xbd137163	-0.035996806
52	0xbc9e3ccc	-0.0193161
53	0x3d2332aa	0.03984324
54	0x3ce367a0	0.027759373
55	0x3ccfba8e	0.02535751
56	0x3bd19cbf	0.0063968594
57	0xbd3edf0c	-0.046599433
58	0xbd5606c0	-0.05225253
59	0x3cefd442	0.029276017

encoder.net.2.weight f4 [60, 60]
0	0xbd14c36a	-0.036319174
1	0xbe7dff10	-0.2480433
2	0x3dc19279	0.094517656
3	0x3da71569	0.081583805
4	0xbe34f1dd	-0.17670389
5	0x3c8ebe75	0.017424801
6	0x3e3c6311	0.18397166
7	0x3c2205f4	0.009889115
8	0xbe7904d4	-0.24318248
9	0xbdc0ac21	-0.09407831
10	0x3d3db3ef	0.046314176
11	0xbd876f82	-0.06613065
12	0x3ca2e0bc	0.019882552
13	0xbe17c6f4	-0.14821988
14	0x3cbc891a	0.023014594
15	0xbe29944f	-0.16560481
16	0x3dac8f88	0.08425814
17	0xbd739ed2	-0.059477635
18	0xbe0c669b	-0.13711016
19	0x3d370e3e	0.044691317
20	0xbdd7cb3a	-0.10536809
21	0xbca7c027	-0.020477368
22	0x3d488485	0.048954505
23	0xbb715093	-0.0036821708
24	0x3e849be9	0.259002
25	0xbe88097c	-0.26569736
26	0xbcd7ca3a	-0.026341546
27	0xbda15b07	-0.0787869
28	0xbe0de066	-0.13855132
29	0x3c2b9758	0.010473095
30	0xbca08cda	-0.019598413
31	0x3d2e1f2f	0.042510208
32	0x3df59970	0.119921565
33	0xbe1e3997	-0.15451656
34	0xbdaa761c	-0.08323309
35	0x3cfa6967	0.030567838
36	0x3e4891fa	0.19586936
37	0x3d1d57e8	0.038413912
38	0xbdabd1a1	-0.08389593
39	0xbd1babd8	-0.03800568
40	0xbc918f9a	-0.01776867
41	0x3dd5ee96	0.10445897
42	0xbd7247c1	-0.05915046
43	0x3d265156	0.04060491
44	0x3e1fa997	0.15592037
45	0xbdbf292b	-0.09334024
46	0x3e6896fb	0.22713844
47	0xbd23b90e	-0.039971404
48	0x3c9876a7	0.018611265
49	0xbd37f40d	-0.04491048
50	0xbdf5aa00	-0.119953156
51	0x3da19062	0.07888867
52	0x3e7356cf	0.23763584
53	0x3d09aa8f	0.033609923
54	0x3d4d2d33	0.050091933
55	0xbe066f33	-0.13128357
56	0xbe4adbfd	-0.19810481
57	0xbcb821f4	-0.022477128
58	0xbdd9b519	-0.10630245
59	0x3d4ba234	0.049715236
60	0x3e405800	0.1878357
61	0x3c946f65	0.018119523
62	0xbd857d01	-0.06517983
63	0x3d8c4bfa	0.06850429
64	0xbdfe0dfc	-0.12405011
65	0xbe1e699b	-0.15469973
66	0x3ba7aa17	0.005116712
67	0xbe612d02	-0.21989825
68	0xbe06b942	-0.13156608
69	0x3e15c90f	0.14627479
70	0x3e003a63	0.12522273
71	0xbda77fe5	-0.08178691
72	0x3da41c81	0.08013249
73	0x3e1daf8a	0.15398994
74	0xbd5cd9e6	-0.05391874
75	0xbdeb07bf	-0.11476087
76	0x3ad8b84f	0.001653442
77	0xbdaa66c1	-0.0832038
78	0x3db0957f	0.08622264
79	0xbdb2cc8f	-0.08730423
80	0xbe45c2ec	-0.19312638
81	0x3d88948d	0.06668959
82	0xbdb93529	-0.090433426
83	0x3e2cd02c	0.16876286
84	0xbd9101bd	-0.0708041
85	0xbd83061c	-0.0639765
86	0xbda354b7	-0.079751424
87	0xbe18be34	-0.14916307
88	0xbe33c6a8	-0.1755625
89	0x3e310651	0.17287566
90	0xbe0abd7f	-0.1354885
91	0x3c5f709d	0.013637689
92	0x3d2a217d	0.041535843
93	0x3cede1c5	0.02903832
94	0xbe3e8dc9	-0.18608774
95	0xbe596f72	-0.2123392
96	0x3d7389ba	0.05945752
97	0x3d38d337	0.045123305
98	0xbe8b6859	-0.27228048
99	0xbda32f32	-0.07967986
100	0xbbe13988	-0.0068733133
101	0xbc8ba0e4	-0.017044492
102	0xbd262907	-0.04056647
103	0xbe4f1df4	-0.2022627
104	0xbe275ddf	-0.16344403
105	0xbd8f1510	-0.06986439
106	0x3b8ae145	0.00423828
107	0x3d3332c9	0.043749604
108	0x3e17bbc3	0.14817719
109	0xbe7b4187	-0.24536715
110	0x3d3d5726	0.04622569
111	0x3e0c3919	0.13693656
112	0xbe12cacd	-0.14335175
113	0x3d97db46	0.0741487
114	0x3dbda59a	0.092601016
115	0x3d94fe86	0.07275109
116	0x3e63edf5	0.22258742
117	0xbb349dbe	-0.0027559842
118	0xbe02840b	-0.12745683
119	0x3d156bc8	0.03647974
120	0x3da9acf4	0.08284941
121	0x3ce8bdd3	0.028410828
122	0x3e38d2ba	0.18049136
123	0xbe3a3f3f	-0.18188189
124	0x3d93d348	0.07218033
125	0x3d90aa23	0.07063701
126	0xbd9ca8f6	-0.07649414
127	0xbe07f669	-0.13277592
128	0x3c896531	0.016771885
129	0xbe13c89b	-0.14431994
130	0xbda40daa	-0.08010419
131	0xbda845dc	-0.082164496
132	0x3c1db82e	0.009626431
133	0x3e95447b	0.2915381
134	0xbd0f17e5	-0.034934897
135	0x3b4388f7	0.0029836276
136	0x3e4531b7	0.19257246
137	0x3dfe6792	0.12422098
138	0x3dac3f36	0.08410494
139	0xbe948360	-0.2900648
140	0xbc8c3954	-0.01711718
141	0x3ea9ddf3	0.33177146
142	0x3d9ffbaf	0.07811677
143	0x3e875c2c	0.2643751
144	0xbeb80b9e	-0.35946363
145	0x3dad5571	0.08463562
146	0x3e004373	0.1252573
147	0xbc89ed10	-0.016836673
148	0xbd0fcc03	-0.03510667
149	0x3e1dd0bf	0.15411662
150	0x3d892541	0.06696559
151	0xbe279c44	-0.16368204
152	0xbcf62272	-0.030045722
153	0x3dcc3c60	0.09972453
154	0x3d9f8ddb	0.07790729
155	0xbe006508	-0.1253854
156	0xbde5c1c0	-0.112185955
157	0x3e00202c	0.12512273
158	0x3d5a7f8b	0.05334429
159	0x3e3f18c8	0.18661797
160	0xbdd8fecd	-0.105954744
161	0x3ce8c6bd	0.028415078
162	0x3d1304fc	0.035893425
163	0x3e312898	0.17300642
164	0xbe5b7a49	-0.21433367
165	0xbe2a7a01	-0.16648103
166	0xbcc76a3a	-0.024342645
167	0x3d51272e	0.051062755
168	0x3cb6fb2f	0.02233657
169	0x3d78dfa1	0.060760144
170	0xbdac3d25	-0.084101
171	0xbd7f15ce	-0.062276654
172	0x3e805d57	0.25071213
173	0x3ca707a6	0.02038939
174	0x3cb38e90	0.021918565
175	0x3ebb358a	0.36564285
176	0xbe364642	-0.17800239
177	0xbe0c79f3	-0.13718395
178	0xbe0321cc	-0.12805861
179	0xbd3a3ad3	-0.045466255
180	0xbd2bc7c6	-0.041938566
181	0xbd87b84a	-0.06626947
182	0x3e9d9fe5	0.30786052
183	0xbcfd414d	-0.030914927
184	0xbc84cb7b	-0.016210308
185	0x3d79892f	0.060921844
186	0x3caa1207	0.02076055
187	0x3d6b0705	0.05737974
188	0xbddbdf71	-0.107359774
189	0x3e50b4e8	0.2038151
190	0xbd9a8b73	-0.07546129
191	0x3e2920bc	0.16516393
192	0x3d96d603	0.07365038
193	0xbbff7b3d	-0.0077966736
194	0xbbe9f026	-0.0071392236
195	0xbd8da6d0	-0.069165826
196	0xbd9039c2	-0.070422664
197	0x3d9993af	0.074988715
198	0x3e10930e	0.14118597
199	0xbdda3d0a	-0.106561735
200	0xbdfe86a6	-0.12428026
201	0xbd96a542	-0.07355739
202	0xbdac9b67	-0.08428078
203	0xbe0cefce	-0.13763353
204	0xbd0bb13e	-0.03410458
205	0xbc91b514	-0.01778654
206	0xbc8fe48a	-0.01756503
207	0x3d6146dc	0.054999217
208	0xbcc7ef2c	-0.024406038
209	0x3d99cbc1	0.07509566
210	0x3de9d3fb	0.11417385
211	0x3d16c159	0.036805484
212	0xbdd121b9	-0.1021151
213	0x3d280647	0.04102161
214	0x3e287fae	0.16454956
215	0xbd260f31	-0.04054183
216	0xbe0ac669	-0.1355225
217	0xbc3118ab	-0.010809104
218	0xbd8b1588	-0.06791216
219	0x3df42d53	0.119227074
220	0xbe33277a	-0.17495528
221	0x3c4220be	0.011848627
222	0x3c0400a9	0.008056798
223	0xbdfab08c	-0.12240705
224	0x3d0167ed	0.031593252
225	0xbd7b9c60	-0.061428428
226	0x3c4a0c8d	0.012332094
227	0xbd7876fa	-0.06066034
228	0x3e36e018	0.17858922
229	0x3dfbb49b	0.12290307
230	0xbd8d8d37	-0.069117
231	0x3e0cfc07	0.13768016
232	0xbdcaa057	-0.09893864
233	0xbe15f438	-0.14643943
234	0x3d2602e8	0.040530115
235	0xbd532b3e	-0.05155491
236	0x3db84e05	0.08999256
237	0xbd903777	-0.07041829
238	0xbdf2ff2f	-0.11865079
239	0x3da9f3b0	0.08298433
240	0x3cb41524	0.021982737
241	0xbb5d25ed	-0.003374453
242	0xbdd5ab7c	-0.10433099
243	0x3cfbb3a8	0.030725315
244	0x3dcb6182	0.099307075
245	0x3df3829a	0.11890145
246	0xbe64995c	-0.22324127
247	0xbdd5fc74	-0.10448542
248	0xbcf93fe7	-0.030425979
249	0x3d4a8787	0.049445655
250	0x3dc40526	0.095712945
251	0x3e1f2ac3	0.15543656
252	0xbe9e10ea	-0.3087228
253	0xbe02f843	-0.12790017
254	0xbe3169c5	-0.17325504
255	0xbdc0327c	-0.09384629

encoder.net.2.bias f4 [60]
0	0xbd7f337a	-0.06230495
1	0xbd0212e6	-0.031756304
2	0x3d0e4e01	0.03474236
3	0xbd10d70d	-0.03536134
4	0x3b2c69b1	0.0026308114
5	0xbcca8a71	-0.024724217
6	0x3d13829b	0.036013227
7	0xbcfb29a9	-0.030659514
8	0x3ce15507	0.027506365
9	0x3d147fd9	0.036254738
10	0xbce13ed7	-0.027495785
11	0x3d1c2b25	0.038127083
12	0xbd079720	-0.03310311
13	0x3cd22d2e	0.025656309
14	0x3d75c7be	0.060004942
15	0xbccfa1ab	-0.025345644
16	0xbd08251b	-0.03323851
17	0x3cc7efb7	0.024406297
18	0xbc8dd7c5	-0.017314801
19	0xbd14fb20	-0.036372304
20	0xbcec30a6	-0.028831791
21	0x3d58159d	0.052754987
22	0x3d31af8b	0.0433803
23	0x3c81688c	0.015796922
24	0x3cfad9e0	0.030621469
25	0x3d11936d	0.035540987
26	0xbbf4a761	-0.007466242
27	0x3d4a0faa	0.049331345
28	0xbd301347	-0.042987134
29	0x3d18582d	0.037193466
30	0xbd03d1d8	-0.032182544
31	0x3cc6c263	0.024262613
32	0x3d1ab3ec	0.037769243
33	0x3d1b4728	0.037909657
34	0x3cb0d769	0.02158709
35	0x3ca843ea	0.020540196
36	0xbd116ab7	-0.03550216
37	0xbd0d393d	-0.034478415
38	0x3d327390	0.04356724
39	0x3d5b0b03	0.0534773
40	0x3cfcee56	0.030875366
41	0x3d0c31dc	0.034227237
42	0xbd12a641	-0.035803083
43	0x3d0c9015	0.034317095
44	0xbd020b85	-0.031749267
45	0x3ca601d8	0.020264551
46	0xbcd16e3e	-0.025565263
47	0x3d469afc	0.04848765
48	0x3cee4a4b	0.02908816
49	0xbc99ec1a	-0.01878934
50	0x3d0a7f7a	0.033812977
51	0x3d0aa63a	0.033849932
52	0x3c8534aa	0.016260464
53	0x3d0e395b	0.034722667
54	0x3d110118	0.035401434
55	0x3d0b5ff7	0.034027066
56	0x3d3fd8d5	0.046837647
57	0x3cb98d53	0.022650396
58	0x3d87f655	0.06638781
59	0xbd0f62b3	-0.035006236

encoder.net.5.weight f4 [32, 60]
0	0xbd19f34c	-0.03758554
1	0x3dfa5827	0.12223845
2	0x3d398223	0.045290124
3	0xbdbbe98b	-0.09175404
4	0xbdabe930	-0.08394086
5	0x3e2e8a54	0.17044955
6	0x3cb1ab19	0.021688031
7	0x3e6d4f62	0.23174813
8	0x3ddd8d50	0.10817969
9	0xbc0c2cb3	-0.008555579
10	0xbdb882fb	-0.090093575
11	0xbd57fc75	-0.052730996
12	0xbd2e6805	-0.04257967
13	0xbd623129	-0.055222664
14	0xbdf414f1	-0.11918057
15	0xbd824b42	-0.063620105
16	0xbde99fa3	-0.114074014
17	0xbd92534e	-0.07144795
18	0x3c2085ce	0.0097975265
19	0x3dc4a6ac	0.09602103
20	0x3e204980	0.15653038
21	0xbe1860f8	-0.1488074
22	0x3caac260	0.020844638
23	0xbde83966	-0.11339073
24	0x3e5f8e10	0.21831536
25	0x3d6e30ef	0.058152135
26	0x3b2c6203	0.0026303537
27	0x3c2664fd	0.010155913
28	0x3e60471c	0.21902126
29	0x3cf789b1	0.030217024
30	0xbddfbe53	-0.10924973
31	0xbe3f2d53	-0.18669634
32	0x3d15a10e	0.036530547
33	0xbcf07252	-0.029351387
34	0x3e754920	0.23953676
35	0x3dcc6007	0.09979253
36	0x3e499b71	0.19688202
37	0x3d474fe7	0.048660185
38	0xbe8887be	-0.26666063
39	0x3db24c57	0.08705967
40	0x3db8f235	0.09030572
41	0x3cd9149a	0.026499081
42	0xbd417d9f	-0.047238942
43	0xbc8436a6	-0.01613934
44	0x3e1ab11a	0.15106621
45	0xbe1f34b4	-0.15547448
46	0xbcda0a1f	-0.026616154
47	0x3d0958dc	0.03353201
48	0x3e3f42b4	0.18677789
49	0x3c16a483	0.009194496
50	0x3d9fd64c	0.07804546
51	0xbd58a144	-0.05288817
52	0x3e283d52	0.16429642
53	0xbc5a2144	-0.013313595
54	0x3d892355	0.06696192
55	0xbc988ce7	-0.018621875
56	0xbd2c9b4b	-0.042140286
57	0xbe8dbe47	-0.27684233
58	0xbe947b0e	-0.29000133
59	0x3d7d7509	0.06187919
60	0xbe7cfe1f	-0.24706315
61	0xbdd12513	-0.102121495
62	0xbe5b2b93	-0.21403341
63	0xbe17cb75	-0.14823706
64	0xbd16d15f	-0.036820766
65	0x3d9efc0a	0.077629164
66	0xbe2de923	-0.16983466
67	0xbdd0efb2	-0.10201968
68	0xbe3dac80	-0.18522835
69	0xbc984b08	-0.018590465
70	0xbe15a728	-0.14614546
71	0xbec219bb	-0.37910256
72	0xbe1e96cc	-0.15487212
73	0xbe06e4be	-0.13173196
74	0xbe333b96	-0.17503199
75	0xbd785467	-0.060627367
76	0xbd9a5af0	-0.07536876
77	0xbe6ddef7	-0.23229586
78	0x3e5bfeb6	0.21483883
79	0xbce0ae8c	-0.02742698
80	0x3e7ef2f9	0.24897374
81	0x3e2cbf9d	0.1686997
82	0x3de252d8	0.110509574
83	0x3cdfd796	0.02732448
84	0x3e2177fe	0.1576843
85	0xbd92a730	-0.07160795
86	0xbe1cca4e	-0.15311548
87	0xbdf3c579	-0.11902899
88	0xbd7d888a	-0.061897792
89	0xbde6b73f	-0.1126542
90	0x3d985233	0.07437553
91	0xbdc9d6b6	-0.09855406
92	0xbd96330b	-0.073339544
93	0x3d395337	0.045245375
94	0x3d359702	0.044333465
95	0x3dbb2cc3	0.09139397
96	0xbe7554e0	-0.23958158
97	0x3e352c34	0.17692643
98	0xbdba0bfc	-0.09084317
99	0x3e1f5a44	0.15561777
100	0xbe020890	-0.12698579
101	0xbe076e37	-0.13225637
102	0xbd5938c0	-0.053032637
103	0x3d5e90c9	0.054337297
104	0x3d56cd4a	0.052441873
105	0xbeddf0ab	-0.43347678
106	0xbdb61777	-0.08891194
107	0xbd93fd46	-0.072260424
108	0x3e77ee99	0.24212112
109	0xbe7904a4	-0.24318177
110	0x3ddff10d	0.10934649
111	0x3e0e02e9	0.13868298
112	0x3dd746bb	0.10511538
113	0xbd9f0c2d	-0.07765994
114	0xbe9fe2f2	-0.31227833
115	0xbdbfbfdc	-0.09362766
116	0x3ce18ea1	0.027533831
117	0xbe56688d	-0.2093832
118	0xbe120e3a	-0.1426324
119	0x3e2d03f3	0.16896038
120	0xbe1b1dc8	-0.1514808
121	0x3e06eb08	0.13175595
122	0x3e24189d	0.16025014
123	0x3e59f401	0.21284486
124	0x3d6281b5	0.05529948
125	0xbe58d9b5	-0.21176799
126	0xbe1b70c5	-0.15179737
127	0x3d6935ab	0.056935947
128	0xbdf0f653	-0.117657326
129	0x3e930475	0.28714338
130	0x3e43d288	0.1912328
131	0x3dd3ee20	0.10348153
132	0x3eb96f5a	0.36217767
133	0x3ec42d11	0.38315633
134	0x3df25e02	0.11834337
135	0x3e3ee225	0.18640955
136	0x3cd8913c	0.02643644
137	0xbdb5d13b	-0.08877798
138	0x3e9fa570	0.31180906
139	0x3db079b0	0.0861696
140	0xbdc38c38	-0.09548229
141	0x3e768d4a	0.24077335
142	0xbca89fdb	-0.020584038
143	0x3d4321bc	0.047639593
144	0xba6cfb68	-0.0009040148
145	0x3e2d3c22	0.1691747
146	0x3dcbcefe	0.0995159
147	0x3da08725	0.07838277
148	0x3dd2ae85	0.10287193
149	0x3e87e4e0	0.26541805
150	0x3d3eef65	0.046615023
151	0xbd5c766d	-0.053823877
152	0x3e19a012	0.15002468
153	0xbe0d1ef9	-0.13781346
154	0xbe1fac35	-0.15593036
155	0xbe77b958	-0.24191797
156	0xbe0e6d3e	-0.1390886
157	0x3d1d2017	0.03836068
158	0x3dd6e579	0.10492987
159	0xbd256a41	-0.040384535
160	0x3db310f1	0.08743466
161	0xbc24ba41	-0.010054172
162	0x3d772f09	0.06034759
163	0xbd076ea1	-0.03306449
164	0x3df1f130	0.11813581
165	0xbe7f4df4	-0.2493208
166	0x3da86607	0.08222585
167	0xbd9733db	-0.073829375
168	0xbe6a252f	-0.22865747
169	0x3e79f0b2	0.24408224
170	0x3e45ca94	0.19315559
171	0xbd0871ba	-0.033311583
172	0x3cc414d5	0.023935715
173	0x3df750fb	0.12075993
174	0xbe1a0b26	-0.15043315
175	0xbe8f3170	-0.27967405
176	0xb930fb69	-0.00016878326
177	0xbe9a606f	-0.30151698
178	0x3d3216b8	0.043478698
179	0xbe4d37bf	-0.20040797
180	0xbd9574c0	-0.07297659
181	0x3da4049e	0.08008693
182	0xbde1e14d	-0.11029301
183	0x3e86cdf3	0.26329002
184	0x3e65eca0	0.22453547
185	0xbcfaee07	-0.030631078
186	0xbe09e331	-0.13465573
187	0x3e884118	0.26612163
188	0xbd1edcb4	-0.038784698
189	0x3c0a49e5	0.008440469
190	0x3dafa9a7	0.085772805
191	0x3e21941c	0.15779155
192	0xbe3c3498	-0.18379438
193	0xbe059a09	-0.13047041
194	0x3d8b013b	0.06787344
195	0x3eef5ad1	0.46748975
196	0xbd8ae585	-0.067820586
197	0x3e06b534	0.13155061
198	0xbda095df	-0.07841086
199	0x3c9e3f68	0.019317344
200	0x3dbb29c8	0.091388285
201	0x3e038d33	0.12846832
202	0xbdf70055	-0.1206061
203	0x3e801b88	0.25021005
204	0x3d8054f3	0.06266203
205	0x3dc4aa4a	0.096027926
206	0x3ce3bdf2	0.027800534
207	0xbd70de47	-0.05880573
208	0xbd8f3f38	-0.0699448
209	0x3e527d00	0.20555496
210	0x3e68ab63	0.22721629
211	0x3e05d024	0.1306768
212	0xbded0a4b	-0.11574229
213	0xbdc1d663	-0.09464719
214	0x3e4da421	0.20082141
215	0x3c004cfa	0.007830853
216	0x3cafdcb6	0.021467548
217	0x3c761259	0.015019023
218	0x3e2e33f7	0.1701201
219	0x3e34593d	0.17612167
220	0x3dd168ca	0.10225065
221	0x3e093ab5	0.13401301
222	0xbdf4747d	-0.11936281
223	0x3d13f1af	0.03611916
224	0xbd8f130c	-0.06986055
225	0xbd2e8ae5	-0.04261293
226	0x3d9efcd2	0.077630654
227	0x3e2c0519	0.1679882
228	0x3dc4b168	0.0960415
229	0x3e08de80	0.13366127
230	0x3e401442	0.18757728
231	0xbd97b3e9	-0.07407362
232	0x3d714e90	0.058912814
233	0x3ab114fc	0.0013510282
234	0x3d0d01b6	0.03442546
235	0x3e144d65	0.14482649
236	0x3ccea2d1	0.025224121
237	0x3dd325bb	0.10309931
238	0xbc3b93a2	-0.011448773
239	0xbda24d25	-0.079248704
240	0x3df8124d	0.121128656
241	0x3e0df13c	0.13861555
242	0x3e42e693	0.1903327
243	0xbcffc3ba	-0.03122126
244	0x3cba673d	0.022754306
245	0x3bc46d60	0.005994484
246	0xbe4e918f	-0.20172714
247	0x3dce7b07	0.10082059
248	0x3dd09ccf	0.10186159
249	0x3c9347e9	0.017978625
250	0x3dca4bb7	0.09877723
251	0x3d9b53b7	0.07584327
252	0xbda6b6f2	-0.08140363
253	0xbe15cbfe	-0.14628598
254	0x3e21c8b4	0.15799218
255	0xbe4616ce	-0.19344637

encoder.net.5.bias f4 [32]
0	0xbdabe43f	-0.08393144
1	0xbd0301cc	-0.031984136
2	0xbce57a04	-0.028012283
3	0xbc614926	-0.01375035
4	0x3d587df5	0.052854497
5	0x3ce4fd54	0.027952828
6	0x3d14620c	0.036226317
7	0x3d2aa369	0.041659746
8	0xbd3fbb6d	-0.046809603
9	0xbc26ef0a	-0.010188827
10	0xbcdd79e5	-0.027035663
11	0x3da53632	0.080669776
12	0xbd20f223	-0.03929342
13	0x3d220e14	0.039564207
14	0xbcb8838f	-0.02252367
15	0x3d9a9e34	0.07549706
16	0x3d471016	0.048599325
17	0x3d6d0ae4	0.057871714
18	0xbd2f0d69	-0.0427374
19	0x3d9268c5	0.071488895
20	0x3d3601ba	0.04443524
21	0xbb667382	-0.0035164063
22	0xbddde6ae	-0.10835014
23	0x3c770025	0.015075718
24	0x3d29582b	0.04134385
25	0xbd8c3d1b	-0.068475924
26	0xbcf7e594	-0.030260839
27	0xbd1d281d	-0.038368333
28	0xbc4315de	-0.011907069
29	0x3d1dad27	0.03849521
30	0x3d21ad53	0.039471935
31	0x3d29fc13	0.041500162

predictor.net.1.weight f4 [32, 32]
0	0xbe6f5dfd	-0.23375697
1	0xbe389438	-0.18025291
2	0xbc5558da	-0.013021672
3	0xbe9ccda5	-0.30625644
4	0x3e435069	0.19073643
5	0x3e64526f	0.22297071
6	0xbc6c6a8b	-0.014429699
7	0xbb21c7bd	-0.0024685704
8	0x3bdc08ac	0.006714901
9	0xbd1b0922	-0.037850507
10	0xbde14fb7	-0.110015325
11	0x3cc74750	0.024325997
12	0xbd0fc3a6	-0.035098694
13	0xbe1ad11f	-0.15118836
14	0xbe74f734	-0.23922426
15	0xbe446c62	-0.1918197
16	0x3df4964d	0.1194273
17	0xbadd623c	-0.0016890238
18	0xbd60c51b	-0.054875474
19	0xbda8c62b	-0.082409225
20	0xbe3736cf	-0.17892002
21	0xbe865d68	-0.26243138
22	0x3d4075ad	0.046987224
23	0x3e0f5bdc	0.13999885
24	0xbd012a0b	-0.031534236
25	0xbd96bd17	-0.07360285
26	0x3e38e51a	0.18056145
27	0x3e43b62f	0.19112466
28	0xbdc6e8f5	-0.09712402
29	0xbd804b0b	-0.06264313
30	0x3db16734	0.086622626
31	0xbe292721	-0.16518833
32	0xbe43df33	-0.19128112
33	0xbdb63bc9	-0.08898122
34	0x3d991f2e	0.0747665
35	0x3eb35a64	0.350299
36	0x3d7a4d85	0.061109085
37	0x3d6b28e0	0.05741203
38	0x3e82ab36	0.2552125
39	0x3e4ae086	0.19812211
40	0x3d4cfc95	0.05004557
41	0xbc3ac50c	-0.011399519
42	0x3e3a5bd9	0.181991
43	0x3de0d233	0.10977592
44	0xbe1518e1	-0.14560272
45	0x3e6b0d65	0.22954328
46	0xbd81ecb2	-0.06343974
47	0x3e7bc130	0.24585414
48	0x3e021a13	0.12705259
49	0x3e09de46	0.13463697
50	0xbe6a1fce	-0.22863695
51	0x3e3504cb	0.1767761
52	0xbdf4e877	-0.11958402
53	0xbcc20df0	-0.023688287
54	0xbe19121d	-0.14948316
55	0x3e7bc47e	0.24586675
56	0xbe46c5cd	-0.19411393
57	0x3d9ad4ad	0.07560096
58	0x3e358850	0.1772778
59	0x3dd44e2b	0.10366472
60	0x3e526d74	0.20549566
61	0x3b0d2f9d	0.0021543272
62	0x3d8e8e4f	0.06960737
63	0x3d186db8	0.03721401
64	0x3e0cb6fa	0.13741675
65	0x3d50c033	0.050964545
66	0xbba7bf26	-0.005119222
67	0xbd829535	-0.06376115
68	0xbe955979	-0.29169825
69	0xbec53def	-0.38523814
70	0xbeb825ed	-0.35966435
71	0x3e1b62b7	0.15174375
72	0xbd9669d9	-0.073444076
73	0xbe8c165c	-0.2736081
74	0x3e0608a5	0.13089235
75	0x3d165de4	0.036710635
76	0x3d57c457	0.05267748
77	0x3dc78b8c	0.09743413
78	0xbe172abc	-0.14762396
79	0x3d2797c6	0.040916227
80	0xbd46cbc5	-0.048534174
81	0xbdc68ab6	-0.09694426
82	0x3d659873	0.05605359
83	0xbe2a9a5c	-0.16660446
84	0x3bbbbf6c	0.0057296064
85	0xbe339812	-0.17538479
86	0x3c846790	0.016162664
87	0xbe615ba2	-0.22007611
88	0x3d20297e	0.03910207
89	0x3d9e2b88	0.07723147
90	0x3def5a55	0.11687151
91	0x3e566ab9	0.20939149
92	0x3d906a24	0.07051495
93	0xbeb0e344	-0.3454839
94	0x3e80d29a	0.25160676
95	0x3b9cfc92	0.004790851
96	0xbddb870c	-0.107191175
97	0xbc60627b	-0.013695355
98	0x3d3afe17	0.045652475
99	0xbdb8d954	-0.09025827
100	0x3e5ceaed	0.21573992
101	0x3e613484	0.2199269
102	0xbd8186fa	-0.06324573
103	0xbc9a4468	-0.018831447
104	0xbe4b952e	-0.19881126
105	0xbe2181f4	-0.1577223
106	0xbe9726e6	-0.29521865
107	0x3e0e8d68	0.1392113
108	0x3ed99015	0.42492738
109	0xbe02e85c	-0.1278395
110	0xbda9faab	-0.08299764
111	0x3d3b3a8c	0.04571013
112	0x3e921ee6	0.285392
113	0xbe0b1479	-0.13582028
114	0xbd2c461d	-0.042059053
115	0x3e508991	0.20364977
116	0xbe4edce5	-0.20201452
117	0x3da26657	0.07929676
118	0xbd5a43f7	-0.053287473
119	0xbe7ae9b9	-0.2450322
120	0xbe45fbdf	-0.19334362
121	0xbd4fe7e0	-0.050758243
122	0xbe6c798a	-0.23093238
123	0x3d934903	0.0719166
124	0xbe07ce8c	-0.13262385
125	0xbd36b4f5	-0.044606168
126	0x3c5d7545	0.013516729
127	0x3d481e13	0.048856806
128	0xbe5a1a82	-0.21299174
129	0x3e68395c	0.22678131
130	0x3e5281da	0.20557347
131	0xbd858c7a	-0.065209344
132	0xbc670ac0	-0.014101684
133	0x3d0c63e9	0.03427497
134	0x3e0bedb2	0.13664892
135	0xbe89a91e	-0.2688684
136	0x3e40b0cb	0.18817441
137	0xbe66f4a3	-0.22554259
138	0x3c2b5338	0.010456853
139	0xbe47d567	-0.19515
140	0xba802e3b	-0.0009779403
141	0xbea15cd4	-0.31516135
142	0x3dcf6a76	0.10127728
143	0x3dd0c4b3	0.101937674
144	0x3e741551	0.23836257
145	0xbe802ad4	-0.25032675
146	0xbda0f732	-0.07859649
147	0x3d70be87	0.05877545
148	0x3e0a36d3	0.13497476
149	0x3b92b20b	0.004476791
150	0xbd8d75dd	-0.06907246
151	0x3def3a54	0.11681047
152	0xbe3a0c11	-0.18168665
153	0xbe3353b1	-0.17512394
154	0x3e462049	0.19348253
155	0xbdcfec6f	-0.10152518
156	0xbe47a1b5	-0.1949528
157	0x3e9a18cf	0.30097052
158	0xbd08d1c2	-0.033403166
159	0xbe95023e	-0.29103273
160	0xbe06179b	-0.13094942
161	0x3d1f4488	0.038883716
162	0x3cf9fd60	0.030516326
163	0xbd0145e4	-0.031560794
164	0xbe7bce19	-0.24590339
165	0x3d590a71	0.052988473
166	0x3ba481e1	0.0050203656
167	0xbd43c3b2	-0.04779405
168	0xbea38be7	-0.31942675
169	0x3e106df5	0.14104445
170	0xbe0c5548	-0.13704407
171	0xbd0e0408	-0.034671813
172	0xbcfb1318	-0.030648753
173	0xbd26ae14	-0.040693358
174	0xbdd43510	-0.10361683
175	0x3e4877fb	0.19577019
176	0x3cb3452a	0.021883566
177	0xbcf266a3	-0.029589957
178	0xbdd27cea	-0.10277732
179	0x3e60e744	0.21963221
180	0x3dee1025	0.11624173
181	0xbddaa55f	-0.10676073
182	0x3c4fe89c	0.012689736
183	0xbe7393ec	-0.23786896
184	0xbe91beac	-0.28465784
185	0x3e38b7fc	0.18038934
186	0xbe649728	-0.22323287
187	0x3cf0edc3	0.029410249
188	0x3d872436	0.065987036
189	0xbec163ef	-0.37771556
190	0x3e2dfde7	0.16991387
191	0xbde09e11	-0.10967649
192	0x3df88620	0.12134957
193	0x3dfb2687	0.12263208
194	0x3e80966e	0.2511477
195	0xbdae67ae	-0.08515869
196	0x3df4abeb	0.11946853
197	0xbe2b8750	-0.16750836
198	0xbd9195ba	-0.07108636
199	0xbe55cd4f	-0.208791
200	0x3d660f53	0.056166958
201	0x3e0c04f4	0.13673764
202	0x3b93f9d9	0.004515868
203	0xbea78b73	-0.3272358
204	0x3e87fd71	0.26560548
205	0x3d87750d	0.066141225
206	0x3d850d17	0.06496637
207	0x3e119799	0.14217986
208	0xbe888f2f	-0.2667174
209	0xbe391631	-0.18074872
210	0xbd7a5ed2	-0.061125584
211	0xbe0e0978	-0.138708
212	0x3d0d0060	0.034424186
213	0xbe49e308	-0.19715512
214	0x3e148064	0.14502102
215	0xbe86fbb1	-0.263639
216	0xbe658e4e	-0.22417566
217	0x3bcea66b	0.0063064597
218	0xbca2b1f5	-0.019860247
219	0xbd14aa7d	-0.036295403
220	0xbd549e45	-0.05190875
221	0x3c4ecd55	0.012622197
222	0xbe97a9b1	-0.29621652
223	0xbe0acd90	-0.13554978
224	0x3e1d86ff	0.15383528
225	0x3e76aa07	0.24088298
226	0xbdbf19f5	-0.09331123
227	0xbe0ab52f	-0.13545679
228	0xbcc6d7d8	-0.024272844
229	0xbda9626e	-0.08270727
230	0xbe10adcc	-0.14128798
231	0x3e04970f	0.1294825
232	0xbdefe231	-0.117130645
233	0xbe72601a	-0.23669472
234	0xbe59aca3	-0.21257262
235	0x3e2726da	0.16323414
236	0x3daf7459	0.085671134
237	0x3d81b54b	0.06333407
238	0x3ea34c73	0.31894264
239	0x3c63e8eb	0.013910512
240	0xbe838cc8	-0.25693345
241	0x3e083843	0.13302712
242	0x3dc71446	0.09720664
243	0x3d8b201e	0.06793235
244	0xbeb00464	-0.3437835
245	0x3ed245ad	0.41068783
246	0xbda18e32	-0.0788845
247	0xbe2186aa	-0.15774027
248	0xbdf3c111	-0.11902059
249	0x3e0b7c24	0.13621575
250	0x3e6da140	0.23206043
251	0xbdc2910f	-0.09500324
252	0x3e48d53f	0.19612597
253	0x3e5eea50	0.2176907
254	0xbeb59707	-0.35466787
255	0xbe161986	-0.14658174

predictor.net.1.bias f4 [32]
0	0x3dbc4706	0.09193234
1	0x3df1dd29	0.11809761
2	0x3de67523	0.11252811
3	0xbdc96517	-0.098337345
4	0x3de81a33	0.11333122
5	0xbdd04dd1	-0.10171092
6	0xbde9666c	-0.113964885
7	0x3df5a685	0.11994652
8	0x3dc9f4ca	0.09861143
9	0x3dcf524e	0.1012312
10	0x3dbde4c6	0.09272151
11	0xbdd13cf8	-0.10216707
12	0x3dc97c8d	0.09838209
13	0x3dc0b289	0.09409053
14	0xbdec738b	-0.115454756
15	0xbe8421e7	-0.25807115
16	0x3deb662c	0.11494097
17	0x3e2156e6	0.15755805
18	0xbdd6c265	-0.104862966
19	0xbe10fd53	-0.14159136
20	0xbdf107fc	-0.11769101
21	0xbe16076e	-0.14651272
22	0x3dac3963	0.08409383
23	0xbd8cc36d	-0.06873212
24	0x3dff41a6	0.12463693
25	0x3dd9a96b	0.10628017
26	0xbe2d1f96	-0.1690658
27	0x3dd3287f	0.103104584
28	0x3dd02c47	0.10164695
29	0x3dc9652b	0.098337494
30	0xbdc88efe	-0.097928986
31	0xbcbd6b48	-0.023122445

predictor.net.3.weight f4 [1, 32]
0	0x3e3b6419	0.18299903
1	0x3ea7ff46	0.32811946
2	0x3e8d8ca6	0.2764637
3	0xbe98ff6b	-0.29882368
4	0x3e167091	0.14691378
5	0xbeaa6672	-0.33281285
6	0xbe09dd93	-0.1346343
7	0x3d967b5d	0.073477484
8	0x3ec7a03a	0.3898943
9	0x3f247fae	0.64257324
10	0x3dc805d7	0.09766739
11	0xbec64734	-0.387262
12	0x3efa55c1	0.4889355
13	0x3e57529d	0.21027608
14	0xbdfcbbe0	-0.12340522
15	0xbdad022b	-0.08447679
16	0x3d3e9ffd	0.046539295
17	0x3defbeeb	0.117063366
18	0xbf01a634	-0.5064423
19	0xbd4febe0	-0.050762057
20	0xbeca621d	-0.3952798
21	0xbe0f3ac8	-0.13987267
22	0x3da7b7ff	0.08189391
23	0xbc23a139	-0.009987169
24	0x3e242581	0.16029932
25	0x3e474aa9	0.19462074
26	0xbd9265dd	-0.07148335
27	0x3ef37296	0.4754836
28	0x3ecec779	0.4038656
29	0x3f0a34b4	0.5398667
30	0xbddc4409	-0.10755164
31	0x3c6f911d	0.014622

net.0.weight f4 [60, 35]
0	0x3e70c17a	0.23511305
1	0x3ceb41ca	0.028717894
2	0xbda92f06	-0.08260922
3	0x3d25a12f	0.04043692
4	0xbe56e1d6	-0.20984587
5	0xbca05273	-0.019570565
6	0xbe04ed0b	-0.1298105
7	0x3e232a74	0.15934163
8	0x3bc62993	0.0060474365
9	0x3e5d8494	0.21632606
10	0x3e47c2ee	0.19507954
11	0xbbac22f4	-0.00525319
12	0xbe8e4da6	-0.27793616
13	0x3db03a6e	0.086048946
14	0xbd1c3b13	-0.038142275
15	0xbe1fcfca	-0.15606609
16	0x3d990b8b	0.07472905
17	0xbd92027c	-0.0712938
18	0xbe40c293	-0.18824224
19	0x3c0147bb	0.007890637
20	0x3dc421f9	0.09576792
21	0x3db7c635	0.08973352
22	0xbe010130	-0.12598109
23	0x3cf078c4	0.02935446
24	0xbdeae1e4	-0.114688665
25	0x3ca65ec8	0.020308867
26	0x3e12ca8f	0.14335082
27	0x3de5692b	0.112017
28	0x3d34ab4b	0.04410867
29	0x3dfb62df	0.122747175
30	0xbe1141a6	-0.14185199
31	0x3b91813b	0.0044404543
32	0xbde312ca	-0.11087568
33	0xbe19645f	-0.14979695
34	0x3df0787e	0.11741732
35	0x3d21e28d	0.039522696
36	0xbd30d241	-0.043169264
37	0xbb0c15bd	-0.0021375262
38	0xbbcb7460	-0.0062089413
39	0xbe6f1183	-0.23346524
40	0xbd999e79	-0.075009294
41	0x3d11a0cc	0.03555374
42	0x3e49ea86	0.1971837
43	0xbdaaf42e	-0.08347355
44	0xbd985421	-0.07437921
45	0xbda5f812	-0.08103956
46	0x3e38d3a7	0.18049489
47	0xbcccdea8	-0.025008515
48	0xbd556d92	-0.052106448
49	0x3dc424b1	0.09577311
50	0x3dbc4323	0.09192493
51	0x3d05e7b6	0.03269168
52	0xbd4c7df6	-0.049924813
53	0x3bc4e279	0.006008443
54	0xbd0a7f99	-0.033813093
55	0x3c9f4a5c	0.019444637
56	0xbafbf215	-0.0019221926
57	0x3aafb386	0.0013404943
58	0xbdf65577	-0.1202802
59	0x3ddd3c83	0.10802557
60	0x3c4c3d1b	0.012465741
61	0xbc73b45e	-0.014874546
62	0xbc159357	-0.009129367
63	0xbd2ec80b	-0.042671245
64	0xbd484c71	-0.048901025
65	0xbe3689ac	-0.17825955
66	0x3da2bbf2	0.07946004
67	0x3d3db5a0	0.04631579
68	0x3e72119c	0.2363953
69	0xbd174219	-0.03692827
70	0x3e6887a5	0.22707994
71	0xbd99c899	-0.07508964
72	0x3de9b6ca	0.11411817
73	0xbe60fbd5	-0.21971066
74	0xbdbff076	-0.09372036
75	0x3d48558b	0.048909705
76	0xbe10f90d	-0.14157505
77	0xbe51b05d	-0.20477434
78	0x3e0a3030	0.13494945
79	0x3e3dcf63	0.18536143
80	0x3cc530f4	0.024071194
81	0x3bc62c53	0.0060477643
82	0xbdba60c4	-0.09100488
83	0x3db56438	0.08857006
84	0xbe6480ee	-0.22314808
85	0x3e734f4f	0.23760723
86	0x3be1c2bb	0.0068896688
87	0xbd808042	-0.06274463
88	0x3d047c4e	0.03234511
89	0x3d3250b2	0.04353399
90	0xbb7a02a9	-0.0038148558
91	0xbd794d02	-0.060864456
92	0xbe7b1376	-0.24519143
93	0xbce4f243	-0.02794755
94	0x3d335ecf	0.04379159
95	0x3d3ee71d	0.046607126
96	0x3dffb25b	0.124851905
97	0xbdfedf0d	-0.12444887
98	0x3d21beea	0.03948871
99	0x3e750dc6	0.23931035
100	0xbe8d4e2a	-0.27598697
101	0xbdd465eb	-0.10371002
102	0x3e00eeab	0.12591045
103	0xbd061590	-0.032735407
104	0xbda3a605	-0.0799065
105	0xbd19922d	-0.03749292
106	0x3c23598b	0.009970079
107	0xbd8ffbec	-0.07030472
108	0x3bd35c3b	0.0064502037
109	0x3e29b4e5	0.16572912
110	0xbe4026c3	-0.18764786
111	0xbdac4bd2	-0.08412899
112	0xbe81480e	-0.25250286
113	0xbcae9fe8	-0.021316484
114	0xbe39b334	-0.18134767
115	0x3dc9e49d	0.09858058
116	0x3dc0fa6c	0.09422764
117	0x3e158bcb	0.14604108
118	0x3df9e605	0.12202076
119	0xbdb52076	-0.08844082
120	0x3dde4c23	0.10854366
121	0xbd9ff329	-0.07810051
122	0x3c99e722	0.01878697
123	0x3d5ccf99	0.053908918
124	0xba5000c1	-0.00079346827
125	0xbcc32295	-0.023820201
126	0x3dccc0f7	0.099977426
127	0x3c76c265	0.015060996
128	0x3dde95ba	0.10868402
129	0xbe112efa	-0.14178076
130	0xbe57c3fe	-0.21070859
131	0x3c7f6a11	0.015589253
132	0x3dcddd94	0.10052028
133	0xbd37f94e	-0.04491549
134	0xbe833b7b	-0.25631317
135	0x3e727b71	0.23679902
136	0xbd210dc0	-0.039319754
137	0x3da89127	0.082308106
138	0xbe488a57	-0.19584022
139	0xbd95769d	-0.07298014
140	0xbd6e9e6d	-0.058256555
141	0xbdfa9449	-0.122353144
142	0x3e1b6ed5	0.15178998
143	0xbe44fe54	-0.19237643
144	0x3db04863	0.08607557
145	0xbd8bf955	-0.06834666
146	0xbd101df4	-0.035184816
147	0x3cbadd06	0.02281047
148	0xbe66c0ee	-0.22534534
149	0x3d3fc066	0.046814345
150	0xbc9423d3	-0.018083489
151	0x3e0178f6	0.12643799
152	0xbeb186c2	-0.34673125
153	0x3d5b08b5	0.0534751
154	0x3be9cbff	0.007134914
155	0x3e1798bb	0.14804356
156	0xbd185d51	-0.03719837
157	0xbe3e9e17	-0.18614994
158	0x3dbae484	0.09125617
159	0xbe615c1b	-0.22007792
160	0x3d5224ce	0.05130463
161	0xbe2ca57c	-0.16860002
162	0x3d516e25	0.051130433
163	0xbe43f8ab	-0.19137828
164	0x3c95164e	0.018199112
165	0x3dee820b	0.116458975
166	0x3d5e8049	0.05432156
167	0xbdcb4b45	-0.09926466
168	0x3e776972	0.24161318
169	0x3cf8ec9c	0.030386262
170	0xbe5e1767	-0.21688615
171	0x3e6e0da0	0.23247385
172	0xbdf56438	-0.11982006
173	0x3e00f58b	0.12593667
174	0x3e14812e	0.14502403
175	0xbecfa8ea	-0.4055856
176	0x3da5663f	0.080761425
177	0x3cb30900	0.021854877
178	0xbe16c0f0	-0.14722037
179	0x3e0a8655	0.13527806
180	0xbc233c3f	-0.009963094
181	0x3ddd77d2	0.108138695
182	0x3cd3d2d8	0.025857374
183	0xbc9289a1	-0.017887892
184	0xbdcdd5e3	-0.10050561
185	0xbcb96209	-0.022629755
186	0x3dfa98e6	0.12236194
187	0xbc988cf3	-0.018621897
188	0xbdf40a16	-0.11915986
189	0xbe004acd	-0.12528534
190	0x3e2dddaf	0.16979097
191	0xbe9d9eb7	-0.30785152
192	0x3e0002cd	0.12501068
193	0xbc418d6e	-0.011813505
194	0x3d02b0b5	0.031906802
195	0x3d834e0d	0.064113714
196	0xbd8cfef4	-0.06884566
197	0x3e206935	0.15665133
198	0xbdd3251f	-0.10309815
199	0x3de04dd1	0.10952342
200	0x3e4cb7e4	0.19992024
201	0xbe6d8b8f	-0.23197769
202	0xbe66b046	-0.2252818
203	0x3d81f5f9	0.06345744
204	0xbc468699	-0.0121170515
205	0xbcaa5216	-0.020791095
206	0xbbe4d308	-0.0069831647
207	0x3e0e97d8	0.13925111
208	0xbd998817	-0.0749666
209	0xbc110fb4	-0.008853842
210	0x3c17cec1	0.009265603
211	0xbcd5d802	-0.026103977
212	0x3c90cd19	0.017675923
213	0xbd862c21	-0.06551386
214	0xbddce1e3	-0.10785272
215	0xbdea47c7	-0.11439472
216	0xbd210349	-0.039309774
217	0x3e113be1	0.14182998
218	0x3d89107c	0.06692597
219	0xbe9248b1	-0.28571084
220	0xbca91592	-0.020640168
221	0x3e83360d	0.25627175
222	0x3df6c38c	0.12049016
223	0xbe5393b0	-0.20661807
224	0xbe2cbe06	-0.16869363
225	0x3dba8e21	0.0910914
226	0xbd799ce5	-0.060940642
227	0x3e65a9b6	0.22428021
228	0x3dd40d03	0.10354044
229	0xbe0ef738	-0.13961494
230	0x3e69a952	0.22818497
231	0x3e0ee667	0.13955079
232	0x3e5fb1a1	0.21845104
233	0x3ee04b80	0.43807602
234	0x3e3b7c8c	0.1830923
235	0x3d854019	0.06506366
236	0x3c9c7dfd	0.019103045
237	0xbdfa5e1c	-0.12224981
238	0x3d47787a	0.04869888
239	0x3e11bce6	0.14232215
240	0x3d76c5b1	0.060247127
241	0xbe0bd2a9	-0.13654579
242	0xbe0f89a2	-0.14017347
243	0xbdd16708	-0.1022473
244	0xbe612a89	-0.21988882
245	0x3e257e59	0.16161479
246	0xbe4f3923	-0.2023664
247	0x3d037ad2	0.032099552
248	0x3e6c1b8e	0.23057386
249	0xbdad05fc	-0.08448407
250	0xbdff3ea9	-0.12463123
251	0x3ba96172	0.005169087
252	0xbe2397e6	-0.15975913
253	0x3e030cd8	0.12797868
254	0xbdfb5edd	-0.12273953
255	0x3d112dd3	0.035444092

net.0.bias f4 [60]
0	0x3e07de90	0.13268495
1	0x3e4e3604	0.20137793
2	0xbca1e7b1	-0.0197638
3	0x3d1e543e	0.03865456
4	0x3cfeb30a	0.031091232
5	0x3e1b6d0e	0.1517832
6	0x3d575cc3	0.0525787
7	0x3d4d56b4	0.050131515
8	0xbd8fc2ea	-0.07019599
9	0xbdd24ce2	-0.102685705
10	0xbdd778f9	-0.105211206
11	0x3d04f0fe	0.03245639
12	0xbd66109f	-0.056168195
13	0xbd9bb094	-0.07602039
14	0xbe0043f8	-0.12525928
15	0x3e08b591	0.13350512
16	0x3e3eb07e	0.18622014
17	0xbdac1df3	-0.0840415
18	0x3d368165	0.044556994
19	0xbe037aa0	-0.12839746
20	0x3d06c6e2	0.032904513
21	0x3d465a71	0.048426095
22	0xbe0158a3	-0.12631468
23	0xbd7658b7	-0.0601432
24	0x3d546b91	0.051860396
25	0x3e03bc8a	0.1286489
26	0xbdb28368	-0.0871647
27	0xbe200f46	-0.15630826
28	0xbe0a6cdf	-0.13518094
29	0x3dea3638	0.11436123
30	0xbdba322f	-0.09091603
31	0x3df27314	0.11838356
32	0x3e169d1f	0.14708374
33	0xbbebb91c	-0.0071936976
34	0xbdc63443	-0.09677937
35	0x3d06cd2f	0.032910522
36	0x3e01e3a2	0.12684491
37	0x3cbee0ca	0.023300547
38	0xbcd61513	-0.026133096
39	0x3de16b9d	0.11006854
40	0x3dff9c67	0.12481003
41	0x3e0f17ab	0.13973872
42	0x3da307f5	0.07960502
43	0xbda76c4c	-0.08174953
44	0x3cc3dab9	0.023908006
45	0x3c3de64d	0.0115905525
46	0x3d833a6b	0.06407627
47	0xbd8a00ce	-0.06738435
48	0xbe0e1592	-0.13875416
49	0xbb997a8c	-0.004683798
50	0x3d8c215d	0.06842301
51	0xbda1fa46	-0.07909064
52	0x3dc71983	0.09721663
53	0xbccb04d7	-0.024782581
54	0xbe065bea	-0.13121
55	0x3c9b3552	0.018946324
56	0xbdf11a3a	-0.117725804
57	0xbd1d33ef	-0.038379606
58	0xbdc4435d	-0.09583161
59	0xbd313560	-0.043263793

net.2.weight f4 [60, 60]
0	0xbd20be4e	-0.03924399
1	0x3d293897	0.041313734
2	0x3d2fe6ae	0.042944603
3	0x3cc6c31a	0.024262954
4	0xbe010ea2	-0.12603238
5	0xbe41af78	-0.18914592
6	0x3d7e7212	0.062120505
7	0xbdc01d70	-0.09380615
8	0xbdd2de83	-0.10296347
9	0xbb7860d9	-0.0037899523
10	0xbdac1cdc	-0.08403942
11	0x3da339e1	0.07970024
12	0xbd8a933b	-0.06766363
13	0xbdc3db15	-0.09563271
14	0x3e0694f4	0.13142759
15	0x3e76e770	0.24111724
16	0xbcda6039	-0.02665721
17	0x3dc3bde9	0.09557707
18	0xba7eb275	-0.0009715923
19	0xbe2039c6	-0.15647039
20	0xbc929f38	-0.017898187
21	0xbcae97f5	-0.021312693
22	0x3e10c435	0.14137347
23	0xbbd9da5a	-0.006648344
24	0x3d55f529	0.052235756
25	0xbd14d160	-0.036332488
26	0xbdc8c0ff	-0.09802436
27	0x3d954008	0.072876036
28	0xbc4bbdb7	-0.012435368
29	0xbcd0767b	-0.02544712
30	0x3d248d66	0.04017391
31	0xbd336cde	-0.043804996
32	0x3ea3f058	0.32019305
33	0xbd8c7ff0	-0.0686034
34	0xbe31e7ab	-0.1737353
35	0xbdd0548a	-0.101723745
36	0x3e1e10c8	0.15436089
37	0xbd898193	-0.067141674
38	0xbddf95ab	-0.10917219
39	0xbdc8e9d9	-0.09810228
40	0x3d657b99	0.056026075
41	0x3e79fb81	0.24412347
42	0x3d6d8682	0.057989605
43	0x3cbc8404	0.023012169
44	0x3e736cf2	0.23772028
45	0x3d0da540	0.034581423
46	0x3da35520	0.07975221
47	0x3de86bca	0.11348684
48	0x3de7a697	0.11311071
49	0xbe545e60	-0.20739126
50	0x3d0bcbef	0.034130033
51	0x3ca80482	0.020509962
52	0xbc8f2010	-0.017471343
53	0x3e1b2b84	0.15153319
54	0x3e78beea	0.24291578
55	0xbe0ab127	-0.13544141
56	0x3d9d6674	0.07685557
57	0x3c422e47	0.011851854
58	0x3e094b4a	0.13407627
59	0xbb0dcd84	-0.002163739
60	0xbd43605b	-0.047699314
61	0xbdfe8ef3	-0.12429609
62	0xbdad3eb3	-0.084592246
63	0x3c956d0a	0.01824047
64	0x3dd72d92	0.10506739
65	0xbc05cd41	-0.008166612
66	0xbd3a0afa	-0.045420624
67	0xbe01e8cf	-0.12686466
68	0xbd99e479	-0.07514281
69	0x3d8c5bef	0.068534724
70	0x3c5e4ad0	0.013567641
71	0xbd8b5b51	-0.068045266
72	0xbd8cd764	-0.0687702
73	0x3d6b54e9	0.057454024
74	0xbe51a151	-0.20471694
75	0xbe7c3d01	-0.24632646
76	0xbdf605b9	-0.1201281
77	0xbe25489c	-0.1614098
78	0x3d1f806b	0.03894083
79	0xbd7d2c92	-0.061810084
80	0xbd2c81b1	-0.04211587
81	0xbdf49397	-0.11942213
82	0xbe8f34bc	-0.2796992
83	0xbe5a84d8	-0.21339738
84	0x3dcf7b89	0.10130984
85	0xbda14a0c	-0.078754514
86	0xbe105ba0	-0.14097452
87	0xbc8a5c8a	-0.01688983
88	0xbd8e98e4	-0.06962755
89	0x3e1ab0fe	0.1510658
90	0xbd48908a	-0.04896597
91	0xbda26cfb	-0.079309426
92	0xbe0e2251	-0.13880278
93	0xbd2a7265	-0.041613
94	0x3da3f705	0.080060996
95	0xbd82eba3	-0.063926004
96	0xbe5d511c	-0.21612972
97	0x3d78c8cc	0.06073837
98	0x3c2ba568	0.010476448
99	0x3dae5d84	0.085139304
100	0xbc8a9014	-0.016914405
101	0x3cf4865e	0.029849228
102	0xbe1793ba	-0.14802447
103	0x3cedfb12	0.029050384
104	0x3e27e972	0.16397646
105	0x3d9814ad	0.074258186
106	0xbcdc69da	-0.026905943
107	0x3d0a82da	0.033816196
108	0x3d46583b	0.048423987
109	0x3e4dfc93	0.2011588
110	0xbe3a814d	-0.18213387
111	0x3e04c8d1	0.1296723
112	0x39350e19	0.00017266757
113	0xbd0b8e85	-0.034071464
114	0xbdf7fefe	-0.12109183
115	0xbe393822	-0.18087819
116	0x3e162283	0.14661603
117	0xbdd888ab	-0.10572942
118	0xbe12bf27	-0.14330731
119	0x3d4fb316	0.0507079
120	0xbe749b03	-0.23887257
121	0xbdd05a2d	-0.1017345
122	0xbd171df6	-0.036893807
123	0xbd9bba8b	-0.076039396
124	0x3d5b7633	0.05357952
125	0xbe5f348f	-0.21797393
126	0x3e0cca55	0.13749059
127	0x3e6e8514	0.23292953
128	0xbe132120	-0.14368105
129	0xbd04704c	-0.032333657
130	0xbca4de68	-0.020125583
131	0x3dfb49ae	0.12269913
132	0x3c2ef0dd	0.0106775435
133	0xbdca414b	-0.09875735
134	0x3db848fc	0.08998296
135	0x3de7d1d7	0.11319321
136	0x3cc53138	0.02407132
137	0xbdac0678	-0.08399671
138	0x3d44fab0	0.048090637
139	0x3d880e43	0.06643345
140	0xbc998291	-0.018739017
141	0x3deb65bc	0.11494014
142	0xbc423410	-0.011853233
143	0x3d44db02	0.048060425
144	0x3e2c1099	0.16803207
145	0x3e8500e6	0.25977248
146	0xbdc17fa9	-0.09448177
147	0x3d9b4b30	0.075827
148	0xbbfff80e	-0.007811553
149	0x3d7948d7	0.06086048
150	0x3dd76762	0.105177656
151	0x3d509b17	0.050929155
152	0xbe6054a0	-0.21907282
153	0x3d38b4df	0.045094367
154	0x3db713ea	0.08939345
155	0x3e1bc0dd	0.1521029
156	0xbe31fbc5	-0.17381199
157	0xbe769d82	-0.24083522
158	0xbdefc5b4	-0.11707631
159	0xbe0c4d40	-0.13701344
160	0xbd9cb226	-0.076511666
161	0xbe31001e	-0.17285201
162	0xbc4686b7	-0.012117079
163	0xba8966c0	-0.0010482892
164	0x3dccdf45	0.10003523
165	0x3dc9058a	0.098155096
166	0xbcb48b9e	-0.02203923
167	0xbd8baad4	-0.06819692
168	0x3d56991b	0.052392107
169	0x3e338283	0.17530255
170	0xbd815553	-0.063151024
171	0x3de96e17	0.11397951
172	0x3d6c185c	0.05764042
173	0xbcd37eb3	-0.02581725
174	0xbde95f56	-0.11395137
175	0xbdaa5e7f	-0.08318805
176	0xbe242eda	-0.16033497
177	0x3db1d8a7	0.08683901
178	0xbe1cca09	-0.15311445
179	0xbdb2e8b0	-0.08735788
180	0xbdb19679	-0.086712785
181	0xbc993658	-0.018702671
182	0xbc01c81b	-0.007921244
183	0x3d1f2d53	0.038861584
184	0xbd07348c	-0.033009097
185	0x3d4144b0	0.047184646
186	0xbe94d5f2	-0.29069477
187	0x3c980719	0.018558072
188	0x3b634eef	0.00346845
189	0xbd1e8eff	-0.03871059
190	0xbd23123f	-0.039812323
191	0xbc9d4c1e	-0.019201335
192	0xbe0af474	-0.13569814
193	0xbd050d5e	-0.03248345
194	0xbdd3a39b	-0.1033394
195	0x3e4f51b4	0.20246011
196	0xbd91111d	-0.07083342
197	0x3d25196b	0.040307444
198	0xbe034cef	-0.12822317
199	0x3dfedf67	0.12444954
200	0xbd39dccd	-0.045376588
201	0x3dc231c4	0.09482148
202	0xbe3f78a3	-0.18698363
203	0x3e2c6f32	0.16839293
204	0x3e164b90	0.14677262
205	0xbdb0ee71	-0.08639229
206	0xbe137b64	-0.14402539
207	0x3d8045e8	0.062633336
208	0xbd152620	-0.036413312
209	0x3e28c1cb	0.16480176
210	0xbd80c2c4	-0.062871486
211	0xbe344bca	-0.17607036
212	0xbd38ba92	-0.045099802
213	0x3d21c015	0.039489824
214	0xbe674909	-0.22586454
215	0x3e00db2b	0.12583606
216	0xbd625b0f	-0.05526262
217	0xbdf3c44d	-0.11902676
218	0xbe09b70a	-0.1344873
219	0xbe80d57a	-0.2516287
220	0xbd94305a	-0.07235785
221	0x3d47663f	0.048681494
222	0xbe0559c1	-0.1302252
223	0x3dcec640	0.10096407
224	0x3e8f3b4b	0.27974924
225	0x3dbea07c	0.09307954
226	0x3bc5d0f1	0.0060368706
227	0xbd10d524	-0.035359517
228	0xbd6a248b	-0.057163756
229	0x3ce8de89	0.028426426
230	0xbe10186a	-0.14071813
231	0x3cc73ceb	0.02432104
232	0xbd324fb6	-0.04353305
233	0x3e397251	0.18110014
234	0x3cb0770f	0.021541147
235	0x3e215457	0.1575483
236	0x3cf10921	0.029423298
237	0x3d9df1e6	0.07712154
238	0xbdd31fa9	-0.10308773
239	0xbd8fa6bf	-0.07014226
240	0xbd27f4e3	-0.041005027
241	0x3e25c73c	0.16189283
242	0xbd62a602	-0.0553341
243	0x3d0f3cda	0.034970142
244	0xbcd34627	-0.025790287
245	0x3df283ae	0.11841522
246	0x3dc6014e	0.096682176
247	0x3e0be8f4	0.13663083
248	0xbde16686	-0.11005883
249	0xbdfc388e	-0.123154745
250	0xbd9efa2c	-0.0776256
251	0xbe2f0976	-0.17093453
252	0xbce0f385	-0.02745987
253	0xbde01a88	-0.109425604
254	0xbcf87daf	-0.030333368
255	0x3caa0b20	0.020757258

net.2.bias f4 [60]
0	0xbca24b8d	-0.019811416
1	0x3d33547a	0.043781735
2	0x3cb75f73	0.02238438
3	0x3da9c58e	0.08289634
4	0xbd015435	-0.031574447
5	0x3ddccc7d	0.107811905
6	0xbc93a3b8	-0.018022403
7	0x3d2384b6	0.039921485
8	0xbdd03ec4	-0.101682216
9	0x3becd313	0.0072273104
10	0x3ce7384a	0.028225083
11	0xbd91ecfe	-0.07125281
12	0x3d2672cb	0.04063682
13	0xbda059a8	-0.078296006
14	0xbdb97162	-0.09054829
15	0xbdcd5b2b	-0.100271545
16	0x3cff8cd1	0.031195076
17	0x3d6aef71	0.057357255
18	0x3c0f0a61	0.008730502
19	0x3d3d4c32	0.046215244
20	0x3d404e68	0.046949774
21	0x3d422ffe	0.04740905
22	0xbd2a88c6	-0.041634344
23	0xbd63f862	-0.0556568
24	0x3d97be64	0.07409361
25	0x3d8609a2	0.06544806
26	0x3d5c76ff	0.05382442
27	0xbdf8b52e	-0.12143932
28	0xbd86c9bc	-0.065814465
29	0xbdd1a689	-0.10236842
30	0x3db4e42b	0.08832582
31	0x3ca93fb5	0.02066026
32	0x3c6c0307	0.014405019
33	0x3d7fb813	0.062431406
34	0xbd903956	-0.07042186
35	0xbdebab40	-0.11507273
36	0x3e075d5d	0.13219209
37	0xbd56f13f	-0.052476164
38	0xbb8ef09a	-0.004362178
39	0xbd527740	-0.051383257
40	0x3d63e784	0.055640712
41	0xbd34fee3	-0.04418839
42	0xbdc1ec47	-0.094688945
43	0x3d31a11b	0.043366533
44	0xbda6b463	-0.08139875
45	0x3d93c5a6	0.07215433
46	0x3c1ea79c	0.009683516
47	0x3d29bd90	0.041440547
48	0x3da195ea	0.07889922
49	0x3dbf4f32	0.09341277
50	0xbc7b5150	-0.015339211
51	0xbd3fc950	-0.046822846
52	0xbd316199	-0.043305967
53	0x3e0ca6d9	0.13735522
54	0x3d0c310a	0.034226455
55	0xbd0acf36	-0.033889018
56	0xbde2dace	-0.1107689
57	0xbdc6f9fd	-0.0971565
58	0x3d89e394	0.0673286
59	0xbd12e34c	-0.0358613
