pretrained model/model_XJTU_4.pth (torch, 60271 bytes, 14 tensors)

encoder.net.0.weight f4 [60, 17]
00000000: ebe2 543d d9f7 90bd 62d0 c0bb bb1b 4f3e
00000010: ccfc 683d 9145 91be 98d0 39bd ec27 123e
00000020: e51e 00be 6b0a 40be 71bb 773c d754 2a3e
00000030: 740a 6c3e 3242 103e 7640 533c bc01 25be
00000040: f040 9d3d 72b4 9fbe 0c55 3fbd 0a99 abbd
00000050: 9de1 f4bd d577 c8ba 803f e33d 2c49 9b3d
00000060: c958 e43d cb97 95be a675 ab3e aca2 133c
00000070: 201e 373c a752 14be 1f66 5d3d 2305 38bc
00000080: 9f26 afbd 6c69 4a3e 2e4e 8d3d 296b e1bd
00000090: 4f57 443e e073 52bd 8378 783d 584d 91be
000000a0: e6c5 06be f1a3 efbd 1fdb 6d3c 34f8 37bd
000000b0: a2b1 5c3d cb4d 333d 5d0a 5e3e 0e53 dfbd
000000c0: 91a5 c53d ba61 cb3d d504 84be df10 fabd
000000d0: 13ff 503d 70dc 7b3d b7b4 cd3c f5b4 473e
000000e0: 15d9 94bd a3f1 2cbe 7ee4 703d 9ea6 d5bd
000000f0: 2332 093c 3b4c 743e 111e 74bd 1567 523e
00000100: ad1c 1dbe 5097 913c 663d 093e 49a2 50be
00000110: cd2e 6e3e 4e56 273e 8baa 7a3d 942b 143e
00000120: 16cd 1c3e 3ee3 233e 0907 3bbe 8c52 e4bd
00000130: 0235 033e 63a4 cf3c e838 2f3e b45c 24be
00000140: 1201 4abe 2d02 213e a5e9 9abd 778e 533d
00000150: b331 c3bd 8489 aa3d 48e8 6fbd 234b 4bbe
00000160: 99f9 d2bd 7805 18be 271d 673e 5f51 363e
00000170: dc1b 013e f9bb 00be 4465 0a3b 309e 40bd
00000180: 1b2e 1bbe 981c f3bd 2abf 2ebe 07c5 b33d
00000190: ab08 183e 657e 013e 0bf5 f03c 3fc0 7fbd
000001a0: 07a3 8cbd 8b74 863d 5f44 91bd 381c 973c
000001b0: b4c2 563e 9f77 603e 53ff 3abe 4882 53be
000001c0: c703 2abe 5e21 4b3e 8aa6 86bd ec62 0e3c
000001d0: cc3d 9b3e 8938 10bc 90b1 17bc 1feb a03d
000001e0: ebc6 8f3e 37aa 0c3e 6162 6c3c 8f3d c13d
000001f0: 4499 103e 2689 82bd 47ba 033e 2631 adbd
00000200: e219 873d 324c dc3d 5f79 3bbe fb71 08be
00000210: afcb ec3d 023b b33d 5123 93be 0497 113e
00000220: 3d57 93bd efa2 263e 449f 7e3e f7ae 183e
00000230: efd3 be3d 5a9a 47be 9e4f a9bd 283e 6bbe
00000240: 34aa b7be 1d65 5d3e e171 abbd bbcb 88be
00000250: 0f9c afbc f51f 993e 02b0 8dbe 49d1 a1be
00000260: 3ab7 22be 4299 1c3e 9d3e f3bd d3bf aebe
00000270: fe72 6abd 1b34 d2bd bef5 aebb dcc0 d63c
00000280: fa67 0ebe 220f a3be ccd1 5d3e 26af 1f3e
00000290: 80e8 43bb 4927 5abd e756 7e3d e187 e7bd
000002a0: fe1e 5bbd 0a6d 023e 60df 31be f0a7 debd
000002b0: f8b8 be3e 743a a4bd 21f3 c4bd f0fe 58be
000002c0: ede3 1e3d b5e8 c9bd a797 95bc 4409 823e
000002d0: 05b8 033e e8f2 aabd 36e5 20be f4c5 323d
000002e0: b06b f6bd d51b 933e b551 e03d d134 823d
000002f0: abfd ea3c e152 32be d397 01be 3f01 cabd
00000300: 2070 873d 09b4 a1bd 584c 02be 21ed 283e
00000310: fa57 bb3d 4d1c 63be eda9 bd3c 21d4 723d
00000320: c1c7 fc3c 865f 26be 1fdf 3d3d 468b 8c3d
00000330: 2ee2 42bd bfa4 83bd 5dfe 1ebd 0b16 133d
00000340: acfe 80bd b6dd c9bd 35f9 953d 5f61 3d3c
00000350: 32f6 fa3d 5dd4 3dbe b0c5 703e 5672 9f3d
00000360: 9d1e 923e a475 e93d ef9f 86be 37f3 d13d
00000370: 9409 343a 604f cb3c f815 01bd 1a90 82be
00000380: 8a50 ac3d dd42 57be 2832 383e c5ef 35bc
00000390: bcd5 5abd d347 81bd ae21 cebb 54ce 22be
000003a0: b073 393d 23fc b1be b5e4 94bd 3083 6a3d
000003b0: 552b f93d f969 5c3e 75f9 9abe 394a 1d3d
000003c0: 2751 55bd 4e3b abbd 4515 d53b 96c8 eabc
000003d0: cb77 543e 87fc eabd 09e8 72bd fde5 8ebd
000003e0: 1016 05bd 9c81 d6bd 9ea3 ba3d 141e 9d3e
000003f0: a543 7b3d e3e8 0e3c e94d 02be 681a a5bd
0.05197422 -0.07078523 -0.005884216 0.20225422 0.05688171 -0.28373387 -0.045364946 0.14273041
-0.12511785 -0.18753974 0.015120373 0.16633926 0.23050863 0.14087752 0.012893787 -0.16113943
0.076784015 -0.31192356 -0.046711966 -0.08378799 -0.11957095 -0.0015294502 0.11096096 0.07582316
0.11149747 -0.2921737 0.33488196 0.009010952 0.011176616 -0.14484654 0.05405247 -0.011231693
-0.08552288 0.19766778 0.06899677 -0.11006767 0.1917393 -0.05138004 0.060661804 -0.2837932
-0.1316143 -0.11701191 0.014517575 -0.04491444 0.05388034 0.04377536 0.21683641 -0.10904513
0.0965072 0.09930749 -0.25784937 -0.12210249 0.051024508 0.061489522 0.025110586 0.19502623
-0.072679676 -0.16889052 0.058811657 -0.1043217 0.00837377 0.23857205 -0.059598986 0.20547135
-0.1534297 0.017772347 0.13402328 -0.20374407 0.2326004 0.16341516 0.0611978 0.14469749
0.15312609 0.16004655 -0.18264402 -0.11148557 0.1281319 0.02534694 0.17111552 -0.16050988
-0.19726971 0.15723486 -0.075640954 0.051649537 -0.09530964 0.0832701 -0.05857113 -0.19852881
-0.10301513 -0.14845836 0.22569714 0.17804478 0.12608284 -0.12571706 0.0021117488 -0.04702586
-0.15154307 -0.11870688 -0.17065111 0.08777814 0.14847057 0.12645872 0.02941372 -0.0624392
-0.068670325 0.065651976 -0.07093119 0.018446073 0.20972711 0.21920632 -0.18261461 -0.20655167
-0.16603003 0.19836947 -0.065747336 0.008690577 0.30320585 -0.0088025415 -0.009258643 0.07857346
0.2808145 0.13736807 0.014427752 0.094355695 0.14120966 -0.06373815 0.12864028 -0.0845664
0.06596734 0.107567206 -0.18308018 -0.1332473 0.11562287 0.08751489 -0.28737882 0.14217764
-0.07194374 0.16273092 0.24865443 0.14910494 0.09317767 -0.19492474 -0.08267139 -0.2297293
-0.35872042 0.21620603 -0.0837133 -0.26717934 -0.02143672 0.29907194 -0.27673346 -0.31604984
-0.15890208 0.15292838 -0.11877177 -0.34130725 -0.05723857 -0.102638446 -0.0053393533 0.02621501
-0.13906851 -0.31847483 0.21662062 0.15594158 -0.002989322 -0.05326012 0.062094595 -0.11305214
-0.053496353 0.12736908 -0.17370367 -0.10871875 0.37250495 -0.080189615 -0.09616686 -0.21191001
0.038791586 -0.098588385 -0.01826079 0.25397694 0.12863167 -0.08347112 -0.15712437 0.043645814
-0.120322585 0.28732172 0.109530844 0.0635773 0.028685411 -0.17414428 -0.12655573 -0.09863519
0.06613183 -0.07895667 -0.12724435 0.16496707 0.091476396 -0.22178765 0.023152316 0.059284333
0.030856969 -0.16247377 0.046355363 0.06862502 -0.047578983 -0.06427907 -0.0388168 0.035909694
-0.06298575 -0.09856741 0.07322923 0.01155886 0.12253989 -0.18538041 0.23512912 0.0778548
0.2853898 0.11399391 -0.26293895 0.10251468 0.00068678823 0.024818122 -0.03151509 -0.25500566
0.08413799 -0.210216 0.17987883 -0.011104529 -0.05342649 -0.063125275 -0.006290636 -0.1589902
0.045276344 -0.34762678 -0.07270185 0.057254016 0.12166468 0.215248 -0.30268446 0.038400862
-0.052079346 -0.08360921 0.0065027797 -0.0286601 0.20748822 -0.11473947 -0.059303317 -0.069774605
-0.032491744 -0.1047394 0.09113239 0.3068701 0.061343808 0.008722517 -0.12725033 -0.08061677

encoder.net.0.bias f4 [60]
00000000: 4b22 3c3c 6599 38bd 6e48 32bd 200d 243d
00000010: f71e 5dbd 3c79 5cbd f1b0 97bd 2fbb 933c
00000020: 68a4 903c 49b8 313d 5638 98bc e47f b6bc
00000030: a8fa 17bd 725c 0bbd de10 c0bd d238 9ebc
00000040: 2822 b8bd 60b8 9bbb de95 093d c65a 623d
00000050: ba8c 0bbd 71a1 c8bc b9a9 adbc 2d75 073d
00000060: 3951 b13c c68b 5b3c 8b2d e1bc de86 9fbd
00000070: 586a 30bd 087d a7bd d555 6b3c e63b e23c
00000080: 3e75 873d 3eeb 59bc a2dd 5d3d b584 b23d
00000090: a6b0 1abd a1d1 59bd 3f56 e2bd 5c9a a1ba
000000a0: 4f45 0dbc a0f8 e5bc 2569 f4bb be56 b9bc
000000b0: 5098 c83d e424 f83c 6ba5 5dbd 3b92 1a3d
000000c0: a762 f6bb 1ede 103c 1cda 053d 3ed4 4fbc
000000d0: c547 0dbd 73c6 5bbc 8ad8 2c3d 84a2 93bc
000000e0: af30 8abd df47 503b fb02 62bd e4c4 b1bc
0.011482785 -0.045068163 -0.043526106 0.04005158 -0.05398461 -0.053826556 -0.07406796 0.018033592
0.01765652 0.04338864 -0.01858155 -0.02227778 -0.03710428 -0.03402371 -0.09378217 -0.019314203
-0.0899089 -0.004752204 0.03359019 0.05526235 -0.034069754 -0.024491044 -0.021199094 0.033070732
0.021645175 0.013400024 -0.027487537 -0.07789396 -0.043070167 -0.08178145 0.014363726 0.027616452
0.06614159 -0.013300715 0.054166444 0.08716718 -0.03776612 -0.053178433 -0.110516064 -0.0012329328
-0.0086224815 -0.028072655 -0.0074588233 -0.02262437 0.09794676 0.030291028 -0.054112833 0.037737112
-0.0075190845 0.008842019 0.03267871 -0.01268488 -0.034492273 -0.013414013 0.042198695 -0.01802183
-0.06747567 0.003178112 -0.055178624 -0.02170033

encoder.net.2.weight f4 [60, 60]
00000000: 8c11 d2bd be08 973d a60f e6bc 7890 ac3d
00000010: a93a 5f3d cdf6 51be 59ed e63d 9a06 8b3d
00000020: 1165 ea3d f918 8bbd 8782 80bc 8f7f 853c
00000030: 7390 36bd 8797 febd 4ef1 c63d 35de 033e
00000040: 943a d4bd ff78 4bbd 42c4 a6bc 598c 773b
00000050: 70ee 1e3e 583c 1bbe 6929 07be 2be3 553e
00000060: 5834 05bd 9ea6 e23d c165 e33c 63b1 893e
00000070: 1f29 1bbe 5b1c 6cbd 877f ae3e 05fe 683d
00000080: 3896 003e 9902 afbd 9121 c73c 5fa3 0a3d
00000090: bac8 383d 1c92 fd3d 01ad aa3c 6db8 cabc
000000a0: 40ab 69be a848 503e 8d57 34be 4e48 53bd
000000b0: b8f3 303d 79c5 113d 49af b0bd e1ab bc3d
000000c0: 9187 a93d 95aa b53c 5429 073c a683 bb3d
000000d0: 89a1 25be d7dd 06bd ce16 dc3d d0b4 95bd
000000e0: 1f61 ba3d 3c32 18be a985 273e 5cfb 73bd
000000f0: aa41 1d3e 11e0 b4bd a53a 673d 697d 003e
00000100: a35a 693e f77a 92bb 4c2d 27bd ccae 213e
00000110: 184f bdbd c681 133d 7008 fe3d a07b 8dbd
00000120: d05e 353d db36 213e ef2d 723d 687d d03d
00000130: a07a 8c3c 1523 283e 09ac b13d f504 04be
00000140: feba d63e e662 ac3c 7012 cabd d185 35bd
00000150: b342 e1bc 544a 81bd ae72 273d 3917 0e3d
00000160: 01de 073e de5a 56bd 3645 0bbe 9028 473d
00000170: beba 8e3c 3dbb da3d 8869 7f3d b488 01be
00000180: 930f 12be f68d 443e 38f3 7abe 3729 babd
00000190: 6bc8 0e3c 8967 403e bfb8 bc3d 2709 543d
000001a0: 9c95 e9bd 536a 253e fa27 2f3d c33f 9dbd
000001b0: 934c bf3d 5e87 a4bd f9b0 e03d 16c1 bdbd
000001c0: a278 013b 8b5b 40bc d02d 833c 42be c8bd
000001d0: 03f8 ecbd 14c8 b93b d6f5 1d3e 9900 973c
000001e0: 3e05 f33c 830d 83bd a364 d03d fc4c 9cbd
000001f0: a4a6 313e ad0c 983e 190f 233e eb8f c73d
00000200: cdbf 86bd 3a6c 5b3d 222b c8bd 99b2 4d3d
00000210: f685 9dbc b494 393e 8a40 7b3d b39f 973d
00000220: 8908 823c 2cfe 2f3e c2d1 a33d 8d3b b93d
00000230: 1334 fbba 63ae 2bbd 9148 d73c c038 0c3e
00000240: 9740 3b3d 9aef 913d c14f 74bd 584d 0f3e
00000250: c742 003e a515 3abe 5ae9 20be 0c4b df3d
00000260: ce40 8d3d 32d2 633d eef6 233e ee4c f93d
00000270: d130 1cbd 38a4 2bbe bf16 eb3d 90f7 0d3b
00000280: 38b5 33be 675b f83d 411e 2c3d 4af7 1a3e
00000290: cba1 343e ddb9 803e 1423 1ebd 28e8 9c3d
000002a0: 0994 473e 4f42 023e 2bd6 21be f13f 00bd
000002b0: a1f3 513c 4db1 5c3d 40ba 5dbc 9c7d 303e
000002c0: bfc1 dfbd f5f8 5bbd 0d0e acbc 3ce6 69be
000002d0: 2606 193b 1ab4 8f3b 37d4 0a3e 29e8 113e
000002e0: ce00 b43c 9949 5c3c 39e6 863c 8f09 783d
000002f0: 8aab 8f3e f6a8 583e f444 e23d 5af2 aabd
00000300: a765 c6bd 5bbe df3d 31f2 593e 728d 133e
00000310: 71ec 963c f409 fcbc 826e 83bd 9532 f33c
00000320: 6009 473e d8d6 1ebe e79c 7d3d 500f 72bb
00000330: a405 ce3d df9a 023e a0f5 1abe 5d8d 8c3e
00000340: 5bce 563d 28c1 423d 8645 0a3e 9f33 9dbe
00000350: 1b5f 493d 6077 5cbe f081 cebc 9329 26bd
00000360: 62c2 abbd ca27 2f3e fe1c b93d 9cfd 76bc
00000370: 72af 863d 450e 4abe 9a66 3a3e 9e5a 563e
00000380: 4ab5 a8bc 96f6 fb3c bc2f 163e d02d fabc
00000390: aa6f 04bc 16ca 173c f353 303e a27c 963d
000003a0: 5318 163a 1fd4 8d3e f847 9c3c c9c9 cb3d
000003b0: 8c84 223e 4faa e13d 64bc 1e3d 37f7 06be
000003c0: 631a 81be a9ea 1c3d 86b4 67be 4c54 97bc
000003d0: abae 84bd 62cc f5bd 1485 3bbd 3087 edbc
000003e0: 597c 2f3e ad7d 183e 7a5f 823d e46b 983d
000003f0: e66c 11bd 399b 99be 5584 663e 8dfb d93c
-0.10257253 0.07374714 -0.028083634 0.08425993 0.054499302 -0.20504303 0.11275739 0.067883685
0.11445058 -0.067918725 -0.01568724 0.016296176 -0.04457135 -0.12431245 0.09713994 0.12877734
-0.103627354 -0.049675938 -0.020357255 0.0037772863 0.15520644 -0.15159738 -0.1319939 0.20887439
-0.032520622 0.11066936 0.027758481 0.26893148 -0.15152405 -0.05764423 0.3408167 0.056882877
0.12557304 -0.08545417 0.024307998 0.03384721 0.045113303 0.12381384 0.020834448 -0.024746144
-0.22819233 0.20340216 -0.17611523 -0.051582627 0.04320118 0.035588715 -0.08627183 0.09212471
0.0827781 0.022176066 0.0082495995 0.09155969 -0.16174902 -0.032926407 0.10746537 -0.07309878
0.09100556 -0.14862913 0.16359581 -0.059565887 0.1535708 -0.088318 0.056452412 0.1254784
0.22788481 -0.004470225 -0.040814683 0.15789336 -0.092436016 0.036012433 0.12403953 -0.06908345
0.044279873 0.15743582 0.059125837 0.10180169 0.017148316 0.16419633 0.08675391 -0.12892516
0.4193954 0.021043252 -0.09866798 -0.04431707 -0.027497625 -0.06313005 0.04088085 0.034690116
0.13268282 -0.05233275 -0.1360062 0.048622668 0.01742303 0.10680244 0.0623565 -0.12649804
-0.14263754 0.19194779 -0.24506843 -0.09089892 0.008714776 0.18789496 0.09214925 0.05176654
-0.11405489 0.1615384 0.042762734 -0.07678177 0.09340777 -0.08033632 0.10971255 -0.09265344
0.001975574 -0.011740576 0.016013056 -0.09801914 -0.11570742 0.005669603 0.1542581 0.018432902
0.029665586 -0.063990615 0.10175445 -0.07631871 0.17348725 0.2969717 0.15923728 0.09744247
-0.06579552 0.05357001 -0.09773852 0.050219152 -0.019228917 0.18123132 0.061340846 0.07403507
0.01587321 0.17186803 0.079989925 0.090445615 -0.00191653 -0.041914355 0.02627972 0.13693523
0.045715895 0.071257785 -0.05964637 0.13994348 0.12525474 -0.18172319 -0.15714017 0.10902986
0.06897126 0.05562038 0.16012165 0.12172876 -0.038132492 -0.16761863 0.11478948 0.0021662451
-0.17549598 0.121268086 0.04202104 0.15133396 0.17639844 0.25141802 -0.03860767 0.07661468
0.19490065 0.12720607 -0.15804355 -0.03131098 0.012814433 0.053880025 -0.013533175 0.17235416
-0.10925626 -0.05370422 -0.021002794 -0.22841734 0.0023349612 0.0043854835 0.13557516 0.14248718
0.02197304 0.013445281 0.0164672 0.06055599 0.2806056 0.21158203 0.11048308 -0.08347006
-0.096873574 0.10924979 0.21283795 0.14409426 0.01842329 -0.030766465 -0.06417562 0.029687205
0.1943717 -0.15511644 0.06191721 -0.0036935396 0.100596696 0.12754391 -0.15132761 0.27451602
0.05244289 0.04754749 0.13503084 -0.30703446 0.049162965 -0.21529913 -0.025208443 -0.040566992
-0.08386685 0.17105022 0.09038733 -0.015075114 0.06576432 -0.19732006 0.18203202 0.20933005
-0.020594258 0.03075723 0.14666647 -0.030539423 -0.008083263 0.00926449 0.17219524 0.073479906
0.00057256705 0.27700898 0.019077286 0.09950597 0.15870875 0.11018812 0.038753882 -0.13180242
-0.25215444 0.038309727 -0.22627458 -0.018472813 -0.06478628 -0.120018736 -0.04578121 -0.028995126
0.17137279 0.14891692 0.06365867 0.074424535 -0.035504244 -0.30001238 0.22511418 0.026609207

encoder.net.2.bias f4 [60]
00000000: f860 50bd 616b 29bd 68da 103d 6135 c03c
00000010: ad7c 78bd f606 e33c 248d 23bd 1840 123d
00000020: 2067 b33b bea9 88bd 227b 11bd 3c8e 1ebd
00000030: 1fa0 9fbd f69d 703d df64 6fbd 4d43 91bc
00000040: b34d e8bc d050 58bd 1836 37bd c937 9c3c
00000050: a77b 3d3d 929d 52bd 7a13 093d 5245 b8bc
00000060: a667 403d 812a 8d3b 4395 83bd 3cf3 493d
00000070: 8476 2ebd f472 d0bd 749d 283d b19a e33c
00000080: 77cf 763c 24e8 90bd 0441 46bd 88c1 673d
00000090: c7f9 35bd 619e 2f3d 1d6a f43b c219 80bd
000000a0: a764 453d d647 a83c 4144 423d f431 31bc
000000b0: 817d 3bbd 19ca bebc 080b 92bd 0530 ed3c
000000c0: a291 57bd 1aef a63d 6450 4dbd 9f36 bc3c
000000d0: 09f8 b1bd 3dc4 abbd e604 f23d 6042 533d
000000e0: a779 eebc 483d 003d 93d8 ab3d f0ec 27bd
-0.050873727 -0.04136217 0.03536454 0.023462953 -0.060665775 0.02771328 -0.039929524 0.035705656
0.00547494 -0.06673001 -0.03551782 -0.038709864 -0.077942125 0.058744393 -0.058445808 -0.017732287
-0.028357362 -0.052811444 -0.044729322 0.01906957 0.046260502 -0.051419802 0.03346584 -0.022493992
0.046973847 0.0043080454 -0.06424954 0.049304232 -0.042593494 -0.101781756 0.041165784 0.027783724
0.015064112 -0.07075527 -0.048401847 0.05658105 -0.04442766 0.04287565 0.0074589388 -0.06254913
0.048191693 0.020542067 0.047428373 -0.010815132 -0.045773987 -0.023289727 -0.0713101 0.028953562
-0.05262912 0.08151074 -0.050125495 0.022975264 -0.08689887 -0.08387039 0.118173406 0.051576972
-0.029110743 0.031308442 0.08390918 -0.040997446

encoder.net.5.weight f4 [32, 60]
00000000: a45f 743e 5633 04be 4e26 a63d c9b6 b53d
00000010: 7e28 1d3e fb31 65bd 658c 823c 1034 3c3b
00000020: 839b 82bd 93f0 6dbd 9f7f 17be 14e6 19bc
00000030: 65ba 8fbd 4cb2 e8bd 8884 1c3b 1d26 103e
00000040: 8d23 9f3d e49c 1d3e 1cd6 9f3e 8df4 323e
00000050: 55b2 923e 99b4 fbbc 0f6a f73c 92bb a13e
00000060: 20ba b3bd b58e 333e ca95 773e 5417 323e
00000070: 711b 85bd 9940 3fbd 59ba 063e d416 41be
00000080: df61 fa3c 87d4 213c f22f d13d 73e5 b83c
00000090: f5ab 563e 224a 56be 8ee4 abbd bd33 3ebe
000000a0: e16c 29be a2c6 173d 51fc 383d 4c60 383e
000000b0: 8840 96be e593 35be 5c77 a33d 1fce 18bc
000000c0: 2c8b 3bbb 589f 6f3d 2582 e53d 0c00 cbbc
000000d0: 71d7 e8bd 04d8 19be 9301 a13b 6664 9bbd
000000e0: db5f 1fbe 2a8b 983e 11cc cf3d 5518 39be
000000f0: 105d 26be 3f0a 2c3e c426 b7bd f764 113e
00000100: 0927 ab3d 221a 2a3d 4807 b03c 604b 183e
00000110: aea0 443e 3c96 85bc 86b2 833d 6c94 353e
00000120: 6d91 92be 2772 e23c d63a 8abb fad8 5cbd
00000130: 3bda 2b3d afa7 5a3c 14b2 3ebe f87f cbbe
00000140: 71a0 d53d f193 2dbe b0c5 413e c639 43be
00000150: 41ea 23be a865 2e3e 2b56 28be bb9e a43e
00000160: e7df 883d 2b17 293e c058 be3d 86f7 e33c
00000170: 1485 1fbe 8d2c dd3d 5208 08bd 7609 b53d
00000180: a730 4dbe 917b 8abe c602 98be 3700 aebe
00000190: 5258 ca3d 5792 303d be87 c83d a73f c73d
000001a0: e254 bfbd a238 073e 8f92 66be c0cc 8d3e
000001b0: 66a3 a53c 8304 313e 554a 153e 801f 34be
000001c0: bc12 d03b 82e0 3abd effd ad3d 8b23 11be
000001d0: 1550 7dbb 33e8 273e 863d aabd 1f2e 723e
000001e0: be58 ebbd aabc 9ebe e7f4 313d eb2a 1bbc
000001f0: 714a 27bc 09da d33d e80c f13c 0dbf 0f3e
00000200: 1b25 503e eb44 8e3c b3eb b43d 8f3d eabd
00000210: bf6e 13be c092 02be 9904 0bbe c66c 80bd
00000220: b55d 38bc 21a1 ca3d b626 873e ece5 663d
00000230: fd26 463e 39b5 f0bd 1747 09be f4dd 3a3e
00000240: 6627 bfbc df5b 46be c95d b83d e12a 293e
00000250: c834 de3d 2045 0c3d e766 41bd 3847 f23d
00000260: 720a fabc 2198 073c 3de8 91bd 20fc 1abe
00000270: d340 2a3d 19e9 743d d9c6 733e cc15 b53e
00000280: 018c 23be 2561 fbbc d2e3 553e 96ad 833c
00000290: 6043 9b3d 76ec b13d 893b 0dbe 0649 28be
000002a0: b57f 88bd 99be 88bd b739 553d 868d 333e
000002b0: fb30 c23d 7618 643c 5950 79be 4540 17bd
000002c0: a837 7abd 3348 f03d 6c55 07be afbe 863e
000002d0: ff2b 8c3d 3fa2 4b3c ab3b 2e3e 5fb7 a43d
000002e0: 0fb3 2abe 6a38 51be 3996 2d3e 3b97 c5bc
000002f0: c55a fb3c 8fb2 8a3e cdfa f2bd f21f 09be
00000300: 60df d2bd 6591 1ebe 8934 29be 2d39 7dbd
00000310: 7449 a03d 2e63 bebd a4d5 2c3e f870 29bd
00000320: 57b7 46be cae1 4fbe 4bd9 e13b 7938 1dbe
00000330: 1a33 56bd 30b7 1dbe ce3d 70be 4603 05be
00000340: 272d 7f3e c362 4dbd 625d f93b 3a24 56bc
00000350: 3071 dfbd a5ec 3d3e 8f5c a53d e32e 5abb
00000360: 19ea 98bc b78f 0d3e 1891 3f3c 6b08 f4bd
00000370: 9a01 093d cea9 7cbe 325c 18be 8acb d13c
00000380: 1a7a 153c f539 663e b3f1 603e 1063 51bd
00000390: 6d80 2a3e 7e59 853d 5b4b 0f3e 0a62 73bd
000003a0: 8ee7 473d 6e25 fcbd 33bd c3bb 7b2e 9f3d
000003b0: 60f5 1c3e 4486 193e 88ba 3bbe 850a 29bc
000003c0: 2016 d63d 20d8 57be b441 453e 322a 903d
000003d0: 76cf b53c c07f 2dbd ea26 20bd 87aa 40be
000003e0: 78fc 2c3e 895c cb3c 7574 a43d f008 dc3d
000003f0: a9ab 143d d0de e83d fbde e53d 1dc1 a33e
0.23864609 -0.12910208 0.08112775 0.08872754 0.15347478 -0.05595587 0.015936086 0.0028717555
-0.06377318 -0.058090758 -0.14794777 -0.009393234 -0.07017974 -0.113621324 0.0023882706 0.14077039
0.07770453 0.1539188 0.3121804 0.17476101 0.28651682 -0.030725764 0.03020194 0.31588417
-0.08775735 0.17534907 0.24178234 0.17391711 -0.06499375 -0.046692465 0.13157023 -0.18856364
0.030564247 0.009877331 0.10214223 0.022570347 0.20964034 -0.20926717 -0.08393203 -0.18574424
-0.1654544 0.037054665 0.045162503 0.18005484 -0.29346108 -0.17732199 0.0798175 -0.009326487
-0.0028616888 0.05850157 0.11206464 -0.024780296 -0.11369217 -0.1502381 0.0049135177 -0.07587509
-0.1556391 0.29793674 0.101463445 -0.18075688 -0.16246438 0.16800784 -0.08942941 0.14198671
0.08357055 0.04152883 0.021487847 0.14872503 0.1920192 -0.016306989 0.06430535 0.177324
-0.28626576 0.027642323 -0.0042184396 -0.053917862 0.041956168 0.013345643 -0.18622619 -0.3974607
0.104309924 -0.16950966 0.18923068 -0.19065008 -0.1600733 0.17030966 -0.1643912 0.32152352
0.06683331 0.16512744 0.092942715 0.02782799 -0.15578109 0.10799513 -0.03321106 0.08839695
-0.2003809 -0.270474 -0.29689616 -0.3398454 0.09880127 0.04310831 0.09791516 0.097289376
-0.09342362 0.13205197 -0.22516845 0.27695274 0.020219516 0.17286877 0.14579137 -0.17590141
0.0063498896 -0.045624264 0.084956996 -0.14173715 -0.003865247 0.1639717 -0.08312516 0.23650406
-0.114915356 -0.31003314 0.043446448 -0.009470682 -0.010210619 0.10344321 0.0294251 0.14037724
0.20326655 0.017366847 0.088340186 -0.114375226 -0.14397715 -0.12751293 -0.13575973 -0.06270747
-0.01125281 0.09894014 0.26396722 0.056371614 0.1935081 -0.117533155 -0.13406025 0.18248731
-0.023334216 -0.19370984 0.09002263 0.16520263 0.10849911 0.03424561 -0.047217276 0.1182999
-0.030522559 0.008276016 -0.07124374 -0.1513524 0.041565727 0.05979261 0.23806323 0.35368192
-0.15971376 -0.03068597 0.20887688 0.016073983 0.0758121 0.086876795 -0.13792242 -0.16434106
-0.06664983 -0.066769786 0.052056994 0.17534456 0.094819985 0.013921848 -0.24347056 -0.036926527
-0.061088234 0.11732521 -0.1321618 0.26317355 0.06844329 0.012428819 0.17014949 0.08042788
-0.16669868 -0.20431677 0.16951837 -0.024119964 0.03068293 0.27089354 -0.11864243 -0.13391092
-0.10296512 -0.15485151 -0.16523947 -0.061822105 0.0782651 -0.09296261 0.16878372 -0.0413675
-0.19405876 -0.20300975 0.0068923584 -0.15353574 -0.052294828 -0.15401912 -0.23461077 -0.1298953
0.24919568 -0.050143015 0.007610009 -0.0130701605 -0.10910261 0.18547304 0.08074295 -0.0033292107
-0.018666314 0.13824354 0.011692308 -0.11915668 0.033448793 -0.2467415 -0.1487892 0.02560975
0.00912335 0.22483046 0.21967201 -0.051119864 0.16650553 0.0651121 0.1399359 -0.05941967
0.048804812 -0.12311827 -0.005973482 0.07772537 0.15327978 0.14992625 -0.18332875 -0.010317449
0.10453439 -0.21078539 0.19263345 0.07039298 0.022193652 -0.04235816 -0.03909961 -0.18815051
0.16893184 0.024824398 0.08030025 0.10743892 0.03629652 0.11370623 0.11224171 0.3198327

encoder.net.5.bias f4 [32]
00000000: b8a8 fc3c a9fc 013e d583 92bd d25f 323d
00000010: 81e9 aebd dd87 86bd 35fb 59bd 3bfa 633d
00000020: cc6f 93bd 165f 4f3d fefc 5dbd ae2f 93bd
00000030: 4adc cd3d 1722 723d 2a2e 7cbd 6b0b b13c
00000040: 81d2 98bd 7002 3abd 0a95 7b3d ef71 7cbd
00000050: 6239 543d ad89 483c 0c2d 753d d9f3 a43d
00000060: a7f8 a0bd a369 a93c 6544 8c3d da3f 57bd
00000070: 57be 80bd 7718 593d 7eec 593d 018b 643d
0.03084217 0.12694038 -0.07154051 0.043548413 -0.08540631 -0.065688826 -0.053218085 0.05565856
-0.07199058 0.05062779 -0.05419635 -0.071868286 0.100517824 0.05911454 -0.061567463 0.02161189
-0.074620254 -0.04541248 0.06142143 -0.061632093 0.051812537 0.012239856 0.059857413 0.08054323
-0.07859927 0.020680254 0.06848983 -0.052551128 -0.062863044 0.053001847 0.053204052 0.055796627

predictor.net.1.weight f4 [32, 32]
00000000: f2b4 14bc 75f7 1c3e f11f c43c ea58 fb3e
00000010: e674 8d3d 990d 373d 5073 833d e2e7 0ebe
00000020: f0b5 c1bd ce94 0e3e 0b08 13bd 6938 fc3b
00000030: 4739 a8bd 06fa 12be ba0e 9bbd 395c e13d
00000040: 0952 bfbd 62d8 5ebe 0cd8 c2bd 65f1 d13e
00000050: ee06 4fbe 3744 343e d697 91bc 2d23 75be
00000060: 4ba5 49be 2340 393d 48ef eebe dcce 273e
00000070: 7629 24be 7652 743d a805 c3bd 5254 d03d
00000080: 8636 48bd 1fb9 6cbe 249d e4be 34fb ec3d
00000090: 65f3 ff3d 8fb6 febd 914f 193f 086c c93d
000000a0: eb7e d43e 7dcd adbd 10a7 01be afcb 37be
000000b0: afa6 8e3e f038 79be 5fbf c8bd 1c97 c03d
000000c0: 7898 243e 358c c93c 0838 ab3e efe6 8c3e
000000d0: 75e8 bebd ca2b babd 9016 1abe f7c3 d73d
000000e0: fb00 a6be 6068 d53d bcdb 69bc 3261 00bf
000000f0: 77e1 bcbd 48dc 243e 7d0a abbd 1de0 ef3c
00000100: 688b 033d e888 bd3d a318 3c3e 13bf 433c
00000110: a379 cbbb 0fdb 963d 38f4 f9be bb85 c0bd
00000120: 74e1 093e 8cde 063c 555d 10be de39 eebc
00000130: 2567 ba3d 00f0 1b3d 421e eabd da63 ef3d
00000140: 4e01 94be f6f0 c23d 563f acbc 3307 3dbd
00000150: 8cd9 fb3c 973e 81be 9aad 1ebd b819 b9be
00000160: c02d 6ebd b43c 7c3e bc34 c3be 2eb2 eabe
00000170: a364 d4bd 78e7 743d 2dac 5b3e 01be 663e
00000180: 1735 05be 1d59 4dbe fc9c 8fbd 9b3f 2b3e
00000190: 4f6a 973d ca49 993d be43 a83a 0b7f 7ebe
000001a0: f7b6 243d 81db 6f3e e980 27bd 43ec 59be
000001b0: 7901 203d ffcb a83e 095b 06be 1b1f 943e
000001c0: 8700 a4bd a856 c9be 9630 863d 1b57 133e
000001d0: 7830 d53d 8cdf 1b3d bcdd 53bd 217b 2a3e
000001e0: 46f5 9bbe fdd3 293e 18d2 aa3e 8cfb 963d
000001f0: f795 823e ae25 7dbe 4d13 bbbe 1be3 6bbe
00000200: 0854 c8bd b68f 8cbc 03d1 513e 3402 c8bd
00000210: b73b 173e 90e6 adbe c2f2 8abd acca 10be
00000220: 55b6 2cbd 7e0a 863d daf5 323c 4992 c3bd
00000230: 2c6a 233e 4b0c 3fbe 6084 b23e 5753 083e
00000240: 86cb fbbd c23f 18be ef36 febd e0ac 48bd
00000250: 8b21 403e c488 d7be 0223 11be e4cf 3d3d
00000260: 0187 27be 45f6 833d 1af4 693e 6c7d 273e
00000270: ed98 7ebe 3220 843b 635f f3bd 9cc5 33be
00000280: 30d3 b9bc 5014 2a3e 8165 85bd 052a 1fbd
00000290: a640 763d 562d 43be 0838 f23e a1d3 323d
000002a0: e1e9 923d 492a be3c 5354 823e 3553 1fbe
000002b0: 96ea 2abe 3252 32be a288 d8bd 45cb be3c
000002c0: 741e 8a3d 5f8c 26bc d233 093e ead5 da3d
000002d0: dc9f 843d 073f a33e a03e fdbc d358 383e
000002e0: 803e 8dbe 2105 713e fbd1 0dbe 0ffd db3d
000002f0: 571b 293e 1ee3 11bf e178 f03d 5a4a 0abc
00000300: a619 3bbc 6220 0ebe de32 ea3d eac2 2a3e
00000310: 24d3 1ebe 249b 13bf 9838 30be 2cac 4dbe
00000320: c5c4 9cbd 0ff9 873e 2d03 05ba b967 ebbd
00000330: f6c8 c43b d42c 153e 1104 8a3e cfa9 4bbd
00000340: 3b0d 99bd 7c31 35ba 91e0 203e 9fa5 45be
00000350: 9063 43bd 2e9d dd3d d68b 163e 4569 57be
00000360: 6b79 68bd dbb6 09be 6a0b ac3d efe4 babc
00000370: 6afe 513e 89c0 61bd d591 313e 5a6c 143d
00000380: 1047 183e 7d0d c7bc 83c8 aebc 3a56 0f3d
00000390: bd2a 2d3e 14b8 013d 2cae 413e 021a 4c3e
000003a0: 51a7 bfba 59d4 983b 06b6 f63c 7fa8 343e
000003b0: ddfd 0fbd 3dea 31be 6312 0a3d e2ba 993d
000003c0: 2a64 07bc 1707 1bbe 28a3 dd3c 8ee5 653e
000003d0: d551 0fbe 621d 0cbf 9eac 8ebe c753 8f3e
000003e0: aa70 fbbd d69c fabd 9bcb bb3d 5d5b 763d
000003f0: eb41 3b3d b07e ccbe 808d 6e3d 2e6f 9fbd
-0.009076344 0.15328772 0.023941012 0.49091274 0.06907062 0.044690702 0.064184785 -0.13955644
-0.0945853 0.13923952 -0.035896342 0.0076971543 -0.0821405 -0.14353189 -0.07571168 0.11003918
-0.09341819 -0.21762231 -0.09513864 0.41004482 -0.20217487 0.17604147 -0.017772596 -0.239392
-0.1969196 0.04522718 -0.46666932 0.16387504 -0.16031441 0.059648953 -0.09522563 0.10172333
-0.048880123 -0.23117493 -0.4465114 0.11571351 0.12497596 -0.12437164 0.59887034 0.098350585
0.4150308 -0.084864594 -0.12661386 -0.17948793 0.27861544 -0.24338126 -0.09802126 0.09403822
0.16073787 0.024602989 0.33441186 0.27519938 -0.093216814 -0.09090383 -0.1504767 0.10535424
-0.32422623 0.104202986 -0.01427358 -0.5014831 -0.092226915 0.16099656 -0.0835161 0.02928167
0.03211537 0.092546284 0.18368773 0.011947411 -0.0062095686 0.07366001 -0.48819137 -0.09400507
0.1346491 0.00823177 -0.14098103 -0.029080328 0.091017045 0.03807068 -0.114315525 0.11688967
-0.28907245 0.09518616 -0.021026295 -0.046149444 0.030743383 -0.25243065 -0.038739778 -0.36152434
-0.0581491 0.24632531 -0.3812617 -0.45839065 -0.103707574 0.05979106 0.21452399 0.22533418
-0.13008533 -0.20053525 -0.07012364 0.16723482 0.07393324 0.07484777 0.0012837572 -0.2485315
0.04021355 0.23423578 -0.040894423 -0.21281533 0.039063904 0.32968137 -0.13120665 0.28929982
-0.08007913 -0.39323926 0.06552236 0.14388697 0.10409635 0.038054988 -0.051725134 0.16648532
-0.30460566 0.16584773 0.33363414 0.073721975 0.2550504 -0.24721405 -0.36538163 -0.23035853
-0.09781653 -0.01715837 0.20489888 -0.09766045 0.14768873 -0.33964968 -0.06784584 -0.14139813
-0.042166073 0.0654497 0.010922873 -0.09549386 0.1595847 -0.18657033 0.3486662 0.13313042
-0.122946784 -0.14868072 -0.124128215 -0.04899299 0.18762796 -0.4209653 -0.1417351 0.046340838
-0.16360094 0.064434566 0.22847024 0.16356438 -0.24863024 0.0040321583 -0.11883428 -0.1755585
-0.02268371 0.16609311 -0.06513501 -0.038858432 0.060120247 -0.19060263 0.47308373 0.043658856
0.07173515 0.023213523 0.2545496 -0.15559085 -0.1669105 -0.17414168 -0.10572936 0.023290286
0.0674409 -0.010165303 0.13398674 0.10685332 0.06475803 0.31884024 -0.030913651 0.18002634
-0.27586746 0.23537113 -0.13849632 0.107416265 0.16514336 -0.5698718 0.11741806 -0.008440578
-0.011419689 -0.1387954 0.114354834 0.16675916 -0.15510231 -0.576586 -0.17209089 -0.2008521
-0.07654718 0.26557204 -0.00050740206 -0.11494393 0.0060054017 0.14567882 0.26956227 -0.04972249
-0.07473227 -0.0006911976 0.15710665 -0.1930146 -0.047702372 0.10820995 0.1470178 -0.21036251
-0.05675642 -0.1344866 0.084006146 -0.022814242 0.20507208 -0.055115256 0.17340787 0.036236145
0.14870858 -0.024298424 -0.021335846 0.03499434 0.16910835 0.03166969 0.18914098 0.19931796
-0.0014622008 0.0046639857 0.030116092 0.17642401 -0.035154212 -0.17374511 0.03370894 0.07506348
-0.008263627 -0.15139423 0.027055338 0.2245085 -0.1399606 -0.54732335 -0.2786607 0.27993605
-0.12277348 -0.12236945 0.09169694 0.060145725 0.04571716 -0.39940405 0.058240414 -0.07784878

predictor.net.1.bias f4 [32]
00000000: d28e f93d d093 c6bd c406 c93d 9c48 da3d
00000010: 8f06 c4bd d1b3 ccbd 423d cb3d 4f30 eb3d
00000020: f6fb d9bd 17ab 02be 9795 dbbd c70b f9bd
00000030: 4780 09be 7141 293e 7095 f5bd f846 c7bd
00000040: c43c c2bd 92cf dc3d e62c d33d 2115 c3bd
00000050: 1f1b d63d 6ad6 b83d 9ca2 cc3d 7e1f dabd
00000060: 223f 053e 2a53 c63d f87d c73d c619 d33d
00000070: 62a4 dc3d a9b4 fdbd 5bf8 d6bd c02e 943d
0.12185444 -0.09696162 0.098157436 0.106583804 -0.095715635 -0.09995235 0.099237934 0.114838235
-0.10643761 -0.12760578 -0.107218914 -0.121604495 -0.1342784 0.1652887 -0.119913936 -0.09730333
-0.094842464 0.107817784 0.10311298 -0.095255144 0.10454392 0.09025271 0.09991953 -0.10650538
0.13012365 0.09683831 0.097408235 0.1030765 0.10773541 -0.12387974 -0.10496589 0.07235479

predictor.net.3.weight f4 [1, 32]
00000000: 61b9 113d c4b2 8cbd a25b 2c3e 0be4 643d
00000010: 48ab 13be 4462 e9be 52da 583e 1a29 7a3e
00000020: 60db 3cbd 44cc 2ebd 547f 8cbd cf13 18be
00000030: 8478 aebd ccaa bf3d 8db6 c0bd bfaf e5bd
00000040: eef2 23be 90bb 223e 194e b33e cb09 b7be
00000050: 637c 453e 8275 1f3e 8ee1 113e fa07 1dbf
00000060: ca9d 8f3e 05dc 973e e7d0 ab3e 398c a73e
00000070: d525 1b3e fbae 73be 46ef 96be 50ab 9d3c
0.03557718 -0.06870034 0.1683183 0.05588154 -0.14420807 -0.45582783 0.21177033 0.24429742
-0.04610765 -0.04267527 -0.068602234 -0.14851306 -0.0851908 0.09358749 -0.09409819 -0.112151615
-0.16010639 0.15891862 0.3502052 -0.3574966 0.19285731 0.1557217 0.14246199 -0.61340296
0.2805007 0.2966005 0.33557817 0.3272417 0.1515115 -0.23797219 -0.29479426 0.019246727

net.0.weight f4 [60, 35]
00000000: 0a71 c63c fc4b 11be 4cb0 e63d 3769 c6bd
00000010: a8f3 f7bd e3ce 35be d843 353d 1817 c1be
00000020: 3e48 6fbb 89b1 15be 30de 99bc a7d4 f3bd
00000030: 6144 963e 635e 4cbc 2652 5e3e 480e 0cbe
00000040: 99b2 243e 7049 7cbd af8b 9f3e e2a1 b43d
00000050: 5ebe e53d 39c2 e53d b5e8 00be e3a0 c03d
00000060: de8b 8b3d ce4a 4abd a22e e1bc dfcc e9bd
00000070: f8d1 58bd 72a8 91bd 92c9 913c 1160 98bd
00000080: c5d6 62bc 2c4e 8f3c 5aa9 e5bb 0ee8 82be
00000090: b298 343e 6e2f d33c be14 a83d d9c6 b0bd
000000a0: 66a6 0e3e 9e08 0b3e dbb2 303d b0eb 0fbe
000000b0: fda9 45bd 8f89 78be d5d3 5fbe 1e51 3cbd
000000c0: 831f 8b3e 92e7 f13d d42c febd 4ec3 e8bb
000000d0: 21d3 053d 34a4 a53e 7d3d 793d 32e1 03be
000000e0: 5218 04be d68c 8c3d 64c1 2e3e e27f 083e
000000f0: 2692 3e3d 7112 93bc 371c 363e b52d afbd
00000100: 80a9 c03e 42b9 b1bb 823a 0d3e 9502 5dbe
00000110: bd65 26be 5ad8 843e 9dcf c13d e874 a8be
00000120: e549 3abe 529c 5fbe 4c13 0d3d 814c e2bd
00000130: 3b7b 7abe 8df3 0c3e dd1c 363e 30e2 19be
00000140: 10e7 eebc 1199 10be d74e bdbe 6792 873d
00000150: 1573 dabd 4fa6 f3bc b866 b3bd adb5 ae3c
00000160: 348e b1bd 49d3 b93d b4b0 57be 4b7d e7bc
00000170: 3e41 edbc d022 8d3e a1ec 333e 8128 24be
00000180: c076 913d d743 1ebe cd43 163e 7d13 eb3c
00000190: 56a7 753e 2f0c 0dbe 3528 13bd ca27 fbbd
000001a0: b16a 3d3b 8a8f 0cbe e6ca 393e a97f 25be
000001b0: f7aa ca3d 4f48 49be 1720 b63d cab8 a03d
000001c0: 6780 5d3e 5b89 dd3d 73aa 23be 10ca da3d
000001d0: 0f4c 11be f848 9fbb 0a91 4bbd 829e d5bd
000001e0: 9550 63be 314d 6abd 8ea0 bc3b 4086 cb3d
000001f0: c1db 893d fb13 3ebe 0013 2cbd b579 86be
00000200: 109d a33d 5354 87bd a450 66be 21ed 823c
00000210: 4c20 4d3c 830a a53e 8625 56be 5ba2 07be
00000220: f47e eb3d bc11 20bd 538f 61be 5321 b8be
00000230: 0357 0c3e 9d54 b03d 3b8e 90bd 514c 77be
00000240: d07c bf3e 029d 2dbe 3189 06bd e0db 74bd
00000250: 9325 fb3d 1fec 28be 0594 b33d 8f28 19be
00000260: 3ebf 30bd 3bdc 0bbe a0be fbbc 4112 c33d
00000270: e69c f5bd f388 4fbe e4f6 cfbd fda0 8abe
00000280: 9564 86bd 7534 53bd 1568 573e f8df 8ebc
00000290: 4385 fb3d c4a8 553e 02ce 6cbd bf19 3f3e
000002a0: b2da 13be c870 6cbd 23b9 e73d 7fd1 013d
000002b0: 48dc 0ebd e660 ba3d 9c99 6dbb 7f8a f1be
000002c0: f382 15bd ed38 eebd bac0 18be f6a4 10be
000002d0: 6b10 993b 9903 4f3e 6650 37bd ea71 b9bd
000002e0: 318f bdbd b53f 053e f25b 26bd 628a 063e
000002f0: 0164 0dbe cef3 3e3d b481 913d 829e 15bd
00000300: 7390 39bd 81d8 273e 8b6b b23c 01d4 abbc
00000310: ec8e 8e3d 14f5 7b3e d24a 8ebe 2f19 e33d
00000320: 61dd 953e 374b 4fbe d676 2fbe fb5d 933d
00000330: 5049 333d d0d1 dcbd 126b 88be d516 21be
00000340: 9bb2 fcbd 6de4 363e 10c6 2ebb 94d6 05bd
00000350: e721 3d3e a9a1 0cbe a16b 823d 5b7b 6abc
00000360: 600c ac3c ccf9 46bd 91c2 dabd f97a ac3d
00000370: 2984 90be 005f f0bc 10a3 b9bb cc3c b3be
00000380: 0f1b 1f3d 05d2 29bd 71d8 eebd 89c5 ac3d
00000390: c42b b6bd 3fc4 95bd 254a 883e 6121 013e
000003a0: 665c 11be a1a5 6ebe 44cc 823b b167 a13d
000003b0: 4f47 07be 74e6 85bd 414f ddbc 42e8 16be
000003c0: f396 70be 688b 01bd f71c 8e3e a056 18be
000003d0: ad7e cf3d eb6c 2d3e a059 08be ca69 54bd
000003e0: 88b3 8fbd 7624 353d 62e8 95bc d7ff 113d
000003f0: 16e0 2e3e 5ff6 173c 97d8 ee3d d023 09bd
0.024223823 -0.14189142 0.11264095 -0.09688037 -0.121070206 -0.17754702 0.044254154 -0.37712932
-0.0036511566 -0.14618506 -0.018782705 -0.119057946 0.29349044 -0.012473675 0.21711025 -0.13677323
0.16083755 -0.061593473 0.31161258 0.08819939 0.1121795 0.11218686 -0.1258877 0.09405687
0.06813787 -0.049387746 -0.027488057 -0.11416029 -0.052934617 -0.071122065 0.017796312 -0.07440198
-0.01384515 0.01749333 -0.0070087137 -0.2556767 0.17636374 0.025779452 0.08207081 -0.08631677
0.13930663 0.13577506 0.04313932 -0.14054751 -0.048257817 -0.24271224 -0.21858151 -0.045975797
0.2717248 0.11811747 -0.12410894 -0.0071033603 0.03267205 0.3235184 0.060849655 -0.12878874
-0.12899902 0.068628 0.1706596 0.13330033 0.046526097 -0.01795313 0.177842 -0.0855364
0.37629318 -0.005423696 0.1379185 -0.21583016 -0.16249748 0.25946313 0.09463427 -0.32901692
-0.18192251 -0.21836975 0.03444223 -0.11049748 -0.24461071 0.13764782 0.17784448 -0.1502769
-0.029162914 -0.1412089 -0.36974213 0.06619721 -0.106664814 -0.029742388 -0.087598264 0.021326864
-0.08669701 0.090735026 -0.210635 -0.028257987 -0.028961774 0.27565622 0.17570736 -0.16031076
0.07102728 -0.15455566 0.14674301 0.028695816 0.23989615 -0.13774179 -0.035927016 -0.122634485
0.0028902704 -0.13726631 0.18143806 -0.1616198 0.0989589 -0.1965649 0.088928394 0.07847746
0.21631013 0.10817214 -0.1598299 0.106830716 -0.1418917 -0.0048609935 -0.049698867 -0.104306236
-0.22198708 -0.05720252 0.0057564443 0.099377155 0.06731368 -0.1856231 -0.042010307 -0.2626473
0.07988942 -0.066078804 -0.224917 0.015982212 0.012519907 0.32234582 -0.20912752 -0.13245527
0.11498824 -0.039079413 -0.2202733 -0.35962924 0.13705067 0.08609889 -0.07058378 -0.24150206
0.37399912 -0.16954425 -0.03284568 -0.05978 0.12263026 -0.16496323 0.08768467 -0.14956878
-0.043151133 -0.1365823 -0.030730546 0.09524966 -0.119928166 -0.20267086 -0.101545125 -0.2707595
-0.06562153 -0.0515637 0.21035798 -0.017440781 0.12281277 0.2086516 -0.05781365 0.18662165
-0.14438894 -0.057724744 0.11314609 0.03169393 -0.034878045 0.09100513 -0.0036254888 -0.47175977
-0.036501836 -0.116319515 -0.1491727 -0.14125428 0.0046711466 0.20216216 -0.04475441 -0.090549305
-0.09255827 0.13012584 -0.04061503 0.13138726 -0.1380768 0.04661923 0.07104817 -0.036528118
-0.045303773 0.16391183 0.021779796 -0.020975115 0.06960854 0.24605209 -0.27791458 0.11088788
0.2927046 -0.20243536 -0.17135176 0.0719566 0.043771088 -0.10782206 -0.26644188 -0.15731366
-0.12338754 0.17860575 -0.0026668347 -0.03267534 0.18469964 -0.13733543 0.06368185 -0.014311637
0.021001995 -0.04857807 -0.10681642 0.08421893 -0.2822583 -0.029342175 -0.0056651905 -0.35007322
0.038844164 -0.041460056 -0.11662377 0.08436114 -0.088950664 -0.073128216 0.26619068 0.1261039
-0.14195403 -0.2330537 0.0039916355 0.07881106 -0.13210796 -0.06538096 -0.02701533 -0.14737037
-0.23495083 -0.03162709 0.27756473 -0.14876795 0.10131583 0.1693608 -0.13315439 -0.0518587
-0.07016665 0.044224225 -0.018299285 0.03564438 0.1707767 0.009275048 0.11662405 -0.03348142

net.0.bias f4 [60]
00000000: 108f 0fbe b645 d33d 5040 48bc 9332 9dbc
00000010: e597 f43c 63b9 193d 78ed 8dbd 94f0 f4bd
00000020: 0ec2 793d 55d3 983d 89b1 413e 8374 ad3d
00000030: f064 f8bd 835a e23d 1c12 783d 6c94 d2bd
00000040: a489 cc3d c848 f1bd d8ae 94bd 61bf ddbc
00000050: f28a f8bd 4641 e73d 5a6e 233e 8ddd 2f3d
00000060: d381 86bd 8c23 033e dc45 5d3d aa04 523c
00000070: ac1d c7bd 6e39 10be f912 11bd c528 97ba
00000080: 4f78 fbbc cb61 183d cb03 b1bd 8a60 043d
00000090: 1dc1 10bd b5a0 e6bd 4a24 d1bd e5f1 f63d
000000a0: 3d67 a1bc 3f26 283e 12c0 8c3c 1f76 b93d
000000b0: 4525 d7bd 3a5d c0bd 7bbf e53d b00d 0ebc
000000c0: 46e2 0b3d bd7d 48bc 2cda 0ebe 3e8f 15be
000000d0: 9119 243e 7a75 e3bd 0df1 08bd 217f eb3d
000000e0: f34e 05be a37b a03d d716 b4bd 02a7 48bc
-0.14019418 0.10316031 -0.012222365 -0.019189155 0.029857585 0.037530314 -0.06930059 -0.11959949
0.06097608 0.074621834 0.1891538 0.084694885 -0.12128627 0.1105242 0.060564145 -0.102822155
0.0998719 -0.1178146 -0.07259911 -0.027068796 -0.12135877 0.11291747 0.15960065 0.042935897
-0.06567731 0.12806529 0.0540217 0.012818495 -0.09722456 -0.14084408 -0.035418484 -0.0011532536
-0.030697016 0.037202638 -0.086433016 0.03231863 -0.035340417 -0.11261121 -0.10212 0.120578565
-0.019702548 0.1642084 0.01718143 0.09055733 -0.105051555 -0.093927816 0.112181626 -0.008670256
0.034151338 -0.01223701 -0.13950413 -0.14605424 0.16025378 -0.11106391 -0.03343301 0.11498857
-0.13018398 0.07836082 -0.08793419 -0.012246849

net.2.weight f4 [60, 60]
00000000: e5f5 41bd 2efe e93c a240 723d cc75 8fbe
00000010: 4872 9b3d b116 1f3d d40e 79bd 9ebf 70be
00000020: b708 a03c 431f e6bc dcb4 a43b 1d1b e5bb
00000030: 3dd1 ddbd 7276 3c3d 822b f3bb 59b3 7a3d
00000040: f442 84bd f701 b1bd 7353 83be c1ad 7bbe
00000050: 5c37 353c 26f3 18be 1b96 51bc 6126 acbd
00000060: f3e6 1c3e 459b 0d3e fcf1 083e bd9e 09be
00000070: 182e 073e e197 cc3c ba3f d03d b5cc c23d
00000080: 3c63 413d 1dce 3d3e 8667 943b 2ef9 a3bd
00000090: a88e 5abe abdb 63bd 4f01 c1bd c003 253d
000000a0: 5d68 ef3d 5f7c b63d 5f40 8abd 96f2 96bd
000000b0: 8466 813a afbd 6a3e cc49 7ebe 4106 87bd
000000c0: 391a 8abe c0d8 0ebd 440b d33d d6fe 60bc
000000d0: 708a fd3d 9ad8 acbd 255c d8bc cb26 993d
000000e0: 3a89 8f3e 8cb1 0e3d eb52 313e 7eb8 98bd
000000f0: 34ff 183e 54f2 debd 7ca3 903d 49df 87be
00000100: ae8e f83d a0ec d73c b471 4d3e 0e6b a33c
00000110: 557a a1ba d8ed 31bd b67c 813d 8ef0 4ebd
00000120: 4fdc 883d 1841 80be b18e 563d 948c 93bd
00000130: 2f08 a5bd 80d8 4fbd 15c9 25be d451 e03b
00000140: 86a6 8ebc c4d7 0bbe 789f 803e 88c1 3bbc
00000150: 3780 43be 5ca5 5cbd 7b00 023e 120e 613e
00000160: 0fac d13d 8abf 5dbe 2d4b 883d 6035 5b3d
00000170: 40f1 09be 8226 c53d ef04 223d 2833 993c
00000180: 6f28 053d f26c 58be 3016 0ebe 1da0 1c3e
00000190: 2680 7cbd 607e 263e b972 af3d 1b71 0dbe
000001a0: 0e25 1dbe b7a1 64bc f8bd 88bd 559e 64bd
000001b0: 7b72 5fbe 7f1b 44be 02e0 a8bd f01d ebbd
000001c0: 8775 f5bd 9321 1fbd 3dd3 22bd 28ab 103e
000001d0: 5cea 183c 9321 883d bf69 37be e6a8 c9bd
000001e0: a566 913e 215a 913d 7d29 01bc 8974 4fbd
000001f0: bfdd 533e 3000 86bd 4d46 19be a180 afbb
00000200: cb8a cabd 6679 8b3e 8c9e 65be 95fd 10be
00000210: a332 353d d79f 483c 2292 8abb 235b 09bd
00000220: 86a1 52bd bca4 4e3c 824c 01be d3aa d53d
00000230: 3942 dd3c 5b38 043e a671 7c3d f9f2 05bd
00000240: 40d5 abbd 908d e2bd 5e32 303e 71c7 b73e
00000250: ba32 e93d 6a7d 7ebc 7905 dcbd d343 9abd
00000260: 6cbf 273b 9f4c 82be 2149 3c3e 81e5 253e
00000270: 86b7 fb3c 2972 5ebe 705a babe 6d35 a93d
00000280: 5e4d 823d 7118 223e 3ae2 8fbc 9a57 85bd
00000290: 6083 973c 5df3 a63d 0079 13be 25da 16bd
000002a0: d00c 213e e99f 023e 006f 59be 7bc8 ccbd
000002b0: 744c 343d 2e37 c03c 3128 c13d 01ec 5d3d
000002c0: 18ef 9f3e ed1b 693c 3333 f1bd 0c9a 59ba
000002d0: e090 8f3e b244 963d d77a 523d e42c db3d
000002e0: 4e80 1ebd b1f9 4a3d 5f8a e93c 547d 8b3e
000002f0: db79 da3d ae81 32bd bab2 383e 6c52 29be
00000300: 900b 32be 9b76 07be 3215 0c3e 6226 013d
00000310: c23e e5bd b0b5 69bd 5f5e 923d a1e8 37be
00000320: 69e9 efbd 9dfe 1f3c 99de fb3d 4c38 e43b
00000330: 1b7b bbbd 8d3e c1bd 7cd5 c5bd fc0c a13d
00000340: 96a1 203b 9863 81bc 6085 7f3c 9cd9 48bd
00000350: 9162 90bd 820b b63d 103a 49bd 4c1e 4dbe
00000360: 6c47 163d e5ae 65bd ea45 70be 93f8 d9bd
00000370: 2372 d7bd 2d9b 823d 8e3c 983e 108a dd3d
00000380: f776 dc3d e4c2 cbbd d766 1ebd 9a68 17be
00000390: 3e10 743e f812 283e b3d5 923e 6e4f 0a3e
000003a0: 0aa9 8cbd bafc b3bc fafb 67bd 65de ab3b
000003b0: 21a1 77be 6ffe a1bd 07ab 15bd a315 073e
000003c0: 005e 2abd 0149 9a3d d972 f43d 7e86 36be
000003d0: 1235 e43d 8857 e23d 6885 4f3e bf74 863d
000003e0: 86d6 8cbd f25d 873d 3e24 4a3d 38a5 5dbd
000003f0: 107a bc3d c7d2 69bd 6c91 4abd 4502 0b3e
-0.047353644 0.028563585 0.05914367 -0.2801956 0.07590157 0.03884 -0.060805157 -0.23510596
0.019535406 -0.028091079 0.005026443 -0.0069917575 -0.10830925 0.046011396 -0.007420958 0.061206196
-0.06458083 -0.08642953 -0.25649604 -0.24578 0.011060562 -0.14936504 -0.012792136 -0.08405758
0.15322475 0.13828762 0.1337356 -0.1343946 0.13201177 0.024974765 0.10168405 0.09511701
0.047213778 0.18535657 0.0045289425 -0.08006512 -0.21343482 -0.055629414 -0.09424078 0.04028678
0.116898276 0.08910441 -0.06750559 -0.07370488 0.0009872471 0.22923921 -0.24832839 -0.0659299
-0.2697313 -0.034874678 0.10304883 -0.013732633 0.123799205 -0.08439751 -0.026411125 0.07478102
0.28034383 0.03483729 0.17316787 -0.07457064 0.14941102 -0.10886064 0.07062432 -0.2653754
0.12136589 0.026357949 0.20062906 0.019948509 -0.0012319783 -0.043439716 0.06322615 -0.05052238
0.066826455 -0.25049663 0.052382175 -0.072045475 -0.080582015 -0.05074358 -0.16189988 0.006845692
-0.017413389 -0.13656527 0.25121665 -0.011459716 -0.19091879 -0.053868636 0.12695496 0.21978024
0.10237896 -0.21655098 0.06654964 0.0535177 -0.13470936 0.096264854 0.039555486 0.018701151
0.032509264 -0.2113531 -0.13875651 0.15295453 -0.06164565 0.16259146 0.085668035 -0.13812678
-0.15346166 -0.013954571 -0.06676859 -0.05581506 -0.21821015 -0.19151114 -0.08245851 -0.114803195
-0.11985307 -0.03885038 -0.039752234 0.14127791 0.009333219 0.06647029 -0.17911433 -0.09846668
0.28398624 0.07097269 -0.007883427 -0.050648246 0.20690058 -0.065430045 -0.14968224 -0.00535591
-0.09889754 0.27241057 -0.22423762 -0.14159234 0.044237744 0.01224514 -0.004228846 -0.03353418
-0.051423572 0.012612518 -0.12626842 0.10432973 0.027009116 0.12912123 0.06163182 -0.03270242
-0.083902836 -0.11062157 0.17206714 0.3589435 0.113866284 -0.015532831 -0.10743231 -0.07532468
0.0025596274 -0.25449082 0.18387271 0.1620083 0.03072716 -0.21723236 -0.36397123 0.08262143
0.06362413 0.15829636 -0.017563928 -0.06510849 0.018495262 0.081518866 -0.14401627 -0.036829133
0.15727544 0.12756313 -0.2123375 -0.09999176 0.044018224 0.023463812 0.09431494 0.05418015
0.31237102 0.014227849 -0.117773436 -0.0008300848 0.28040218 0.07337321 0.05138668 0.107019216
-0.03869658 0.04955453 0.028508363 0.27244055 0.10667773 -0.043580703 0.18036929 -0.16535348
-0.17387223 -0.13228838 0.1367996 0.031530745 -0.11193611 -0.057058036 0.07146906 -0.17959835
-0.11714441 0.009765294 0.122983165 0.006964719 -0.0915434 -0.09435759 -0.096598595 0.07863805
0.0024510375 -0.01579456 0.015595764 -0.049035653 -0.0705005 0.08888914 -0.04912764 -0.20031089
0.036689207 -0.056074996 -0.2346417 -0.10643115 -0.10519817 0.06377254 0.297337 0.10817349
0.10764878 -0.09949282 -0.038672294 -0.14785996 0.23834321 0.16413486 0.28678665 0.13506863
-0.06868179 -0.021971095 -0.056636788 0.0052450174 -0.2418256 -0.079098575 -0.036540058 0.13191848
-0.04159355 0.07533456 0.11935968 -0.17824742 0.11142935 0.110518515 0.20265734 0.06565236
-0.068768546 0.066097155 0.04935097 -0.054112643 0.09202969 -0.05708578 -0.04945509 0.13575085

net.2.bias f4 [60]
00000000: 0799 77bd d561 e9bd b54f da3d 11d1 a63b
00000010: 9bf0 a9bb 06c7 5cbc cad6 94bd 4709 dd3c
00000020: 3d41 dbbd b319 e2bc edfa 5c3d ce3e cfbc
00000030: 426e 23bd b30b f43c bc16 49bd 75a7 093d
00000040: df8c 8a3d cffd 8b3c 154d 4c3d 15cb e03d
00000050: c8ed 953b d57f 0d3d bf72 87bd 1adb 8dbd
00000060: 0142 5f3d e952 ce3b 15c5 a23d 97db 513d
00000070: 0d09 63bd 5c19 efbd 415d cabd b269 873c
00000080: 9593 1cbd 6703 603c ee65 8bbd 789d 7f3d
00000090: 472c debd 695d bb3d de1c 4fbd 5878 4f3d
000000a0: 1acf 8b3c b667 b2bd 4a64 293d 4a8f 313d
000000b0: a1b0 08bd 86b5 973d 324f b6bd 9152 a33d
000000c0: b69f e53d bd90 8abb 399f 8dbd 8070 d1bc
000000d0: dbef 243d 4923 53bd 47e5 44bc 40e3 c0bd
000000e0: 03bb d93d 6ff0 c2bd 8bac 81bd 9387 ccbc
-0.060448673 -0.11395613 0.10659734 0.0050908406 -0.005186153 -0.013475185 -0.0726753 0.026981963
-0.107058026 -0.027600145 0.05395024 -0.025298502 -0.039900072 0.029790735 -0.049093947 0.033606965
0.0676515 0.017088799 0.0498782 0.10976235 0.004575465 0.03454574 -0.06613683 -0.06926556
0.054506306 0.0062965048 0.07947747 0.051234808 -0.055428553 -0.11674759 -0.09881068 0.016529892
-0.038226683 0.013672686 -0.06806551 0.062406033 -0.10848289 0.09148676 -0.05056464 0.050651878
0.017066527 -0.087111875 0.04135541 0.04334954 -0.03337157 0.0740767 -0.08901824 0.07974733
0.11212103 -0.00422868 -0.06915135 -0.02556634 0.040267807 -0.051547322 -0.012017555 -0.094183445
0.10631373 -0.09518515 -0.06331738 -0.02496699

net.5.weight f4 [1, 60]
00000000: 4d09 f6bd 5bdc 6e3d 2ba0 94be a118 fb3d
00000010: 5af9 8abe 2c8e 133c 9646 813c c4a5 333d
00000020: 2920 503b 09da 8f3c 40dd b63b 81a6 323d
00000030: 8316 c5be 6ba8 903e 7c7c c13d a852 15bd
00000040: 7995 823d e653 d33d 2f78 173e c334 a33d
00000050: b6fe 6a3e 3551 523c bc3e d6bd fee5 163e
00000060: 3c8b 0c3d af51 9abe b8ce 203e 9e7a 123d
00000070: 5c90 673c ee4f 043e 0ba8 9dbd 63ad 873b
00000080: ab17 df3e 3491 f53c 75bb 6b3d 0e44 09be
00000090: 3deb 4e3d 9791 4e3d 0cc9 83bd bf1d 17be
000000a0: 04fd 60bd 7153 ac3d d8c4 563e eb79 7abc
000000b0: 944b 1a3d 8e2d 9ebd 2219 edbd a6ac 13be
000000c0: d36c 56bb f5f9 b6bd 52fd 7dbd 5848 233c
000000d0: 3e6a aabd 1390 b73d d338 ac3c 78ba 24be
000000e0: 6414 983e b493 583d 47b0 86be ad21 63bd
-0.12013493 0.058315616 -0.29028448 0.12260557 -0.27143365 0.009006064 0.015780728 0.04385926
0.003175745 0.017560022 0.0055805743 0.04361582 -0.38493738 0.28253493 0.09447572 -0.03645578
0.06376166 0.10318737 0.1479194 0.07969048 0.22948727 0.012836744 -0.104611844 0.14736173
0.03431247 -0.30140445 0.15703857 0.035761468 0.014133539 0.12921116 -0.07698067 0.0041405424
0.43572745 0.029976465 0.05755182 -0.13404867 0.05051731 0.050431814 -0.06434831 -0.14757441
-0.054928795 0.08414353 0.20973527 -0.015287857 0.037669733 -0.077235326 -0.11577059 -0.14421329
-0.0032718673 -0.08934394 -0.062009163 0.009965979 -0.08321045 0.08963027 0.02102319 -0.16086757
0.29703057 0.052875236 -0.26306364 -0.055452038
