pretrained model/model_XJTU_2.pth (torch, 60271 bytes, 14 tensors)

encoder.net.0.weight f4 [60, 17]
-0.042176154 -0.09116312 -0.19063479 0.16904631 -0.037481558 -0.12023237 -0.17273578 -0.03295306
-0.039974734 -0.013424204 0.024864543 -0.3076592 -0.05156235 0.069628686 0.20774053 -0.2820591
-0.14085378 -0.08611881 0.17719822 -0.13096872 0.365932 0.00025945142 0.10892214 0.10156344
0.06429468 -0.12543342 -0.05348833 0.1397588 0.010119043 -0.32515544 0.21863607 -0.04422083
0.09329135 0.228985 -0.01668371 -0.26807362 -0.2671507 0.09744235 -0.08619446 0.05869531
0.24987563 0.0728012 0.09836907 -0.18915212 0.16626418 -0.06855583 -0.16490632 -0.000572467
0.011461238 0.2738611 -0.10976972 0.04545138 -0.112181745 0.30599117 0.41839683 0.06323687
-0.15532456 -0.06757777 -0.08543065 -0.14090455 -0.124203034 -0.22978087 0.41454744 -0.040638015
0.3477867 -0.093888015 -0.32464877 0.056882918 -0.0052910033 0.09697067 -0.18703276 0.09782214
0.06706146 -0.08877581 0.055019416 0.19337636 0.07145125 -0.29083747 -0.09596697 -0.037897885
0.047485467 0.049406923 0.07978189 0.017447542 -0.1413642 0.017459612 -0.20118897 0.18019305
-0.12090863 0.012745393 0.2952204 0.20718732 0.04081029 -0.20996307 0.009859374 -0.21032481
-0.11517297 -0.199127 -0.21158783 0.15241069 0.016150145 0.08160206 -0.053558227 -0.06622717
-0.13011971 -0.08910616 -0.24638823 -0.15221977 -0.00715204 0.14995407 -0.07818496 -0.09747937
0.03685828 -0.062361892 0.119302325 -0.25477052 -0.075949065 -0.087106846 -0.113836564 -0.12684768
-0.018677495 0.026805082 0.15704371 0.17871676 0.2958427 -0.16936684 0.08890584 -0.18089837
0.011480178 -0.04009482 -0.08645916 -0.015604477 -0.067143686 -0.0004466724 0.20770206 -0.1538203
-0.16050579 -0.093128294 -0.2070262 0.06632063 -0.09845751 -0.19150229 -0.16099729 0.093164355
-0.33755493 0.22991869 -0.12074107 -0.30152407 -0.08274815 -0.19776525 0.17518537 -0.34428522
0.061929416 0.024027653 0.19980055 -0.19836678 0.17568095 -0.06898935 -0.26660275 0.00021687198
0.013640388 -0.15376431 -0.3357717 0.21509857 0.021417385 -0.19057737 -0.06131577 -0.07924986
0.005013664 0.048214324 -0.046511486 -0.0047945892 -0.108968474 0.108432174 -0.0062150573 -0.030933268
-0.13764012 -0.21170197 -0.15929505 0.115616955 -0.10751602 -0.17087442 0.1645238 -0.026593605
0.16319148 -0.2330669 0.260357 0.09152519 -0.084422775 -0.2005954 0.09875912 -0.029003996
0.059512563 0.095819354 0.20120397 -0.0011012518 0.002703282 0.0731775 0.08899961 0.03157165
0.13525975 0.15486252 0.13218848 0.021033121 0.3519906 -0.0645101 0.17636435 -0.09409328
-0.11340458 -0.06992223 -0.19485846 -0.06510744 0.013478938 0.11096916 0.20704456 -0.19382632
-0.01047446 -0.25216058 -0.10651346 -0.027929738 0.007292171 0.25227112 0.061967805 -0.13171904
0.06591911 -0.048856728 -0.2531597 0.18146445 0.007870553 0.14140643 0.018375838 0.013106611
0.04072892 0.23213772 -0.0036706107 -0.1563562 0.01627722 0.015378281 -0.32344502 0.21100353
0.041074734 -0.15794264 0.31942773 -0.19367743 -0.25509095 0.30274737 -0.3572528 -0.06208517
-0.0064353575 -0.02709034 0.20273162 -0.23619023 0.034337386 0.10117323 -0.16578132 0.115575105
00000000: e7c0 2cbd bbb3 babd c435 43be 7a1a 2d3e
00000010: 4386 19bd 643c f6bd a6e1 30be caf9 06bd
00000020: 8cbc 23bd 31f1 5bbc bab0 cb3c 8285 9dbe
00000030: 0b33 53bd 7c99 8e3d efb9 543e 0d6a 90be
00000040: f93b 10be 0f5f b0bd 7373 353e aa1c 06be
00000050: 705b bb3e fb06 8839 9212 df3d 7e00 d03d
00000060: eeac 833d 9e71 00be 9416 5bbd ee1c 0f3e
00000070: 58ca 253c c67a a6be 22e2 5f3e e720 35bd
00000080: 890f bf3d 0b7b 6a3e 47ac 88bc f240 89be
00000090: fac7 88be db8f c73d b986 b0bd 7e6a 703d
000000a0: 66df 7f3e cc18 953d b975 c93d 18b1 41be
000000b0: 2841 2a3e 0067 8cbd 34dd 28be 9c11 16ba
000000c0: ebc7 3b3c 8637 8c3e f2ce e0bd 3a2b 3a3d
000000d0: 8bbf e5bd e0aa 9c3e 1c38 d63e 5582 813d
000000e0: 670d 1fbe 3766 8abd 44f6 aebd 4849 10be
000000f0: 295e febd ad4b 6bbe 903f d43e 0c74 26bd
00000100: 1911 b23e 5c48 c0bd 5d38 a6be 10fe 683d
00000110: 2760 adbb 8f98 c63d 8485 3fbe f956 c83d
00000120: 8557 893d 18d0 b5bd 0a5c 613d 7404 463e
00000130: 0855 923d a6e8 94be 558a c4bd d03a 1bbd
00000140: 1f80 423d ea5e 4a3d b064 a33d 26ee 8e3c
00000150: c7c1 10be 7607 8f3c 7b04 4ebe 8784 383e
00000160: f29e f7bd 0ed2 503c 2127 973e ea28 543e
00000170: b128 273d 8f00 57be 3689 213c 635f 57be
00000180: cedf ebbd f3e7 4bbe 7baa 58be 8c11 1c3e
00000190: 4f4d 843c fb1e a73d df5f 5bbd 1ca2 87bd
000001a0: 1a3e 05be 4a7d b6bd 324d 7cbe 80df 1bbe
000001b0: a95b eabb 8f8d 193e 701f a0bd 44a3 c7bd
000001c0: b5f8 163d 2f6f 7fbd c754 f43d 4871 82be
000001d0: 2f8b 9bbd 1365 b2bd 2523 e9bd 5ce4 01be
000001e0: 8c01 99bc 5596 db3c 11d0 203e 8701 373e
000001f0: b278 973e 806e 2dbe 4414 b63d 6c3d 39be
00000200: 5b17 3c3c 773a 24bd 8011 b1bd eca9 7fbc
00000210: a182 89bd 5b2f eab9 d9af 543e 1283 1dbe
00000220: a15b 24be 0cba bebd adfe 53be 1cd3 873d
00000230: 17a4 c9bd 2d19 44be 79dc 24be f4cc be3d
00000240: 00d4 acbe ce6f 6b3e 1847 f7bd 5d61 9abe
00000250: dd77 a9bd f982 4abe cb63 333e 2746 b0be
00000260: b3a9 7d3d a4d5 c43c 8498 4c3e a920 4bbe
00000270: b5e5 333e 4a4a 8dbd 2880 88be 2168 6339
00000280: ef7b 5f3c 6474 1dbe 45ea abbe cd42 5c3e
00000290: 8373 af3c b726 43be 3f26 7bbd c04d a2bd
000002a0: a949 a43b 627c 453d d482 3ebd ee1b 9dbb
000002b0: dd2a dfbd b011 de3d aea7 cbbb c467 fdbc
000002c0: 88f1 0cbe 67c8 58be 3e1e 23be 95c8 ec3d
000002d0: 5c31 dcbd b4f9 2ebe ed78 283e d5da d9bc
000002e0: ab1b 273e 17a9 6ebe 834d 853e 8f71 bb3d
000002f0: d9e5 acbd e168 4dbe 3942 ca3d ca99 edbc
00000300: 72c3 733d f03c c43d 6a08 4e3e e157 90ba
00000310: 8c29 313b 16de 953d 6d45 b63d 4651 013d
00000320: 8881 0a3e 4894 1e3e 6b5c 073e a74d ac3c
00000330: 1d38 b43e df1d 84bd db98 343e fab3 c0bd
00000340: a940 e8bd 6333 8fbd fa88 47be 0d57 85bd
00000350: c3d6 5c3c cd43 e33d 7d03 543e 687a 46be
00000360: 129d 2bbc 311b 81be bb23 dabd e8cc e4bc
00000370: 2af3 ee3b ae29 813e f4d1 7d3d 5be1 06be
00000380: 9900 873d fe1d 48bd 269e 81be d1d1 393e
00000390: 7ef3 003c d9cc 103e ed88 963c 1cbd 563c
000003a0: 5ed3 263d 83b5 6d3e a18e 70bb d71b 20be
000003b0: ce57 853c 2ff5 7b3c 969a a5be 4f11 583e
000003c0: fb3d 283d b7bb 21be 088c a33e 6053 46be
000003d0: 489b 82be b401 9b3e d7e9 b6be 054d 7ebd
000003e0: b1df d2bb 90ec ddbc e198 4f3e dadb 71be
000003f0: 5ca5 0c3d e933 cf3d 94c2 29be a4b2 ec3d

encoder.net.0.bias f4 [60]
-0.023701135 0.003765486 -0.030956727 0.026927512 -0.012749441 -0.012981989 0.019092519 -0.024992265
0.028850762 -0.011533619 -0.027279995 0.019486343 0.010068153 -0.026448578 -0.029036008 0.023032915
0.022999277 0.03141449 -0.028893707 -0.0377403 0.017541012 0.017080648 0.05101772 -0.031869907
-0.02519668 -0.029342685 0.021276252 0.0131454235 0.019760802 -0.010143504 0.025630068 0.01837438
0.030890938 -0.03119169 0.027697392 0.026431981 -0.020498922 0.028233666 -0.0017851044 0.022826621
-0.029912947 0.034065165 0.018446755 0.023447921 0.032694742 -0.023961766 0.024311017 0.026970904
-0.0022075532 0.050893646 -0.029295543 0.01596177 0.018170943 0.029131854 0.028476765 0.025949746
-0.0022548875 -0.03087773 -0.02752702 -0.024837077
00000000: e228 c2bc 5fc6 763b f698 fdbc 1697 dc3c
00000010: 08e3 50bc 69b2 54bc ea67 9c3c 94bc ccbc
00000020: 6f58 ec3c 81f7 3cbc 4c7a dfbc d3a1 9f3c
00000030: e5f4 243c b0aa d8bc ecdc edbc 86af bc3c
00000040: fb68 bc3c 7bac 003d 7fb2 ecbc 9395 1abd
00000050: 2bb2 8f3c b7ec 8b3c f5f7 503d 058a 02bd
00000060: 4569 cebc 1260 f0bc 894b ae3c e75f 573c
00000070: 68e1 a13c f030 26bc 26f6 d13c de85 963c
00000080: fe0e fd3c b785 ffbc a4e5 e23c e287 d83c
00000090: 5bed a7bc 4a4a e73c 2afa e9ba e5fe ba3c
000000a0: ff0b f5bc ea87 0b3d a61d 973c db15 c03c
000000b0: ecea 053d 774b c4bc e627 c73c 16f2 dc3c
000000c0: 99ac 10bb db75 503d 35fd efbc 42c2 823c
000000d0: 3bdb 943c eda5 ee3c 1b48 e93c 9094 d43c
000000e0: bcc6 13bb 4bf3 fcbc 5880 e1bc 2077 cbbc

encoder.net.2.weight f4 [60, 60]
0.10835074 0.04730766 -0.23508856 -0.15451607 -0.07922908 -0.13173126 -0.11545902 0.09534376
0.045605328 0.03173842 -0.1297979 0.05593163 0.046392433 0.20180869 0.112575166 0.103069864
-0.084514566 0.13314234 -0.08449672 -0.2090343 -0.013494564 -0.03261112 -0.11133638 0.03912826
0.15849005 -0.19044988 0.03204451 0.0009560546 -0.1834317 -0.1625842 0.014608217 -0.1347986
0.23543459 -0.11425122 -0.0020062248 -0.021581965 0.110364854 -0.09490471 -0.061182 -0.071510166
-0.0174756 0.06397959 -0.008502435 -0.06636114 0.02840043 -0.07248892 -0.056801684 0.23587476
0.108562805 -0.0849026 -0.04341488 0.0866403 -0.0028297836 0.17716415 -0.0423693 0.14140911
0.085710295 0.054698125 -0.0992061 0.008553955 0.086820185 -0.15639146 -0.080578744 -0.08091758
-0.1515023 -0.21087244 0.007615024 0.0069152256 0.16400255 -0.002759552 0.33387977 -0.021963205
-0.07681088 0.1166247 -0.06853152 -0.057518408 -0.24253736 -0.06782664 -0.020681364 -0.17995368
-0.003242084 0.024332784 -0.06171906 0.034341693 0.26535523 -0.0675355 0.040063065 -0.15817776
0.21810912 -0.38510984 -0.06563938 0.03944593 0.11968731 0.090700544 -0.00088471704 0.00292862
0.038771614 -0.03655135 0.12670718 -0.2517191 -0.005326655 -0.03756557 -0.10799545 0.04387143
0.054105036 0.056630477 0.0028440447 -0.10472685 0.17702027 -0.020418799 0.25694707 0.2866783
0.084637806 -0.2533591 -0.2534528 -0.05644239 -0.28223893 0.012983375 0.18423076 -0.026584944
0.21646102 0.057791933 -0.014763699 -0.08961554 -0.03240283 -0.09949924 0.29393113 0.08872268
0.1911805 0.24876252 -0.2850864 -0.14221129 -0.12846974 0.036551747 0.10459459 -0.1500924
0.07219512 0.20821501 -0.05642156 -0.043751642 -0.035810396 -0.13225776 0.17578761 -0.19329755
-0.018348858 0.0405757 -0.1855404 0.35687017 -0.16705653 -0.10228493 -0.13531278 -0.07637347
0.07557228 -0.02336132 -0.13719623 0.19903988 0.13725382 0.25395986 0.08338546 0.16419977
-0.02477223 0.18949609 -0.048246324 -0.059860133 0.0056408197 -0.15784724 -0.10302687 -0.1014108
-0.061964594 -0.0026547615 -0.04335952 0.041692898 -0.21731246 -0.08336038 0.0063339043 0.04554114
0.094606996 0.13838848 -0.046618205 -0.07717523 -0.15832853 0.096973814 0.0548074 -0.094229154
0.15990277 0.0722267 -0.039590757 0.02444788 0.03324298 0.2732624 -0.06553744 -0.050386187
-0.052644435 -0.06033644 -0.29046157 -0.005704072 -0.105780944 -0.11179083 0.10328413 -0.002722797
0.06297892 0.053961113 0.08213424 -0.033238914 0.013815029 0.015470938 0.05733493 -0.16279715
-0.019887213 0.16197965 -0.10455895 0.019584395 -0.07298112 0.18179691 0.10644961 0.046579987
-0.06593512 -0.037924133 0.06442635 -0.24972656 0.1245257 0.08320197 0.0022726704 0.055964287
-0.14180154 0.15978774 0.21160887 0.17007793 -0.045922488 0.082590155 -0.19879884 -0.21779032
0.103962325 0.0482652 -0.016478976 0.02647744 -0.036831416 0.17159027 -0.19707991 0.18318467
-0.06697513 -0.040381655 0.14016306 0.08332776 -0.024860552 -0.1260348 -0.15385391 -0.0065447777
0.009464466 0.11881438 0.063623294 -0.07887157 -0.01472402 0.17071854 0.3288991 0.2252938
00000000: fee6 dd3d adc5 413d 0ebb 70be 7639 1ebe
00000010: db42 a2bd 8fe4 06be c775 ecbd 9743 c33d
00000020: a7cc 3a3d 2500 023d bee9 04be 9118 653d
00000030: fe05 3e3d f0a6 4e3e cf8d e63d 4b16 d33d
00000040: f915 adbd 7756 083e 9e0c adbd 160d 56be
00000050: 4e18 5dbc 3d93 05bd 5404 e4bd f444 203d
00000060: 374b 223e 4b05 43be 1b41 033d bd9f 7a3a
00000070: 85d5 3bbe 797c 26be 4e57 6f3c a508 0abe
00000080: c415 713e 8bfc e9bd de7a 03bb a9cc b0bc
00000090: f806 e23d 675d c2bd fa99 7abd ec73 92bd
000000a0: fd28 8fbc bb07 833d cc4d 0bbc 59e8 87bd
000000b0: 05a8 e83c 1275 94bd e2a8 68bd 2789 713e
000000c0: 2d56 de3d 6ae1 adbd cdd3 31bd 7870 b13d
000000d0: e473 39bb 856a 353e 6e8b 2dbd 8dcd 103e
000000e0: e188 af3d 240b 603d 912c cbbd e325 0c3c
000000f0: c8ce b13d 1525 20be 7806 a5bd 1eb8 a5bd
00000100: 6b23 1bbe f2ee 57be 7487 f93b 1e99 e23b
00000110: 49f0 273e 9ad9 34bb 4af2 aa3e 2eec b3bc
00000120: 064f 9dbd eed8 ee3d 415a 8cbd 6c98 6bbd
00000130: b75b 78be b2e8 8abd f76b a9bc c745 38be
00000140: 2579 54bb 8c55 c73c 20cd 7cbd e0a9 0c3d
00000150: a4dc 873e 0d50 8abd 2b19 243d 5af9 21be
00000160: ff57 5f3e 1e2d c5be f06d 86bd 0e92 213d
00000170: 9f1e f53d 35c1 b93d 5bec 67ba 17ee 3f3b
00000180: fcce 1e3d deb6 15bd 87bf 013e 53e1 80be
00000190: 398b aebb 5bde 19bd b82c ddbd 87b2 333d
000001a0: 3e9d 5d3d 5cf5 673d 2763 3a3b 087b d6bd
000001b0: cd44 353e 5345 a7bc 918e 833e 80c7 923e
000001c0: 9656 ad3d 49b8 81be 91c4 81be 2330 67bd
000001d0: 9f81 90be 39b8 543c fda6 3c3e abc8 d9bc
000001e0: f5a7 5d3e 3cb7 6c3d 71e3 71bc 5a88 b7bd
000001f0: d4b8 04bd 42c6 cbbd 247e 963e 3db4 b53d
00000200: d2c4 433e 9abb 7e3e d8f6 91be d69f 11be
00000210: 928d 03be 49b7 153d b035 d63d d2b1 19be
00000220: 09db 933d 5136 553e 4b1a 67bd ec34 33bd
00000230: ecad 12bd 946e 07be ab01 343e cbef 45be
00000240: 5850 96bc b532 263d 4dfe 3dbe b0b7 b63e
00000250: de10 2bbe c37a d1bd 6f8f 0abe b269 9cbd
00000260: a4c5 9a3d 3d60 bfbc 2b7d 0cbe 1cd1 4b3e
00000270: 448c 0c3e 0707 823e ffc5 aa3d fc23 283e
00000280: 22ef cabc 430b 423e f09d 45bd e62f 75bd
00000290: a0d6 b83b b5a2 21be c0ff d2bd 77b0 cfbd
000002a0: 96ce 7dbd 82fb 2dbb c199 31bd 2cc6 2a3d
000002b0: 2887 5ebe d9b8 aabd a48c cf3b 5989 3a3d
000002c0: 50c1 c13d b6b5 0d3e bbf2 3ebd 0c0e 9ebd
000002d0: e020 22be 359a c63d b97d 603d 37fb c0bd
000002e0: 8dbd 233e 98eb 933d eb29 22bd ec46 c83c
000002f0: ca29 083d 0de9 8b3e 7e38 86bd bf61 4ebd
00000300: b1a1 57bd 5823 77bd 61b7 94be 39e9 babb
00000310: aea3 d8bd 97f2 e4bd a186 d33d f470 32bb
00000320: 18fb 803d 5406 5d3d ff35 a83d 8725 08bd
00000330: 6e58 623c d179 7d3c 08d8 6a3d 4cb4 26be
00000340: 82ea a2bc fedd 253e 0123 d6bd 746f a03c
00000350: 2077 95bd f828 3a3e 4102 da3d a8ca 3e3d
00000360: fe08 87bd 5656 1bbd f6f1 833d 52b8 7fbe
00000370: 5507 ff3d cb65 aa3d 15f1 143b cf3a 653d
00000380: 6c34 11be 669f 233e ffaf 583e e928 2e3e
00000390: 3819 3cbd 0725 a93d ec91 4bbe 6d04 5fbe
000003a0: 33ea d43d bbb1 453d ebfe 86bc 37e7 d83c
000003b0: 8adc 16bd 5cb5 2f3e 51cf 49be c394 3b3e
000003c0: 422a 89bd 3c67 25bd e886 0f3e bfa7 aa3d
000003d0: 5ba8 cbbc 440f 01be e18b 1dbe 9375 d6bb
000003e0: d910 1b3c f454 f33d ee4c 823d 6b87 a1bd
000003f0: 043d 71bc d7d0 2e3e 7665 a83e 6bb3 663e

encoder.net.2.bias f4 [60]
0.029793222 -0.01992797 0.040928703 0.037792206 0.01181738 -0.032337707 0.017940197 -0.024451602
0.008267752 -0.037613656 0.030935673 -0.031031637 0.024813034 -0.028386287 -0.0012569464 0.021098027
-0.027789136 0.030856522 -0.033011854 -0.029836832 0.026452785 -0.028851394 -0.029152134 -0.028061228
-0.026545215 0.014380523 -0.021169668 -0.023331223 -0.0022830109 0.0064583635 -0.030014325 0.02714321
0.043430947 -0.019020107 -0.03470858 0.022065029 0.025867587 -0.030213661 -0.009148961 0.042247143
-0.041226447 -0.026986497 0.026431534 0.030427286 -0.019556861 -0.024420273 0.02918606 0.048495006
-0.026826013 0.026942857 0.019412385 0.022184802 -0.014363555 0.027743656 0.014593641 0.010247626
-0.034990005 0.02725056 0.0361772 -0.016609939
00000000: ea10 f43c fb3f a3bc dba4 273d 00cc 1a3d
00000010: af9d 413c 8b74 04bd 52f7 923c ba4e c8bc
00000020: 7775 073c c710 1abd cf6c fd3c 0f36 febc
00000030: b444 cb3c 5c8a e8bc 1fc0 a4ba c5d5 ac3c
00000040: 0ba6 e3bc d1c6 fc3c 7037 07bd 5f6c f4bc
00000050: 83b3 d83c c259 ecbc 75d0 eebc a9e0 e5bc
00000060: 5a75 d9bc 499c 6b3c 036c adbc 1f21 bfbc
00000070: 919e 15bb aea0 d33b 9ae0 f5bc 705b de3c
00000080: a6e4 313d 0ed0 9bbc 952a 0ebd b8c1 b43c
00000090: 43e8 d33c a482 f7bc 86e5 15bc 570b 2d3d
000000a0: 10dd 28bd c912 ddbc f286 d83c a542 f93c
000000b0: b635 a0bc 060d c8bc 9b17 ef3c b3a2 463d
000000c0: 3ac2 dbbc 44b7 dc3c b906 9f3c e7bc b53c
000000d0: 1e55 6bbc aa46 e33c 2b1a 6f3c a9e5 273c
000000e0: ae51 0fbd 913c df3c 8b2e 143d 9111 88bc

encoder.net.5.weight f4 [32, 60]
0.021506857 0.06302657 -0.14792402 0.037360433 0.10008189 0.032781076 -0.06548971 0.11431161
-0.1043019 0.04210499 0.1536368 0.055136744 -0.14588182 0.054649413 0.053602427 -0.12796995
-0.063018955 -0.259108 0.074697874 0.15876558 0.24832428 -0.12687974 -0.017054562 -0.018618628
-0.1610934 -0.105135836 -0.1387782 -0.18827307 0.010136703 0.0030460411 -0.05291393 0.012139854
0.018574178 -0.2353847 0.059173085 -0.1445285 -0.09383979 0.12344772 0.22515178 0.05447986
-0.040912036 0.08875616 -0.022843372 -0.15977281 0.09558218 -0.07639515 0.19456738 -0.03941426
0.08092872 -0.15913078 -0.21999545 -0.09225676 0.10843113 0.043114994 -0.18080413 -0.030891784
0.11326115 0.0067995586 0.13275784 0.036707137 -0.08937523 -0.0057238624 0.11561245 -0.12613954
0.09021226 0.2518966 0.14028782 -0.1555881 -0.18358713 0.016774986 -0.16613472 0.22562213
0.06868197 0.14862378 0.06858786 -0.18218577 0.04673998 -0.14976372 -0.012297749 0.050326776
-0.14167844 -0.18247014 -0.06265807 0.11345156 -0.0779697 -0.01645222 0.28375039 -0.038918894
0.08817359 0.06968134 0.17581517 0.17656846 0.0048716324 -0.08183555 -0.24081224 0.016784161
-0.17381422 0.034795795 -0.18196084 0.11508097 -0.11616666 -0.15334272 -0.008542554 -0.41493845
0.19909616 0.032063197 0.044780303 0.083019234 0.10486221 0.119925655 0.015713733 -0.09231234
-0.17348097 -0.26342487 -0.04846652 0.021814516 0.002766554 0.09483318 0.14586386 -0.13649602
0.26908332 0.19398427 0.08958803 0.29085985 0.13030571 -0.1810064 -0.08980342 0.25888094
0.06269608 0.09938109 -0.12112785 -0.034491405 0.07335011 -0.11573328 0.043524954 -0.1751572
-0.036781285 -0.049095076 -0.15167633 -0.23122142 0.113615885 -0.2719057 -0.19214539 0.03608707
-0.14682318 0.18254828 -0.106208295 0.01310886 -0.028822245 -0.14469507 -0.026926083 -0.23490989
0.0101053575 0.029020125 0.004860477 0.059325445 -0.3472942 0.12076675 -0.2456432 -0.09370976
0.009659955 0.15331158 0.18082465 0.00077814976 -0.06845916 0.20959532 -0.083457425 -0.08960625
0.05565563 -0.09212897 -0.0074912263 -0.1344242 0.048100308 0.04971631 0.13838467 -0.18675427
0.011628735 -0.014103608 0.2952107 -0.094775066 -0.13166982 0.21293649 0.15328652 -0.02771202
0.19761439 0.19397217 -0.006686422 -0.1133784 -0.2041468 -0.04470773 -0.098999 0.053047944
-0.1787875 0.12691516 -0.11112037 0.059802644 0.31640556 -0.0028729406 -0.15022737 0.021154499
-0.041660365 -0.28871304 -0.15781963 -0.07744605 0.10475342 0.32067683 -0.099989794 0.10401695
-0.10037591 -0.056930862 0.11377839 0.033114605 -0.07044338 -0.10439267 -0.06313415 -0.24018008
0.1986087 -0.046153344 0.13981421 0.16348329 -0.121996716 -0.05082231 0.109353215 0.17956403
-0.026927074 0.012097565 -0.16075362 -0.054596774 -0.19699606 0.07118487 -0.16214879 -0.11353919
-0.25448763 0.044040784 0.1325427 0.018822074 0.019852063 0.013756761 0.08889684 -0.10635298
0.0626608 0.108636476 -0.04459865 0.007710649 0.2968367 0.084652886 0.10951897 -0.03261225
0.2745646 0.25302666 0.26617453 0.098439895 0.025224408 0.055020094 -0.06946541 -0.060898557
00000000: 262f b03c 1314 813d 6579 17be 4107 193d
00000010: bcf7 cc3d 7345 063d 781f 86bd 351c ea3d
00000020: 3c9c d5bd 4876 2c3d f752 1d3e 11d7 613d
00000030: 0b62 15be 10d8 5f3d 388e 5b3d 8e0a 03be
00000040: 1510 81bd cea9 84be 33fb 983d 7293 223e
00000050: b848 7e3e c3ec 01be 02b6 8bbc 1886 98bc
00000060: abf5 24be 7551 d7bd df1b 0ebe a8ca 40be
00000070: 6a14 263c 17a0 473b 47bc 58bd 3de6 463c
00000080: e028 983c b008 71be 7a5f 723d 47ff 13be
00000090: 132f c0bd 29d2 fc3d 308e 663e 4626 5f3d
000000a0: 6193 27bd cac5 b53d 0622 bbbc 7c9b 23be
000000b0: 97c0 c33d 0f75 9cbd ac3c 473e d970 21bd
000000c0: f5bd a53d 2ef3 22be 7d46 61be 1df1 bcbd
000000d0: 2411 de3d 5999 303d b824 39be c410 fdbc
000000e0: 76f5 e73d d5ce de3b acf1 073e 395a 163d
000000f0: 5c0a b7bd 3d8f bbbb 38c6 ec3d b92a 01be
00000100: 35c1 b83d 97f8 803e 9ca7 0f3e 7d52 1fbe
00000110: 44fe 3bbe b26b 893c 381f 2abe 7d09 673e
00000120: 22a9 8c3d d530 183e cb77 8c3d e88e 3abe
00000130: 6c72 3f3d a95b 19be 7f7c 49bc 7323 4e3d
00000140: 2714 11be 74d9 3abe e052 80bd 4b59 e83d
00000150: 94ae 9fbd cec6 86bc bb47 913e 6b69 1fbd
00000160: 5b94 b43d 17b5 8e3d e408 343e 5dce 343e
00000170: 37a2 9f3b 6699 a7bd 7c97 76be f07e 893c
00000180: 5bfc 31be 0986 0e3d f153 3abe 92af eb3d
00000190: c9e8 edbd e005 1dbe 12f6 0bbc d072 d4be
000001a0: dddf 4b3e b354 033d 8d6b 373d fd05 aa3d
000001b0: 00c2 d63d 959b f53d 16ba 803c 410e bdbd
000001c0: ffa4 31be a0df 86be d484 46bd 5bb4 b23c
000001d0: 134f 353b e637 c23d 565d 153e 9dc5 0bbe
000001e0: 4ac5 893e d0a3 463e ee79 b73d 95eb 943e
000001f0: dc6e 053e be59 39be dbea b7bd 0b8c 843e
00000200: cd66 803d 5088 cb3d e111 f8bd dc46 0dbd
00000210: 9538 963d 9205 edbd 3947 323d 695c 33be
00000220: f9a7 16bd eb17 49bd 0a51 1bbe 4fc5 6cbe
00000230: 72af e83d 3937 8bbe c3c1 44be 09d0 133d
00000240: d158 16be f0ed 3a3e bc83 d9bd 8bc6 563c
00000250: a11c ecbc f22a 14be 1794 dcbc 388c 70be
00000260: f190 253c 9dbb ed3c a344 9f3b 3dff 723d
00000270: 8cd0 b1be 8f54 f73d e489 7bbe e7ea bfbd
00000280: ca44 1e3c b6fd 1c3e 192a 393e bffc 4b3a
00000290: 5134 8cbd 28a0 563e baeb aabd 7b83 b7bd
000002a0: 28f7 633d 1dae bcbd f678 f5bb 7fa6 09be
000002b0: d404 453d 54a3 4b3d b6b4 0d3e 833c 3fbe
000002c0: 7386 3e3c d212 67bc db25 973e 6e19 c2bd
000002d0: 74d4 06be 060c 5a3e 24f7 1c3e 5104 e3bc
000002e0: 6d5b 4a3e a4a0 463e c619 dbbb ef32 e8bd
000002f0: dc0b 51be 741f 37bd fdbf cabd cd48 593d
00000300: 1214 37be 0cf6 013e 1493 e3bd 9ef3 743d
00000310: e9ff a13e f247 3cbb 34d5 19be 334c ad3c
00000320: 0fa4 2abd 32d2 93be 789b 21be 099c 9ebd
00000330: f688 d63d c12f a43e 73c7 ccbd d706 d53d
00000340: e391 cdbd 5630 69bd a504 e93d 2ea3 073d
00000350: 9e44 90bd d3cb d5bd 7a4c 81bd c4f1 75be
00000360: 1460 4b3e 4a0b 3dbd 752b 0f3e 2a68 273e
00000370: 6ad9 f9bd 0e2b 50bd 94f4 df3d a2df 373e
00000380: 2b96 dcbc de34 463c 999c 24be dea0 5fbd
00000390: 56b9 49be 60c9 913d 550a 26be 3c87 e8bd
000003a0: 344c 82be 1c64 343d 46b9 073e c030 9a3c
000003b0: cba0 a23c 0a64 613c 8c0f b63d 97cf d9bd
000003c0: 4e54 803d cd7c de3d 13ad 36bd 9da9 fc3b
000003d0: fbfa 973e 7e5e ad3d 7b4b e03d 6c94 05bd
000003e0: bb93 8c3e b68c 813e 0748 883e db9a c93d
000003f0: 6ba3 ce3c c05c 613d e243 8ebd c470 79bd

encoder.net.5.bias f4 [32]
0.029204695 0.075950146 0.052010227 -0.032929786 0.0761786 0.04641798 -0.034487143 0.031928733
0.030440718 -0.034695346 -0.027478933 -0.043824326 -0.04216485 0.038468335 0.03048405 0.035818312
-0.02794892 -0.030371081 0.028893057 0.03086406 0.031032616 0.026133955 0.039018866 0.044190936
0.03857519 0.036997866 0.05310405 0.03401737 -0.048411086 0.0379994 -0.041581232 -0.0584429
00000000: af3e ef3c c08b 9b3d ad08 553d 62e1 06bd
00000010: 8703 9c3d c820 3e3d 6442 0dbd b4c7 023d
00000020: d05e f93c b51c 0ebd 801b e1bc 2381 33bd
00000030: 0db5 2cbd f990 1d3d b0b9 f93c 39b6 123d
00000040: 22f5 e4bc c6cc f8bc 22b1 ec3c a0d6 fc3c
00000050: 1d38 fe3c e016 d63c 3fd2 1f3d 8e01 353d
00000060: 0501 1e3d 138b 173d a283 593d cc55 0b3d
00000070: b44a 46bd 42a5 1b3d 1551 2abd d361 6fbd

predictor.net.1.weight f4 [32, 32]
0.012453607 -0.18446064 0.1185519 -0.17256168 0.24050775 0.31115785 0.051250894 0.02545295
0.04338548 0.14396434 -0.07748281 0.080087036 0.26462907 0.08901013 0.07542302 0.13239978
-0.26129827 -0.16002284 0.0712572 -0.25057146 0.21035044 0.20105994 0.11533133 -0.015071315
-0.19501431 0.12606105 0.44749048 -0.3125393 -0.08196682 -0.065357424 0.2619823 -0.18866315
0.32091343 -0.02275031 0.14961232 0.13836437 0.078357145 -0.18444908 0.12971632 0.10741739
0.052402634 0.34648013 -0.030855468 0.045717873 0.19426538 -0.23180512 -0.08018417 0.075328134
0.26641712 -0.0116304625 0.088917375 0.14279649 -0.29731905 -0.30342254 0.44281182 -0.06919325
-0.05715201 -0.17886561 0.13043939 0.07022955 0.03529267 0.016728038 0.27715367 -0.27723378
0.020744842 0.03885392 0.14019103 0.043673366 0.031811625 -0.38266465 -0.08543277 0.13972735
-0.011641966 -0.16904503 0.10829392 -0.2034639 -0.1142655 -0.15437604 0.527027 -0.19915843
0.121009335 0.17957596 -0.26060265 -0.03557231 0.28627354 0.07592539 0.3033739 -0.20464122
0.2606889 0.029527156 0.08122657 0.0921536 -0.1375598 -0.16438375 0.028098049 -0.11522833
-0.16492882 -0.09018202 -0.040948704 -0.18129924 0.3227228 0.044002946 0.017072976 -0.15361795
-0.00604534 -0.057995375 0.18103157 -0.15860097 0.51549846 -0.06636893 0.03922244 0.20868526
0.026253816 -0.11383511 -0.00951041 -0.31813014 -0.32462558 0.017426858 -0.25426325 0.07855876
-0.14296074 -0.24175605 -0.21236876 0.05609946 0.094083905 -0.09341143 -0.17739677 -0.013929716
-0.18454593 -0.066652045 -0.03010094 -0.25668117 0.030206302 -0.1441113 -0.33599612 -0.09933587
0.15344523 -0.18730387 0.37578943 0.30127814 -0.24141924 -0.1496226 0.010312344 -0.09104108
0.34174243 0.018402653 -0.019954134 -0.031766217 0.060056634 -0.024943635 0.16161181 -0.16981359
0.018149167 0.056637898 -0.07011685 0.061790314 -0.022735875 0.08841759 0.06184901 -0.018378496
0.16735882 0.20887823 0.36316347 0.03097349 0.3318793 -0.13936414 -0.121625304 -0.110590786
0.29060113 0.22568446 -0.23894148 -0.104765914 0.052570686 0.23022342 0.34929377 0.080210425
-0.2298609 0.006042198 -0.009245273 0.6012049 -0.10220235 0.029118916 0.15483645 0.02366879
-0.17749526 -0.2656629 0.21117139 0.039468963 -0.12053473 0.04162609 -0.045959122 0.021552555
0.020336755 -0.0761186 0.11394484 0.22887641 0.057134945 0.15612584 -0.1496176 -0.20566534
0.17718709 -0.12302552 -0.0882705 0.2758896 -0.20747805 -0.04496294 -0.0056126234 -0.2869507
-0.02859137 -0.05444423 0.13926975 -0.19544932 0.04125461 0.23928614 0.050507363 0.19791244
-0.21456686 -0.21832696 -0.14448528 0.0027012813 0.26314908 0.2673213 -0.055128645 -0.09011383
-0.07925668 0.11386659 0.20333023 -0.03751303 -0.23535004 0.1965716 0.033461194 0.02322124
0.10466326 -0.2967653 -0.0676374 0.010538308 -0.0032741188 0.06888595 -0.08080047 -0.028417226
-0.025731776 -0.12092376 -0.45082036 -0.04542557 -0.1216782 0.017041784 -0.098424315 0.022190807
0.021113874 0.015720591 0.43464747 0.10009645 -0.1890302 -0.08633462 0.13867204 0.081930146
00000000: 370a 4c3c 40e3 3cbe 57cb f23d 02b4 30be
00000010: aa47 763e 1550 9f3e 75ec 513d b482 d03c
00000020: f9b4 313d 636b 133e 4faf 9ebd ac04 a43d
00000030: 767d 873e f14a b63d 6277 9a3d cf93 073e
00000040: e3c8 85be 07dd 23be 4bef 913d e74a 80be
00000050: 1b66 573e a8e2 4d3e d532 ec3d aded 76bc
00000060: d5b1 47be 2616 013e 791d e53e 2705 a0be
00000070: 38de a7bd 1dda 85bd 8b22 863e ea30 41be
00000080: c44e a43e dc5e babc f933 193e 64af 0d3e
00000090: b679 a03d 38e0 3cbe 5bd4 043e a6fd db3d
000000a0: 25a4 563d d865 b13e 9bc4 fcbc aa42 3b3d
000000b0: 81ed 463e 525e 6dbe 9937 a4bd a345 9a3d
000000c0: d367 883e b28d 3ebc 501a b63d 3e39 123e
000000d0: 343a 98be 335a 9bbe 3bb8 e23e 31b5 8dbd
000000e0: 3a18 6abd 8c28 37be e791 053e 83d4 8f3d
000000f0: 0c8f 103d 3d09 893c 16e7 8d3e 96f1 8dbe
00000100: 16f1 a93c 4a25 1f3d 3d8e 0f3e d8e2 323d
00000110: e84c 023d 9fec c3be 60f7 aebd b014 0f3e
00000120: f2bd 3ebc 241a 2dbe 34c9 dd3d d758 50be
00000130: 0804 eabd c114 1ebe 3eeb 063f 30f0 4bbe
00000140: bed3 f73d c3e2 373e b66d 85be 45b4 11bd
00000150: 7292 923e c57e 9b3d d353 9b3e 788d 51be
00000160: 0479 853e efe2 f13c 1e5a a63d 07bb bc3d
00000170: 7adc 0cbe 3754 28be e12d e63c d5fc ebbd
00000180: 1ae3 28be 5ab1 b8bd d4b9 27bd 82a6 39be
00000190: ec3b a53e 6f3c 343d a0dc 8b3c 064e 1dbe
000001a0: fd17 c6bb 8f8c 6dbd 5760 393e 4b68 22be
000001b0: b5f7 033f 6fec 87bd b6a7 203d 97b1 553e
000001c0: 3e12 d73c 6222 e9bd 8dd1 1bbc f4e1 a2be
000001d0: 5335 a6be c5c2 8e3c cb2e 82be 6ae3 a03d
000001e0: 4d64 12be e68e 77be 3277 59be 8cc8 653d
000001f0: 10af c03d 7e4e bfbd 80a7 35be 7739 64bc
00000200: 9cf9 3cbe de80 88bd 3f96 f6bc b76b 83be
00000210: 3573 f73c ea91 13be af07 acbe 9b70 cbbd
00000220: bf20 1d3e 96cc 3fbe 7967 c03e 2141 9a3e
00000230: 9b36 77be ab36 19be 1bf5 283c bf73 babd
00000240: ddf8 ae3e 29c1 963c da76 a3bc 4b1d 02bd
00000250: f2fd 753d 9856 ccbc 917d 253e 9de3 2dbe
00000260: 90ad 943c 24fd 673d 6c99 8fbd d717 7d3d
00000270: 9640 babc 4814 b53d 6355 7d3d 808e 96bc
00000280: 1c60 2b3e 2de4 553e 90f0 b93e 1ebc fd3c
00000290: 15ec a93e 79b5 0ebe b016 f9bd 6c7d e2bd
000002a0: acc9 943e d419 673e 13ad 74be 838f d6bd
000002b0: 5c54 573d b0bf 6b3e a2d6 b23e 5d45 a43d
000002c0: a860 6bbe a1fd c53b 7c79 17bc 90e8 193f
000002d0: 774f d1bd cb8a ee3c 728d 1e3e 0de5 c13c
000002e0: 51c1 35be f804 88be 503d 583e 35aa 213d
000002f0: eada f6bd 1e80 2a3d a23f 3cbd fc8e b03c
00000300: 4499 a63c 12e4 9bbd ea5b e93d 945e 6a3e
00000310: 5506 6a3d 74df 1f3e 5b35 19be ef99 52be
00000320: 8870 353e cef4 fbbd 2ac7 b4bd 6741 8d3e
00000330: 2075 54be 0f2b 38bd 19ea b7bb 34eb 92be
00000340: 7338 eabc ea00 5fbd bb9c 0e3e de23 48be
00000350: 98fa 283d 6d07 753e cfe0 4e3d 8fa9 4a3e
00000360: 6ab7 5bbe 1a91 5fbe f3f3 13be fb07 313b
00000370: 7abb 863e 56de 883e 93ce 61bd 9a8d b8bd
00000380: 5451 a2bd e332 e93d cd35 503e 43a7 19bd
00000390: 9aff 70be 114a 493e 9b0e 093d 783a be3c
000003a0: b159 d63d 9ff1 97be 7a85 8abd dea8 2c3c
000003b0: 9992 56bb 1414 8d3d b87a a5bd 3ecb e8bc
000003c0: 72cb d2bc e0a6 f7bd edd1 e6be 2a10 3abd
000003d0: 6c32 f9bd 369b 8b3c b092 c9bd 7fc9 b53c
000003e0: 01f7 ac3c 78c8 803c 1d8a de3e 5eff cc3d
000003f0: 2291 41be 35d0 b0bd 0b00 0e3e feca a73d

predictor.net.1.bias f4 [32]
-0.11434857 -0.08832481 -0.1196212 0.11817152 0.096029975 -0.1098896 0.10001064 -0.088100165
-0.086531684 -0.09727264 -0.0910444 0.09801968 0.09653731 -0.15622355 -0.11343191 0.09338118
0.08742148 -0.089990504 -0.09546699 0.09980373 0.102679014 0.08727388 -0.09087752 0.08844431
-0.10165388 -0.091326036 -0.07899117 0.08136196 0.08585687 0.0933375 0.08644844 -0.1345307
00000000: 952f eabd a3e3 b4bd f6fb f4bd e903 f23d
00000010: 5dab c43d cc0d e1bd 61d2 cc3d dc6d b4bd
00000020: 8637 b1bd e136 c7bd 7d75 babd 8bbe c83d
00000030: 5ab5 c53d 11f9 1fbe fd4e e8bd a23e bf3d
00000040: 080a b33d f14c b8bd 3284 c3bd e665 cc3d
00000050: 6049 d23d a6bc b23d fe1d babd 4a22 b53d
00000060: e92f d0bd 2509 bbbd 1fc6 a1bd 19a1 a63d
00000070: bad5 af3d bb27 bf3d e10b b13d 6ac2 09be

predictor.net.3.weight f4 [1, 32]
-0.14935854 -0.3273382 -0.19660957 0.2719186 0.22498949 -0.2774821 0.07764335 -0.12904099
-0.28966135 -0.46247867 -0.22921652 0.38159946 0.13420531 -0.130233 -0.22910993 0.37312743
0.4765388 -0.41185206 -0.31400654 0.11527304 0.34071848 0.70854247 -0.08354124 0.23802479
-0.4320301 -0.21909186 -0.12116735 0.14082065 0.16304438 0.12605368 0.44287616 -0.20442323
00000000: 72f1 18be df98 a7be 0554 49be ea38 8b3e
00000010: a563 663e 2212 8ebe 7a03 9f3d 5223 04be
00000020: 7e4e 94be 01ca ecbe bcb7 6abe 0161 c33e
00000030: 1e6d 093e cd5b 05be cb9b 6abe 8f0a bf3e
00000040: e5fc f33e 46de d2be 77c5 a0be 4614 ec3d
00000050: a772 ae3e 0a63 353f ab17 abbd c5bc 733e
00000060: 0d33 ddbe 9e59 60be 9626 f8bd 4a33 103e
00000070: 1bf5 263e 3714 013e aac0 e23e 5354 51be

net.0.weight f4 [60, 35]
-0.09531186 -0.14041573 0.02013587 0.268977 -0.10079285 0.1427345 0.07045626 -0.1297854
0.08347734 -0.14837193 -0.056910757 -0.044158448 -0.024534782 -0.07203991 -0.022448627 0.109477066
0.07753162 -0.11005843 -0.07168364 -0.024040388 0.13765255 0.10902486 -0.048684772 0.14512704
0.07168477 -0.050141264 -0.02219574 0.0029724382 0.30574548 0.14898945 0.009209948 0.013292196
0.10252429 -0.1593641 -0.081702136 0.015119023 0.010586797 -0.034840703 0.18362087 0.01399979
0.007378057 0.092434436 0.030345283 -0.29063925 0.13070348 0.113799386 0.059295714 -0.12632126
-0.093192846 0.1148194 -0.22466828 0.21300328 0.06407387 0.09685573 0.07513495 -0.23407225
0.32168812 -0.058475748 -0.12376393 0.16698077 -0.0699011 0.06804826 0.07011787 -0.005723359
0.13946326 -0.13337936 -0.070297204 0.014884506 -0.056764062 -0.12091625 -0.008501031 -0.11779483
-0.08739218 -0.09280187 0.14999127 -0.031201307 0.13800275 -0.14800373 -0.11737838 0.14929168
-0.12735756 0.19589457 -0.22874129 -0.06709969 -0.040054284 -0.021608226 0.07534159 0.09134025
-0.05165059 -0.0110571915 0.099761106 0.22084932 0.14217992 0.14380367 -0.099247 0.036459547
-0.111422844 -0.14850661 -0.0072558154 0.07201754 -0.08745511 -0.029227834 -0.1363939 0.072617084
-0.024942324 0.06833676 -0.02123135 0.13587525 -0.07774949 -0.016122187 0.020931993 -0.06094183
-0.03386416 -0.03177456 -0.11705343 0.013642935 0.031174723 -0.11035398 -0.18563905 -0.096635364
0.013787166 0.05189118 -0.10217393 0.26046944 0.00074633065 -0.23486099 0.03631196 -0.056445215
0.15875696 -0.05112009 -0.1386273 -0.26191884 -0.19312786 0.3443797 -0.11163971 0.10100684
0.13668256 -0.1147093 0.054710634 0.22246616 0.056680664 0.17065836 0.11634106 -0.034930903
-0.045586467 -0.06233744 -0.0754681 0.10243814 0.18289705 -0.14153488 0.18725061 -0.025556292
-0.08741629 -0.10842453 -0.14172518 -0.019121744 -0.026769998 -0.045604646 0.22900027 0.06186556
0.15125588 -0.18597369 -0.37036604 0.013496832 -0.04250752 -0.053784538 0.19318594 -0.07159917
-0.027134065 0.2692107 0.025179895 -0.19740915 0.31106663 -0.00066597725 0.06311677 -0.04206281
0.058832534 -0.005522035 0.049030945 0.0031536815 -0.03214058 -0.027796064 0.159082 0.056374956
0.062289607 0.12310353 0.017351313 0.08609649 0.12706424 0.24202345 0.098655075 -0.17178608
-0.050659098 -0.05253561 0.07861119 0.0799952 -0.08375973 -0.15267934 0.28837797 -0.31793997
0.10618653 0.06879032 -0.072074495 0.27274632 0.012132121 0.054537386 0.12081919 -0.1315361
-0.011350932 -0.1239791 -0.13420145 0.08812769 0.007268962 -0.2133746 0.06409374 0.0059401644
0.12219643 0.24840651 0.1549095 0.07429946 -0.040130492 0.068224445 0.07517286 0.06337302
0.06799895 -0.049711693 -0.00322126 -0.12526478 -0.13564013 0.06179767 -0.23351613 -0.007436035
-0.20156908 -0.099954724 -0.10892287 -0.11771022 0.05317441 -0.05925627 0.041873757 -0.057703175
-0.014189886 -0.019467486 0.12149125 -0.10565412 0.0005555955 -0.041852534 0.04394532 0.10709265
-0.030695723 0.16914752 0.22161816 0.057622656 -0.1257196 -0.04706679 -0.025641922 -0.08595529
00000000: dd32 c3bd 24c9 0fbe fbf3 a43c 5ab7 893e
00000010: 7b6c cebd fe28 123e 5f4b 903d 77e6 04be
00000020: 2bf6 aa3d d0ee 17be 411b 69bd 7ddf 34bd
00000030: 2bfd c8bc a989 93bd 2fe6 b7bc 8335 e03d
00000040: e6c8 9e3d 5066 e1bd dfce 92bd 59f0 c4bc
00000050: caf4 0c3e 6d48 df3d af69 47bd 2f9c 143e
00000060: 77cf 923d ed60 4dbd d7d3 b5bc 3dcd 423b
00000070: ac8a 9c3e b190 183e 52e5 163c 83c7 593c
00000080: 41f8 d13d 5830 23be 7353 a7bd c7b5 773c
00000090: 3f74 2d3c 20b5 0ebd 1c07 3c3e 605f 653c
000000a0: a1c3 f13b 444e bd3d ac96 f83c abce 94be
000000b0: 22d7 053e a70f e93d 10e0 723d 5c5a 01be
000000c0: e4db bebd 6f26 eb3d 710f 66be 881d 5a3e
000000d0: 2939 833d 4c5c c63d 5ae0 993d a3b0 6fbe
000000e0: 4eb4 a43e 4484 6fbd f177 fdbd 02fd 2a3e
000000f0: 4f28 8fbd e35c 8b3d f599 8f3d 048b bbbb
00000100: 75cf 0e3e 9994 08be fbf7 8fbd 25de 733c
00000110: 6f81 68bd f0a2 f7bd e947 0bbc 6a3e f1bd
00000120: acfa b2bd e80e bebd 5097 193e e299 ffbc
00000130: 9850 0d3e 4a8e 17be 1364 f0bd ebdf 183e
00000140: 056a 02be 9698 483e 283b 6abe 906b 89bd
00000150: f60f 24bd bc03 b1bc b14c 9a3d 9910 bb3d
00000160: 928f 53bd 3929 35bc 8d4f cc3d 5326 623e
00000170: 9d97 113e 4541 133e 0342 cbbd 9b56 153d
00000180: a931 e4bd 1e12 18be 31c2 edbb ef7d 933d
00000190: aa1b b3bd 366f efbc d8aa 0bbe 44b8 943d
000001a0: d853 ccbc 25f4 8b3d 5eed adbc e222 0b3e
000001b0: 203b 9fbd ad12 84bc 9279 ab3c 249e 79bd
000001c0: 25b5 0abd 0b26 02bd b5b9 efbd 9e86 5f3c
000001d0: 2262 ff3c 4401 e2bd 2a18 3ebe c3e8 c5bd
000001e0: 91e3 613c d98b 543d 9140 d1bd 405c 853e
000001f0: 67a5 433a 667f 70be dabb 143d 1933 67bd
00000200: 2f91 223e 4d63 51bd 51f4 0dbe 3a1a 86be
00000210: 4fc3 45be 8952 b03e 5ca3 e4bd addc ce3d
00000220: 83f6 0b3e b6ec eabd 4218 603d 2bce 633e
00000230: fc29 683d 11c1 2e3e 3944 ee3d b513 0fbd
00000240: e0b8 3abd 8b55 7fbd 058f 9abd 16cb d13d
00000250: 5d49 3b3e 85ee 10be a0be 3f3e 6e5b d1bc
00000260: 5007 b3bd ae0d debd 6820 11be 34a5 9cbc
00000270: c14c dbbc f0cb 3abd 0c7f 6a3e be66 7d3d
00000280: d2e2 1a3e e36f 3ebe 9ea0 bdbe d121 5d3c
00000290: 5e1c 2ebd 2d4d 5cbd 89d2 453e 96a2 92bd
000002a0: 4248 debc fcd5 893e 1146 ce3c a025 4abe
000002b0: 2044 9f3e fa94 2eba 5d43 813d 0e4a 2cbd
000002c0: 62fa 703d 30f2 b4bb acd4 483d ffad 4e3b
000002d0: d7a5 03bd 92b4 e3bc 64e6 223e 6de9 663d
000002e0: 6323 7f3d b41d fc3d 5724 8e3c 5b53 b03d
000002f0: 211d 023e ffd4 773e ac0b ca3d b1e8 2fbe
00000300: ea7f 4fbd 942f 57bd e7fe a03d 86d4 a33d
00000310: 398a abbd f957 1cbe 47a6 933e 07c9 a2be
00000320: 5378 d93d f0e1 8c3d cb9b 93bd 68a5 8b3e
00000330: cec5 463c 9862 5f3d 0d70 f73d 66b1 06be
00000340: 42f9 39bc c1e8 fdbd 1b6c 09be 4a7c b43d
00000350: 7930 ee3b df7e 5abe 9443 833d b6a5 c23b
00000360: 1f42 fa3d 475e 7e3e 99a0 1e3e 512a 983d
00000370: df5f 24bd 42b9 8b3d 3af4 993d b7c9 813d
00000380: 0943 8b3d 7d9e 4bbd c61b 53bb 6945 00be
00000390: 3fe5 0abe 8e1f 7d3d da1e 6fbe fca9 f3bb
000003a0: 2068 4ebe 10b5 ccbd f412 dfbd 0e12 f1bd
000003b0: 69cd 593d b4b6 72bd d183 2b3d 2a5a 6cbd
000003c0: b27c 68bc 477a 9fbc 68d0 f83d 3061 d8bd
000003d0: 62a5 113a 906d 2bbd 0200 343d 6453 db3d
000003e0: 9975 fbbc 0235 2d3e dfef 623e bc05 6c3d
000003f0: a4bc 00be 1bc9 40bd 020f d2bc 5409 b0bd

net.0.bias f4 [60]
-0.11159512 -0.1008195 0.008625023 -0.18792124 -0.07170092 -0.008614181 0.05505961 -0.14396915
0.057429787 0.029484442 -0.0024048637 0.033680577 0.10685997 -0.020835573 0.16491504 -0.097174816
-0.035289634 0.004128355 -0.026338553 0.08081624 -0.008209707 0.034295343 0.020034676 -0.12590238
-0.022199903 -0.1317205 -0.04267703 0.028519912 0.067956954 0.15493715 -0.1547395 -0.08164881
0.15694085 0.035657883 0.010457123 0.1009836 -0.14639217 0.12438342 -0.07159925 0.019796902
0.032238003 0.1167275 -0.038499817 0.010429712 -0.04702397 -0.038641285 0.14349814 0.0961326
-0.0015165871 0.001260039 -0.119240746 0.114427954 -0.07646954 -0.028178984 0.057989314 -0.15167005
-0.054261178 -0.03514662 -0.09546282 0.05512267
00000000: fb8b e4bd 747a cebd f84f 0d3c 6d6e 40be
00000010: efd7 92bd 7e22 0dbc 3086 613d a66c 13be
00000020: 7f3b 6b3d 5b89 f13c eb9a 1dbb a5f4 093d
00000030: 66d9 da3d 5daf aabc 7ddf 283e 9703 c7bd
00000040: dd8b 10bd 2747 873b f3c3 d7bc fc82 a53d
00000050: 0282 06bc 4679 0c3d c31f a43c 8eec 00be
00000060: 92dc b5bc bde1 06be 1cce 2ebd 97a2 e93c
00000070: 042d 8b3d d8a7 1e3e 0874 1ebe 7e37 a7bd
00000080: 1ab5 203e 000e 123d 5a54 2b3c 7dd0 ce3d
00000090: d4e7 15be bcbc fe3d a1a2 92bd 1d2d a23c
000000a0: ff0b 043d d40e ef3d fcb1 1dbd 62e1 2a3c
000000b0: 359c 40bd 5346 1ebd 2df1 123e 2be1 c43d
000000c0: 38c8 c6ba e527 a53a 7e34 f4bd 3459 ea3d
000000d0: 109c 9cbd 9dd7 e6bc 3486 6d3d 654f 1bbe
000000e0: f840 5ebd e7f5 0fbd 0382 c3bd 4fc8 613d

net.2.weight f4 [60, 60]
-0.0025248427 0.011390658 -0.23024274 -0.06289331 -0.11039314 -0.41463074 -0.120140985 -0.12374724
0.12947077 -0.19330917 0.023809582 -0.055931307 -0.06912569 0.050552107 -0.05537614 -0.088973835
0.052307434 -0.048641965 -0.14923136 -0.090016216 0.025272077 -0.025182068 -0.11350993 0.1421601
-0.1708493 0.10101644 0.16757402 0.14334199 0.046290636 -0.14070636 0.052974015 0.09370458
-0.018864933 0.016193314 0.017394325 0.14429505 -0.06087004 0.029359605 0.019537732 -0.036156833
0.10169154 0.050569944 0.12563938 0.08350875 0.030587865 -0.050663583 0.29104865 -0.13237382
0.012399847 -0.0929809 -0.16187535 0.1673985 0.028602611 -0.081313044 -0.0640815 0.016320063
-0.01643553 -0.009697078 -0.035181385 0.0015538882 -0.087357536 -0.08797242 -0.021805177 -0.15229078
-0.16447599 0.115295336 0.0069766203 0.22956362 0.039700773 -0.03958937 -0.018033497 0.0022574416
0.04411464 -0.18077354 -0.082161 -0.013730391 0.052427553 0.086112715 -0.12643829 0.019473165
-0.1071316 -0.15352263 0.20861532 0.028686244 0.04082941 0.030193262 0.042044204 -0.11935129
-0.016909909 0.26104802 0.052554 -0.12938854 -0.03292616 0.051278114 -0.16954166 -0.16532815
-0.24362558 -0.109475896 0.07049718 -0.031318 0.017772209 -0.102007635 0.113619864 -0.07121336
0.1314674 -0.14636217 0.015595968 0.004160982 -0.025166448 -0.27453685 0.01839521 -0.10596572
0.04364251 -0.35217217 -0.093312174 0.030021034 0.051430926 -0.10312604 0.0511664 -0.074272305
0.10171652 0.118399955 -0.014775082 -0.048128348 -0.14339119 0.123815864 -0.030249145 0.13635767
0.0008449568 -0.06597221 -0.15179658 -0.08527743 0.008554049 0.043316137 0.20206508 -0.015916148
0.27867386 -0.16870923 0.2946433 0.08069963 -0.014929852 -0.005244104 0.17594166 0.16036525
0.103694275 0.07639139 -0.16300087 0.032885503 0.2526873 -0.07013787 -0.06618158 -0.17518581
-0.15891789 0.08188274 0.31383872 -0.06795931 -0.13771178 0.025508597 0.088417724 -0.119295046
-0.20421429 0.18224195 -0.21098031 -0.35649088 0.014557127 0.16527641 0.169409 0.14538231
-0.32212546 -0.030129412 0.030855 -0.036919326 -0.13354322 -0.013742963 0.06409428 -0.03305633
-0.093808934 0.15073507 0.26434243 -0.09766127 -0.14763033 -0.034057785 0.08867673 0.067643285
0.2049679 0.2225936 0.058669567 -0.007045939 -0.08567488 0.09662942 -0.15624252 -0.0511449
0.18886419 0.16481861 -0.23186146 0.24700066 -0.01273185 -0.067549564 0.048111264 0.08672311
0.14248781 0.0629794 -0.13544366 0.0066558626 -0.22687188 -0.10347074 -0.18233714 0.02049866
0.059975214 -0.1457097 -0.06362649 0.15992507 0.011282654 0.052935053 0.017407566 0.07592815
-0.061118133 0.022443129 -0.07479904 -0.028802821 -0.0387796 -0.050591215 0.1220361 -0.1294052
-0.043893497 -0.07539888 -0.06807809 0.032807697 -0.064804815 -0.1114425 -0.14557518 0.034565866
-0.10543791 0.09712331 0.0138701 -0.061970234 0.09285677 -0.12807573 -0.1430812 -0.010515585
-0.075172424 0.13302445 0.1581643 0.19637899 -0.11643468 -0.06683422 0.06426986 -0.040890366
0.040628262 -0.023482114 -0.016913107 0.08679554 -0.1455828 0.14552715 -0.018249603 -0.053324286
00000000: d577 25bb e29f 3a3c c1c4 6bbe 35ce 80bd
00000010: cc15 e2bd 7b4a d4be 7a0c f6bd 316f fdbd
00000020: fc93 043e d7f2 45be 500c c33c 3a18 65bd
00000030: c591 8dbd ba0f 4f3d 17d2 62bd ea37 b6bd
00000040: 5240 563d cc3c 47bd 1bd0 18be 6c5a b8bd
00000050: 6307 cf3c a04a cebc e577 e8bd 6b92 113e
00000060: 1ef3 2ebe b5e1 ce3d 8698 2b3e 3ec8 123e
00000070: 409b 3d3d 5415 10be 48fb 583d 30e8 bf3d
00000080: a28a 9abc d7a7 843c 8b7e 8e3c 15c2 133e
00000090: dd52 79bd 8e83 f03c 980d a03c 3019 14bd
000000a0: a743 d03d 6e22 4f3d 9ca7 003e a306 ab3d
000000b0: 6793 fa3c 9e84 4fbd 5404 953e 018d 07be
000000c0: ba28 4b3c c56c bebd a7c2 25be 836a 2b3e
000000d0: 0650 ea3c 7487 a6bd 293d 83bd a7b1 853c
000000e0: cea3 86bc 7ee0 1ebc 5b1a 10bd d6ab cb3a
000000f0: 82e8 b2bd e22a b4bd c5a0 b2bc 1df2 1bbe
00000100: 656c 28be f61f ec3d 229c e43b ba12 6b3e
00000110: 479d 223d 7728 22bd fcba 93bc 96f1 133b
00000120: 8eb1 343d b31c 39be 0744 a8bd 6ff5 60bc
00000130: 46be 563d dd5b b03d 0a79 01be 3086 9f3c
00000140: d067 dbbd 0935 1dbe 419f 553e 6aff ea3c
00000150: bd3c 273d dc57 f73c 8b36 2c3d 736e f4bd
00000160: a686 8abc 16a8 853e dd42 573d 6e7e 04be
00000170: 95dd 06bd 0009 523d 549c 2dbe c84b 29be
00000180: fc78 79be e634 e0bd d360 903d 4e47 00bd
00000190: 0697 913c 61e9 d0bd 88b1 e83d 4fd8 91bd
000001a0: 649f 063e f7df 15be 3b86 7f3c d958 883b
000001b0: de29 cebc 1890 8cbe 8db1 963c 8e04 d9bd
000001c0: 7dc2 323d e94f b4be 741a bfbd acee f53c
000001d0: 3ca9 523d bf33 d3bd dc93 513d 141c 98bd
000001e0: c050 d03d ad7b f23d 2f13 72bc 3b22 45bd
000001f0: 24d5 12be 2c93 fd3d 0ecd f7bc 58a1 0b3e
00000200: 1780 5d3a 701c 87bd 9070 1bbe efa5 aebd
00000210: 4826 0c3c 436c 313d 26ea 4e3e 9562 82bc
00000220: 57ae 8e3e 1dc2 2cbe 7ddb 963e d945 a53d
00000230: 579c 74bc bcd6 abbb 0d2a 343e ca36 243e
00000240: aa5d d43d 1773 9c3d b3e9 26be f3b2 063d
00000250: 3b60 813e 72a4 8fbd 358a 87bd e963 33be
00000260: 5fbb 22be 23b2 a73d 78af a03e 402e 8bbd
00000270: 5104 0dbe 68f7 d03c 5a14 b53d f650 f4bd
00000280: 8d1d 51be a29d 3a3e 390b 58be f985 b6be
00000290: 0481 6e3c 383e 293e 8e79 2d3e 1adf 143e
000002a0: a1ed a4be f5d1 f6bc a0c3 fc3c b838 17bd
000002b0: 8ebf 08be 2a2a 61bc dd43 833d 1366 07bd
000002c0: e61e c0bd 4b5a 1a3e e457 873e a202 c8bd
000002d0: 682c 17be 2d80 0bbd 259c b53d 9088 8a3d
000002e0: 1be3 513e 94ef 633e 804f 703d 9fe1 e6bb
000002f0: 5076 afbd a5e5 c53d 0afe 1fbe 517d 51bd
00000300: 9d65 413e 36c6 283e 176d 6dbe beed 7c3e
00000310: 4099 50bc 6d57 8abd 5110 453d e39b b13d
00000320: 53e8 113e 58fb 803d beb1 0abe 6c19 da3b
00000330: 1a51 68be 78e8 d3bd 96b6 3abe ceec a73c
00000340: 92a8 753d ec34 15be 9b4e 82bd 66c3 233e
00000350: e1da 383c 6dd2 583d 509a 8e3c 3880 9b3d
00000360: 0257 7abd a7da b73c 3d30 99bd e5f3 ebbc
00000370: 5cd7 1ebd bc38 4fbd 10ee f93d cc82 04be
00000380: abc9 33bd ba6a 9abd 876c 8bbd 5d61 063d
00000390: 63b8 84bd f73b e4bd a911 15be f094 0d3d
000003a0: d5ef d7bd 96e8 c63d 6a3f 633c 80d4 7dbd
000003b0: b12b be3d 4926 03be e183 12be 8f49 2cbc
000003c0: 00f4 99bd 9037 083e d2f5 213e 9317 493e
000003d0: 4e75 eebd 61e0 88bd eb9f 833d a87c 27bd
000003e0: d269 263d 905d c0bc 5b8d 8abc dcc1 b13d
000003f0: a813 15be 1205 153e 3180 95bc 916a 5abd

net.2.bias f4 [60]
-0.099825285 -0.037234787 -0.044116147 -0.008577872 0.0725548 0.004089097 -0.05718593 -0.071312696
-0.08725488 0.025766788 0.103512086 0.00771708 -0.11997818 0.03457447 0.085249245 0.10079371
-0.035262607 0.101204894 0.059936 0.034480263 -0.10421258 -0.011485508 0.09569878 0.09800642
-0.036311373 -0.077723294 -0.027061567 0.024477988 -0.09795947 -0.005581972 -0.040112033 -0.101794735
-0.11186741 -0.018215235 -0.04493181 0.07940921 0.047694135 0.11865549 0.09751586 0.032777805
-0.04668777 0.070185795 -0.0202279 0.1257084 -0.043438423 -0.06669667 0.09221768 -0.084152676
-0.015442376 0.0005998851 -0.054365166 -0.028551951 0.05280414 0.081486665 -0.0062523833 -0.05873176
-0.090060316 0.044646587 -0.10111488 -0.009590118
00000000: 3371 ccbd 8183 18bd 22b3 34bd 348a 0cbc
00000010: 9c97 943d d5fd 853b cb3b 6abd 640c 92bd
00000020: b0b2 b2bd df14 d33c 25fe d33d 8fdf fc3b
00000030: 1fb7 f5bd f69d 0d3d 2897 ae3d ef6c ce3d
00000040: 866f 10bd 8344 cf3d 737f 753d 2d3b 0d3d
00000050: 686d d5bd b62d 3cbc b9fd c33d 97b7 c83d
00000060: 3cbb 14bd 642d 9fbd 38b0 ddbc 1086 c83c
00000070: f99e c8bd fae8 b6bb 844c 24bd c279 d0bd
00000080: be1a e5bd 1e38 95bc 6b0a 38bd 4ca1 a23d
00000090: ed5a 433d a601 f33d 65b6 c73d 0542 063d
000000a0: ad3b 3fbd 92bd 8f3d fbb4 a5bc b4b9 003e
000000b0: 7dec 31bd 4498 88bd 9fdc bc3d 3d58 acbd
000000c0: 0502 7dbc 9c41 1d3a 02ae 5ebd c8e5 e9bc
000000d0: 2749 583d 7be2 a63d cbe0 ccbb b790 70bd
000000e0: 8b71 b8bd 57df 363d 5115 cfbd df1f 1dbc

net.5.weight f4 [1, 60]
-0.14032653 0.047596447 -0.02379725 -0.30144596 -0.06601364 -0.00018487239 0.16806982 0.1163927
-0.0006275115 -0.01650571 -0.0054638856 0.212871 -0.00086446904 0.2798009 0.18626206 0.0043089516
-0.09797741 0.13036397 0.21358377 0.19974701 -0.07548578 0.14609948 0.22322932 -0.25492382
-0.23697929 0.0016664183 0.0027941812 0.15295975 -0.049326163 0.029730165 -0.12169029 -0.0055938265
0.0008426672 -0.03188568 -0.078670196 -0.13117276 0.17878436 0.0013821746 0.05270255 0.035009578
-0.19192672 -0.062326927 -0.42688006 0.22541316 0.052091356 0.10573362 0.0806085 -0.030147932
-0.0022999002 -8.913965e-05 0.2432576 0.1587727 0.0021988556 0.14315866 0.19911091 0.12469783
-0.0007862391 0.0127347205 0.041381754 -0.13069263
00000000: c2b1 0fbe 7ef4 423d 73f2 c2bc 2057 9abe
00000010: 2932 87bd 4eda 41b9 7f1a 2c3e 4c5f ee3d
00000020: 957f 24ba fc36 87bc 650a b3bb dbfa 593e
00000030: 899d 62ba 1042 8f3e 7bbb 3e3e 1b32 8d3b
00000040: 61a8 c8bd 227e 053e b4b5 5a3e 7b8a 4c3e
00000050: 4a98 9abd 1a9b 153e 3a96 643e 6085 82be
00000060: b3aa 72be b86b da3a 951e 373b 7ba1 1c3e
00000070: 3b0a 4abd ad8c f33c c238 f9bd 6b4c b7bb
00000080: 70e6 5c3a 8f9a 02bd d71d a1bd 2752 06be
00000090: 3f13 373e 152a b53a a1de 573d 3466 0f3d
000000a0: 7088 44be 854a 7fbd 0690 dabe b5d2 663e
000000b0: bf5d 553d de8a d83d 1216 a53d ccf8 f6bc
000000c0: ecb9 16bb 7cf0 bab8 8518 793e 5095 223e
000000d0: ad1a 103b 2f98 123e bbe3 4b3e 9361 ff3d
000000e0: 9d1b 4eba 4aa5 503c ea7f 293d 4ad4 05be
