pretrained model/model_XJTU_5.pth (torch, 60271 bytes, 14 tensors)

encoder.net.0.weight f4 [60, 17]
00000000: 1bad 25bd 7542 aa3c 678a d83c 9d8c 393d
00000010: eb8c 663e 4c58 5b3e 70b6 e3bc 39ef 05be
00000020: 7f34 013d b3a7 663c 5577 933e 39eb 043d
00000030: cacf 2d3e cde9 b53d acd5 663d cc3f bbbd
00000040: e5c1 21bd db13 a6bd 51d5 103e 493a 3abd
00000050: 5616 37bd 36a7 57be f439 63bd 856d 4bbe
00000060: 15b5 513e b97d e8bd f586 9e3d 4d51 1fbe
00000070: c096 633d 41e2 063e b536 1d3e 71f2 3e3e
00000080: d566 4e3e e811 02be 1c4f 813c 7ef2 debd
00000090: 615f babc 6842 f03d 54a8 7a3e 455c 063d
000000a0: 0a00 0bbe e689 ddbd 7423 59be 3b48 cf3d
000000b0: 914e f3bd 2015 7ebe f661 413e c171 01bd
000000c0: a91d bcb9 cd0e 78be 3e0f 983d 7c02 9fbd
000000d0: b03d 8bbd 00a2 22be e5c0 d1be 2322 5bbe
000000e0: 1134 643d 29cd ee3d c351 eabd 3810 9abe
000000f0: 657e c93d b6aa ca3d a73d 843d 43e9 93bd
00000100: e2a6 cd3c 2bf5 0d3d d3f1 413e e673 b1ba
00000110: 14f8 563e f20e 303d f4ec 6b3e b504 8f3d
00000120: 33ff 313e da5b 0dbe e2fc 1e3e 1d09 263e
00000130: c3f7 38be 20e0 0abd 2c39 b2be 8dc5 943d
00000140: fd50 5ebe 996d 1bbe 4e5f 6cbc 48e8 a73d
00000150: 15a3 683e 7937 78bd f413 64be 787c 903d
00000160: 6ace 3ebe 71ae 793d 94c0 33be 7065 c23d
00000170: d8b7 9e3c 27c0 9f3d 7089 92bd 501d db3d
00000180: a216 01bd 8698 b13b fe98 1dbe 2a90 d63b
00000190: 6449 b43d 8849 ebbd ea67 753b 5279 43be
000001a0: c469 9bbe 92b2 4fbe 66f4 34be dea0 4c3d
000001b0: b00e 1e3e ab29 fa3d abbb 7b3c b148 843e
000001c0: bc07 a33d e772 603d 3d7c 6fbe 49cb 50be
000001d0: 980d 0a3e 758e 323e aaec 943e fff7 2ebe
000001e0: 0bdf ea3c b5d0 c03d 687e bebd 25a6 38bc
000001f0: f847 d43e 7d73 2e3e 4626 10be 492c 6d3e
00000200: a9eb 6ebe 61cc 41be e8ac 9ebd b4f8 813c
00000210: bec5 663e 7698 1cbb 6577 d9bb a87e 59be
00000220: a8e7 01bb 8e8d 453e 2525 313c ae27 02bd
00000230: 67ff f3bd 8369 2f3e a388 f33d 88cb 083e
00000240: 01f9 593e 008f 953e 283c 94bd c8b2 36bd
00000250: fdac d7bc e78c f63d 820e d03e ae9c 85be
00000260: 727e 62bd 249b b8bd 92ae 413e c20e cebc
00000270: a823 08be 2eef 9f3d 3bbe 6e3d aac4 be3d
00000280: 627d 27be 4079 2abe d46c b6bc 6a77 9abd
00000290: 38fc 49be 37e9 ec3d 73ba e9bc e264 80bd
000002a0: 5ea9 2d3e ccce 85bd 03c5 95bd c71d 0cbd
000002b0: 042e f93d cfe5 623c 0f00 25be 3598 103e
000002c0: 20df 7a3d 38ca d5bc 4617 b1bd 2cd2 7dbd
000002d0: 1bc2 56bd b5c1 2f3e 012b 443b 5246 f93d
000002e0: fb08 fbbd 49b3 833e 913e 5dbe ade2 443c
000002f0: d30f 983d 3057 3ebe 3a00 64be c64c 1bbe
00000300: 9ac1 07be a7b1 2a3e 0bbc 3abe ae17 cbbd
00000310: a425 5f3e ec8a 923a ca98 c63c 8a3c 923d
00000320: 0719 903c b3be 8a3d aa92 1d3e 9209 1c3d
00000330: 7295 ae3d fd83 19be f9a8 a7be be06 a1be
00000340: da84 413d 5c62 acbc e524 c43d ac34 9cbb
00000350: 16bc 97be a902 38bd 0f3b 7fbd 7c26 07bd
00000360: 92b5 273e 2fa4 cebd 3fbf 153e 6615 573e
00000370: 460c 1c3e df71 043b 84ec 5d3d 1d3a 9fbe
00000380: 4e98 98bd 6c4c f73d 9d94 bb3d 332d ff3d
00000390: b254 923d 51e3 a0be cce6 cbbd 9be2 353e
000003a0: 91e0 85be 9255 1d3e 4aff 523c 6f5c 17be
000003b0: 3098 c5bd 49de a0be a586 b33c 2009 d6bd
000003c0: f5bd 32be 3e3b 483c 5b41 05be 3e96 29be
000003d0: 5820 553d a1db 083e 7bd0 15be fe67 4b3e
000003e0: cb1c 543d 8ed9 15be 0061 583d fb1f 2b3e
000003f0: ecd8 1c3d 8d62 153d 39b5 573c d2aa 2bbd
-0.04044829 0.020783642 0.026433183 0.045300115 0.22514693 0.21420401 -0.027796954 -0.13079537
0.031544205 0.014078069 0.2880198 0.03245089 0.16973796 0.088824846 0.056356117 -0.09143028
-0.039491553 -0.08109256 0.14143874 -0.04546574 -0.044699036 -0.2105988 -0.05547519 -0.19865997
0.20479234 -0.11352105 0.07740585 -0.15558358 0.05556369 0.13172247 0.153529 0.18647172
0.20156415 -0.12702143 0.015784793 -0.108860955 -0.022750558 0.11731416 0.24478275 0.03280284
-0.13574234 -0.10817318 -0.2120493 0.10121199 -0.1188022 -0.24812746 0.18885025 -0.031602625
-0.00035880253 -0.24224396 0.07424782 -0.07764146 -0.06798875 -0.1588211 -0.4096748 -0.21399741
0.055713717 0.11660225 -0.11441376 -0.300905 0.09838561 0.09895842 0.06457072 -0.072222255
0.02510399 0.03465764 0.18939905 -0.0013538569 0.20993072 0.042983003 0.23039609 0.0698332
0.17382507 -0.1380457 0.15526155 0.16214414 -0.18063264 -0.03390515 -0.34809244 0.07264242
-0.21710582 -0.15178527 -0.014427019 0.08198601 0.22718461 -0.060599778 -0.22273237 0.070549905
-0.18633428 0.060957376 -0.17553931 0.09492004 0.019374773 0.07800322 -0.071551204 0.1069895
-0.031515725 0.0054197935 -0.15390393 0.0065479474 0.08803061 -0.11488634 0.003744597 -0.19089249
-0.3035413 -0.20282963 -0.17671356 0.049958102 0.1543529 0.12214979 0.015364568 0.2583671
0.079604596 0.05479708 -0.23387237 -0.20390047 0.13481748 0.17437156 0.2908681 -0.1708679
0.028670808 0.09414808 -0.09301454 -0.011270081 0.41461158 0.17036243 -0.140771 0.23161425
-0.23332085 -0.1892562 -0.07747823 0.015865661 0.2253637 -0.0023894585 -0.0066365474 -0.21239722
-0.0019821916 0.1929228 0.010812079 -0.031776123 -0.119139485 0.17130093 0.11891296 0.13358891
0.21286394 0.29210663 -0.072380364 -0.044604093 -0.026327604 0.12038594 0.4063607 -0.260961
-0.05529637 -0.09013966 0.1891425 -0.025153521 -0.13294852 0.07809292 0.058286887 0.093148544
-0.16356423 -0.16647816 -0.02226869 -0.07542308 -0.1972512 0.1156792 -0.028531289 -0.06269242
0.1695914 -0.06533584 -0.07312968 -0.034208085 0.1216698 0.013848736 -0.16113304 0.14120562
0.061247945 -0.026097402 -0.08647017 -0.061968014 -0.052431207 0.17163737 0.002993286 0.12171616
-0.12257572 0.2572272 -0.21605898 0.012016934 0.07424893 -0.18587947 -0.22265711 -0.15166005
-0.13257447 0.16669331 -0.18235795 -0.09916626 0.21791703 0.0011180318 0.024242777 0.07140453
0.017590059 0.06774654 0.15387979 0.038095064 0.08524598 -0.14991756 -0.32746103 -0.31450456
0.047245838 -0.021042995 0.095773496 -0.004767021 -0.29635686 -0.044924412 -0.062312182 -0.032995686
0.16377857 -0.10089909 0.14623736 0.21004257 0.15239057 0.0020209474 0.054180637 -0.31099024
-0.07450925 0.12075123 0.09159205 0.12459793 0.071450606 -0.3142343 -0.099561304 0.17762224
-0.26147893 0.15364674 0.0128782485 -0.14781354 -0.09648168 -0.3141959 0.02191479 -0.10450959
-0.17455275 0.012221156 -0.13013212 -0.16561219 0.0520328 0.13365032 -0.1463031 0.19863889
0.05178527 -0.14633772 0.05282688 0.16711418 0.03829281 0.03647094 0.013165765 -0.041910954

encoder.net.0.bias f4 [60]
00000000: 28b0 24bd 2e37 d43c 168f 093d a7c3 b03c
00000010: 39d7 a4bc c3fc a43c ba6a c33c 3314 073d
00000020: 9ff8 1f3d c60b 4b3d 5f90 083b 62bc b5bc
00000030: fcf5 02bd aa20 e3bc ff21 90bd eab1 103c
00000040: 3179 13bd 1f5a f2bc 6202 c03c ad3e 89bc
00000050: 100d 713d 0dd1 acba 724f 24bd 3dd1 e13c
00000060: 2f56 ad3c 0cd5 47bc 653d cbbc 37c7 0cbd
00000070: 0c88 363b 832d e83c 8752 80bd d1cf f7bc
00000080: 2b23 47bd a313 123d 0049 7dbc dc1c 12bd
00000090: 159a e6bc ae78 ad3c 5ced 0d3d 1a6c efbc
000000a0: 29f8 253c fe50 50bd 44ff edbc a804 463d
000000b0: d01e cabd 8715 063d b970 cd3c de79 023d
000000c0: 2314 1ebd be70 213c c998 ae3c f386 50bc
000000d0: 7fc5 2dbd 3ef1 9abc f09c fabc 2718 cdbc
000000e0: 6cff c0bc f882 113d 33cd 23bd d926 0cbd
-0.04020706 0.025905218 0.033583723 0.02157767 -0.020122157 0.020140057 0.023854602 0.032978248
0.039055463 0.049571775 0.0020838005 -0.022184554 -0.03197287 -0.027725536 -0.07037734 0.0088314805
-0.03600425 -0.029583989 0.023438636 -0.016753519 0.058850348 -0.001318486 -0.040114827 0.027565593
0.02115926 -0.01219679 -0.024809549 -0.034369674 0.0027852086 0.028342014 -0.06265741 -0.030250462
-0.048617523 0.03566326 -0.015459299 -0.035672054 -0.028149644 0.021175709 0.03465019 -0.029226352
0.010129967 -0.05085849 -0.029052384 0.048344284 -0.09869158 0.032735374 0.025078164 0.031854503
-0.038593423 0.00985354 0.021313088 -0.012727487 -0.042424675 -0.018913861 -0.030592412 -0.02503593
-0.023559295 0.035525292 -0.039990615 -0.034216736

encoder.net.2.weight f4 [60, 60]
00000000: 71fc 64bd 6549 b2ba f1fd bfbd e585 e3bd
00000010: f0c5 75be 3919 ce3c 3570 22be 8554 b3bc
00000020: 7a2f a7bd ef6a 453e 0886 04be b156 3dbd
00000030: 4dd4 9b3d 0fb7 dabd 02c1 a63d 1823 55bd
00000040: 9f49 113e 7589 bfbd 9f8b 1f3e 7eed 283e
00000050: ef67 433d 6ffd 70bd 52d2 0f3d 67a5 37b9
00000060: 1361 66bc 2fa5 763e f5a5 1f3d f554 c53b
00000070: 6694 cf3d 1003 a13d cabb 393e d76d a03d
00000080: ec4e 09bd 50f3 34bd 0078 843d 3c68 7d3c
00000090: 062d 393d 27cd 32be 9f54 2c3e 2e33 803d
000000a0: 3de1 453e f4b1 2fbd 1a71 243d 796e 8c3d
000000b0: 9e25 2bbd 8f1e b4bd c2c5 2abe 3f17 c33d
000000c0: cc76 31be 2734 93be 4686 13bc e8b0 89bd
000000d0: 6f7d 64bd 6f82 34ba 8d55 0e3e 298a 973d
000000e0: 5329 343d 222d e03c 9e01 913c 3eeb 7abd
000000f0: 9600 123e 41cd 923e 55fd 33be 92d8 22be
00000100: 45b3 603c b0fd ba3d ca81 d6bb 72c0 8d3d
00000110: 53b7 673d 1c96 ce3d c62b e1bd e35f 04be
00000120: e9d0 89be 40c0 55be a960 56be 6b88 5d3e
00000130: 79cd 04be 504f 473e 8949 733e 6e94 0c3d
00000140: 249b c03d 29a6 75bd 572f d5bd 729d 4abe
00000150: f579 04be cd31 d8bd 7e77 adbe 8c53 99bd
00000160: d96f ba3d fa1d 1abe c681 8e3d 4806 1fbe
00000170: 9f51 6f3e 4bd2 f0bd 6747 693d 7ac9 4dbd
00000180: 1e9e 7d3d f4c3 ca3d 15cd abbd ff01 26be
00000190: 36e4 ef3d c72d 29be afc5 6bbd cff1 b1be
000001a0: 0066 0b3d ac5d 853d 8baa d63c b7b2 073e
000001b0: 4114 e83c 70ae a1bd 10cc 82be a5c2 8d3d
000001c0: 5d11 8abe 2adf 23be ef4c 163e 55cb 8ebe
000001d0: 72ea 083e 7d64 7a3d 36cb abbc 9a65 263d
000001e0: 8a9e c73d aaa8 2abe 636f 76bc de05 b23d
000001f0: cdb6 50be 5e43 f33d fa3f 5f3e bfcc 02be
00000200: a446 f83c fb1d c23b 9d1d 423d 9dcd de3c
00000210: b344 7dbd f420 f5bd adc1 523d 0abb dcbd
00000220: 9b37 1a3c 11f9 4e3b 778a c93d 7a03 b73e
00000230: 8363 3ebd b916 d73c 6b74 16be 2c9f 8c3d
00000240: b0b6 fb3c 616c ab3e 318c e33d 7bdf 25be
00000250: 82da af3a 073e 13be 6643 6cbc 9bd4 803c
00000260: 434c 243e 48b4 743d c62d 033e 5c7a 01bd
00000270: beb9 6b3b b106 92bd 2398 42bc f8bf 05be
00000280: 4efb 813c ea6f 2a3d 9b0a 0b3e 0969 af3d
00000290: 5fe0 1ebe af5a f73c c717 5dbd 5c6b 13be
000002a0: a18b 67be a273 943d 4047 0bbe f293 abbd
000002b0: 94d8 323d 5e22 b9bd 75dd 353d 94ab 51be
000002c0: 759f ebbb ef33 07bc bce9 683e a0a8 183d
000002d0: 9672 3bbd 6fb1 88bd 3c58 513d d6fd 24be
000002e0: 6303 73be 1f83 233e 3a78 9a3b 5327 af3a
000002f0: eb8d 4e3e 4ac3 2dbe cf09 62be 2dae a53e
00000300: fb76 01bc 4a12 d43c d1a1 7b3c ec70 c0bc
00000310: 450d 4fbd 0426 21bc ce7c 00bd 68ba a03e
00000320: 2590 003d 83d4 6f3c e17c 51bc 1272 5bbd
00000330: dbb7 923e a553 8a3d 6c93 803e 44b8 de3d
00000340: ac82 d43b 6dd9 9b3d 3138 dabd 76b8 ecbd
00000350: b972 c43d 1b08 90be c469 233e a075 8f3d
00000360: d933 2c3d 68bc 96bd 1e25 803d b082 28bc
00000370: 24c6 3dbe d2f4 febd a529 873e 5741 e9bd
00000380: a7b7 d4bc 1b86 243e 19ba 34be 0b02 d13d
00000390: aa9d 38be d941 a63d 1a49 083e fd25 333e
000003a0: 6e43 72bd 725a d13b d2f9 743e 832b 983e
000003b0: 8349 01bd 4b6b 083e c2f7 e63d 8fe1 153c
000003c0: 0461 1e3d 3e40 cf3d af7d ea3b 6827 c7bc
000003d0: 37ed e4bb 5573 363d 407e 033e f2b9 2dbd
000003e0: 82fa b2b6 743b 0bbe ee35 4b3e ebc0 bbbd
000003f0: e7b1 22bd 23fa 2ebe 1b06 9bbd e5dc 58bd
-0.05590481 -0.0013602196 -0.09374607 -0.11109523 -0.24001288 0.025158511 -0.15863116 -0.021890888
-0.08163352 0.19279073 -0.12941754 -0.046225253 0.076088525 -0.10679447 0.08142282 -0.05203542
0.1418824 -0.0935239 0.15580605 0.16496846 0.04770654 -0.058835443 0.035112686 -0.00017513857
-0.01406123 0.2408645 0.03897663 0.0060220906 0.10135727 0.07861912 0.18138042 0.0783345
-0.03352253 -0.044177353 0.06468201 0.015466746 0.045208953 -0.17461072 0.16829155 0.06259762
0.19324203 -0.04289432 0.040146925 0.068570085 -0.04178392 -0.08794891 -0.16677001 0.09525918
-0.17330474 -0.28750727 -0.009004181 -0.06723195 -0.055783685 -0.0006885891 0.13899823 0.07399399
0.043984722 0.027365271 0.017700966 -0.0612595 0.14258036 0.2867222 -0.17577107 -0.15902928
0.013714616 0.09130418 -0.006546234 0.06921472 0.056571316 0.10087225 -0.10994677 -0.12927203
-0.26917198 -0.20874119 -0.2093531 0.2163407 -0.12969007 0.19463849 0.2375852 0.03432124
0.09404591 -0.059972916 -0.1040942 -0.19786623 -0.12937148 -0.10556374 -0.33880228 -0.074866384
0.091033645 -0.15050498 0.06958346 -0.1552974 0.2337098 -0.1175886 0.05695286 -0.05024097
0.06191837 0.09900656 -0.08388726 -0.16211699 0.1171345 -0.16521369 -0.057561573 -0.34754798
0.03403282 0.06512007 0.026204368 0.13251768 0.02832997 -0.078945994 -0.25546312 0.06921891
-0.26966372 -0.16003099 0.14677785 -0.27889505 0.13370684 0.06113099 -0.020970922 0.04062424
0.09747036 -0.16665903 -0.015041205 0.08692525 -0.20382233 0.11878084 0.21801749 -0.12773417
0.030307122 0.005923984 0.047391523 0.027197653 -0.061833095 -0.11969176 0.051454235 -0.10777862
0.009412671 0.003158156 0.09840863 0.3574484 -0.04648162 0.026255952 -0.14692847 0.06866297
0.03072676 0.33481124 0.11110724 -0.16198532 0.0013416561 -0.1437913 -0.014420366 0.015726378
0.16044717 0.059742242 0.1281043 -0.03161083 0.0035968865 -0.071301825 -0.0118770925 -0.13061512
0.015866902 0.041610636 0.13578264 0.08564956 -0.15515278 0.030194608 -0.053977754 -0.14396423
-0.22611858 0.07248618 -0.13601398 -0.08377828 0.043663576 -0.09039758 0.04440065 -0.20475608
-0.0071906396 -0.008252128 0.22745413 0.03727019 -0.045763575 -0.06674468 0.051109537 -0.16112456
-0.2373176 0.15967987 0.004714039 0.001336316 0.20171325 -0.16969028 -0.22074054 0.32359448
-0.007901902 0.025887627 0.015358404 -0.023491345 -0.050549764 -0.009835724 -0.031369023 0.31392217
0.031387467 0.014638069 -0.012786121 -0.053575583 0.28655896 0.06754235 0.25112474 0.1087499
0.006485304 0.0760983 -0.10655249 -0.11558621 0.09592194 -0.28131184 0.15958315 0.07004857
0.042041633 -0.073601544 0.062570795 -0.010285065 -0.18532616 -0.124490395 0.2639896 -0.11389416
-0.025966479 0.16066782 -0.17649116 0.10205468 -0.18028894 0.08118028 0.13309136 0.1749496
-0.059146337 0.0063889557 0.23923424 0.29720697 -0.031564247 0.13322179 0.11277725 0.009148016
0.03866674 0.10119675 0.007156096 -0.024310783 -0.006986286 0.044543583 0.1284113 -0.04241366
-5.3339763e-06 -0.13596898 0.19844791 -0.091676556 -0.039720442 -0.17087607 -0.07569524 -0.052945036

encoder.net.2.bias f4 [60]
00000000: d76f d9bc 7c50 d13c 79b7 413d b10b cfbc
00000010: c081 9a3c 6391 3dbd 642b 01bd 2311 e5bc
00000020: 1822 513d 3793 dbbc 9f76 babc 88e5 013d
00000030: fe58 053d ec0e 233d 3f77 d03c 4c06 fabc
00000040: 444f cebc b7ae aabd 1a13 083d 2f93 71bb
00000050: d0e5 f93c 43e0 d6bc 8781 08bd a063 053d
00000060: 3d16 de3c cdd0 a2bc cfe8 1f3d 07d5 bcbc
00000070: a4f1 903c 410d f83c 2371 c63c 59aa f5bc
00000080: b06c 67bc fee7 f3bc 688d 04bd 0679 1bbd
00000090: 53f3 4aba ff66 b1bc 7463 65bb 772a 17bd
000000a0: f178 7c3d 5e6e 04bc a5f0 e2bc 1609 c33c
000000b0: a7fc 313d e1fa 1f3d 3abc 19bd 0a2c 2f3d
000000c0: fcb7 f13c 6d72 10bd 2b79 d33c f977 183d
000000d0: 8e74 c63c 39cc d9bc c3e4 cfbc 821a a63a
000000e0: 9c06 203d 4513 a2bc 0f9b b73c 669c 9b3c
-0.026542587 0.025551073 0.047294114 -0.02527413 0.018860698 -0.04628123 -0.03153552 -0.027962273
0.051057905 -0.026803596 -0.022761641 0.03171304 0.032555573 0.039809152 0.025447486 -0.03052058
-0.025184281 -0.083341055 0.03322134 -0.003686141 0.030505091 -0.026229983 -0.033326652 0.032565713
0.027110213 -0.019874955 0.039040383 -0.023050798 0.017693348 0.030279757 0.02422387 -0.029988455
-0.014125034 -0.029773708 -0.032361418 -0.037957214 -0.00077419466 -0.021655558 -0.0035001906 -0.036905732
0.061638776 -0.008082954 -0.027702639 0.023808043 0.04345384 0.039057616 -0.037533022 0.04276661
0.029506676 -0.035265375 0.025814613 0.03722379 0.0242255 -0.026586639 -0.025377637 0.0012672695
0.039068803 -0.019784579 0.022412805 0.018995475

encoder.net.5.weight f4 [32, 60]
00000000: 9a6f 633e 05db 0cbe 4822 cbbd 340a 4a3e
00000010: af3d 16be 27c9 643e 1886 373e aafa 42be
00000020: da60 6dbe 7d6e 3cbe 66eb 333e 267d 3ebe
00000030: 7273 c4bd b555 563d fe81 f43c 857b 383e
00000040: ec9c 353c 84f8 493b 709e a6bd c6d3 2abd
00000050: e34d 63bd 021a eebd 5055 bdbc ea5c a2bd
00000060: 00b2 b53c 94dd 89bd 50a1 55bc 79f2 2d3e
00000070: 408a c8be f8ca 8bbd e841 2f3d 5381 eebd
00000080: cf28 0fbe 0f1e 223e 1c98 6b3d 9391 bd3b
00000090: dbd7 0d3e 4a0d c6bd 3551 693e d449 0c3e
000000a0: 66e2 5d3d 3e4b 913e 8ee4 443e 4d31 253d
000000b0: b062 433d 7ec1 253e 619e 2f3e 0b22 5bbd
000000c0: 06da 97bd 33b7 303e fe68 f43d f2ca 4b3e
000000d0: 851d 2ebe 49dd fa3d b101 5ebd 5fcc 2a3d
000000e0: 67e7 92be fa51 a13e e07b 123e 40c4 1a3e
000000f0: 2ee2 2a3e c2ed 6abd ab8e a4b9 59ea 8d3e
00000100: 09fc b2be 8a97 c93c 1e36 a4be a9eb 263e
00000110: c7ce 903d 98ec a93c 5cab a83e b085 e8bd
00000120: 75e9 1e3d 9219 94be 1cd1 4dbd be91 8cbd
00000130: c572 953e aba7 0f3c 2796 8c3d cd61 bbbd
00000140: 5d7a 2fbe da4b eabd d6dc 383c 8cbf 913d
00000150: dc31 55bc 9fbe 1a3e 8e1c 053e 59ae 3f3e
00000160: e5cb 1abe 0525 c23d 403f 953d d428 8e3c
00000170: 9c54 bb3c 3340 d7bd 3796 543d 2d86 023e
00000180: 5ecb cdbd 86ee 373e e41d a83c dbf4 6b3e
00000190: 2117 6bbd 65f5 073d 6c11 1b3e 74af 6fbd
000001a0: 4c4e 6ebd 2d07 2ebd a75a cc3d c512 543e
000001b0: e533 503b 1224 85bd 58b8 afbd d185 aabc
000001c0: a646 45be 56da 84bc 54f8 fe3c d03e a6bd
000001d0: 1dbc 973d 8e0b 373e 7170 d03b 5c6f ca3c
000001e0: c9bd b0bc fa47 d4bc 4004 ecbd 0edd 24be
000001f0: f6f8 083e b97a 1ebd 8294 fd3b a39a c9ba
00000200: afa1 20bd ec5d 963d 1b1b 3d3e ba76 1d3e
00000210: 2bae 903d 98c2 c83c ecd6 16bc 8812 5bbd
00000220: 176c c93d c9e7 a03d 67d2 5bbd 0f37 4ebe
00000230: 0f50 8e3c 9873 10be 135a 98bd b3b1 703d
00000240: 5457 84be 7054 65bd d7f7 683d 1333 993d
00000250: 508f 61bc 1e1e 3c3c 093b 263e 978f 5a3d
00000260: 8a59 7a3e c08f 5dbe ce5d 733e 8493 793d
00000270: bdc8 0b3e 9a6f 56be 6bae 1fbe 47d3 a6bd
00000280: e3b3 05be 13ab b8bd 0768 8e3c b6b4 843e
00000290: 3058 44be 1756 edbd e517 2b3e 945b 1bbd
000002a0: 6f00 b93d 84d3 223d add1 23bd 0097 283e
000002b0: a12e 62bd 6c5e f13d 54f9 51be 0dbd d53d
000002c0: 6d5e 07bc 0e55 58bc 5694 073c 28ce d9bc
000002d0: 1828 483e a08f adbe 6228 0ebe 6f2d a53d
000002e0: 9622 9cbe df5e 32bd 5252 0a3e f0b9 37bd
000002f0: f713 823e c85a 813e e247 e5bd 1e8f 01be
00000300: 0d18 4e3e 6eb6 b53d bb73 22bd 52b4 08be
00000310: adc6 563d 2868 cabd e1ee 4fbd f1cc cebd
00000320: 3ffc 76bd abdc dd3c 1415 94bd 1d0b c33d
00000330: 8a88 6bbe 38f9 18be 4208 d93d ef04 b23e
00000340: a4e5 88bd e394 a23c b743 213e a50c 19bd
00000350: c27d 5c3e 0855 b43d 625c 833d f4b5 2e3e
00000360: 61fb a2bd 73f1 d43d f6e0 ffbd 320c 103d
00000370: 8296 84bd 24bd 43bd 4b67 a7be 072c 94be
00000380: 6d80 0c3d 55f2 59bd d078 a8be 6e2f 15bd
00000390: 66af a93d ab0a 29be eb1a 013e fce9 9ebc
000003a0: 99c1 6cbd fefd 3b3d 268d 993e 826c 8c3e
000003b0: 4533 08bd 9840 1b3e c888 1dbd 38b9 b93c
000003c0: a4be c9bd ff00 adbc bb74 0d3d ee69 663e
000003d0: 6dae 93bc db3d 34be 59be 933d 4210 133c
000003e0: 5783 693e 1347 7d3e 3b8d 7bbe 3ef4 90be
000003f0: 7880 b53d f987 563d 6d5a 7cbe ff1d 1fbd
0.22210541 -0.13755424 -0.09918648 0.19730455 -0.14671968 0.22342359 0.17922246 -0.19040933
-0.23181477 -0.18401523 0.17570266 -0.18602428 -0.09592332 0.05232783 0.029847141 0.18015869
0.011084776 0.0030818293 -0.08135688 -0.04170587 -0.0554942 -0.11626054 -0.02311197 -0.07927878
0.022179604 -0.06731716 -0.013038948 0.16987027 -0.39167976 -0.068258226 0.042787462 -0.116457604
-0.13980411 0.15831779 0.05751811 0.005785176 0.13851874 -0.096705034 0.22784884 0.13700038
0.05417099 0.28377718 0.19227812 0.04033022 0.047701538 0.16187093 0.1715026 -0.053499263
-0.074146315 0.17257385 0.11934088 0.19901636 -0.17003448 0.12249238 -0.05420083 0.04169881
-0.2869217 0.31507856 0.14305067 0.15113926 0.16687843 -0.05735565 -0.00031386813 0.27717856
-0.34957913 0.024608392 -0.32072538 0.16300835 0.0707069 0.0207427 0.32943237 -0.11353624
0.03879686 -0.2892576 -0.05024825 -0.068637356 0.29189125 0.0087680025 0.06864577 -0.091495134
-0.17136522 -0.11440249 0.01128312 0.07116613 -0.013012376 0.15111779 0.12999174 0.18718852
-0.15116842 0.09479717 0.072874546 0.017353453 0.022867493 -0.10510292 0.05190107 0.12746496
-0.10048555 0.17962083 0.020522065 0.23042624 -0.057395104 0.03319301 0.15143365 -0.058516935
-0.05818014 -0.042487312 0.09978228 0.20710285 0.0031769213 -0.065010205 -0.08580083 -0.020815762
-0.19265231 -0.016217392 0.031124271 -0.08117449 0.07408927 0.17875502 0.0063610603 0.024711303
-0.021574872 -0.025913227 -0.11524248 -0.1609995 0.13376221 -0.038691256 0.007738651 -0.0015381168
-0.039216693 0.07342133 0.18467371 0.15377322 0.0706447 0.024506852 -0.009206515 -0.05348447
0.098350696 0.078567095 -0.053667452 -0.2013819 0.01737216 -0.14106596 -0.07439055 0.058763217
-0.25847876 -0.05598873 0.056876983 0.07480445 -0.0137670785 0.01148179 0.16233458 0.053359594
0.24448219 -0.21636868 0.23766252 0.060931697 0.13650794 -0.2094101 -0.15593879 -0.08145767
-0.13056903 -0.09017005 0.017383588 0.25919122 -0.19174266 -0.11588686 0.16708334 -0.037929133
0.09033286 0.0397525 -0.039994884 0.16463852 -0.05522025 0.11785588 -0.20505267 0.10436449
-0.008262259 -0.013203872 0.008275112 -0.02658756 0.19546545 -0.3389864 -0.13882592 0.080653064
-0.30495137 -0.043547507 0.13507965 -0.04485506 0.25405857 0.25264573 -0.11195351 -0.12652251
0.20126362 0.08872686 -0.03966115 -0.13350037 0.052435566 -0.098831475 -0.050764922 -0.10097683
-0.060299154 0.027082762 -0.07230583 0.09523604 -0.23001304 -0.1493882 0.10597278 0.3476939
-0.066844255 0.019846385 0.15748487 -0.037365574 0.21532348 0.08805281 0.06414105 0.17061597
-0.07958103 0.10397615 -0.1249408 0.03516788 -0.064740196 -0.0477878 -0.32695994 -0.2893984
0.034302164 -0.05320962 -0.32904673 -0.036422186 0.08285408 -0.16507976 0.12607925 -0.019398682
-0.057801817 0.045896523 0.299905 0.27426535 -0.03325202 0.1516136 -0.038460523 0.022671327
-0.09850815 -0.021118639 0.03453515 0.22501346 -0.018027509 -0.17601721 0.0721404 0.008976044
0.22804008 0.24734144 -0.24565594 -0.28311342 0.08862394 0.052375767 -0.2464387 -0.038846966

encoder.net.5.bias f4 [32]
00000000: 3a74 2bbd f86f 1fbd 37c3 cfbc 58c5 20bd
00000010: f61f 3abd a54a 59bd 1d5c 253d 1535 02bd
00000020: 334c 9d3d e019 64bd a47c 2fbd 88b7 04bd
00000030: 0cce 31bd c8d9 4e3d 1709 053e 3b92 833d
00000040: 59bf 3c3d 015c 7cbd 6760 b23d 935c 4fbd
00000050: a8f9 7bbd 3f8a c0bd 5dbe 1cbd 865a 77bd
00000060: 8fe1 173d fb20 643d 9b66 13bd 4aa4 613c
00000070: 6f19 783d bc1e 2b3d 9c18 053c 0ec2 c33d
-0.04185889 -0.03892514 -0.02536164 -0.0392507 -0.045440637 -0.053049702 0.04037105 -0.031788904
0.076805495 -0.05568874 -0.042843476 -0.03240159 -0.043409392 0.05050066 0.12991749 0.064243756
0.04608092 -0.06161118 0.087097935 -0.050625395 -0.061517388 -0.09401368 -0.038267482 -0.060389064
0.037080344 0.055695515 -0.035986524 0.01377208 0.06057113 0.041777357 0.008123543 0.09558497

predictor.net.1.weight f4 [32, 32]
00000000: 6766 6ebd e7ac c13d e9de 26be 2f0e e8bc
00000010: a03e 343e 08dc 0a3e d21e 8f3e d8f9 213e
00000020: 06c7 f33d 3ad8 5fbe c25b 4c3e 89df e73c
00000030: 4084 763e da7d 8fbd 877f 95be af41 8b3e
00000040: ad78 8bbb c31f acbd 7657 8a3e e042 43be
00000050: 2d9f 06be 941f 4ebe 2be0 b5be e972 863e
00000060: c82c 71be b747 c5be 8bda a73e 1bed 023d
00000070: 38f2 d13d c262 e13e 1a22 843d c7a8 b83e
00000080: 673b 12be eaca 2ebe 65ba 9f3d ca4b e1bd
00000090: a766 aebe 4f6b 22be ed53 c83c 9b8c 21be
000000a0: 1423 6d3d 6673 a3bd 163d 76be 6e07 9ebc
000000b0: 48db 233d 578c 6d3e 8fcc 503e 52d6 853e
000000c0: 400f fa3e ab59 063e f8f2 0e3e 216b 43be
000000d0: 7bad 43be 941c eabd 3f05 d1bd b786 14be
000000e0: fb8e 613d 5004 7c3e d8bd 34be 340d 273d
000000f0: ebbf 443e 2099 583e 3bd6 a2bd 1dfb d5bd
00000100: bf52 e9bd 1c47 4cbe a1fd ad3d 5894 02be
00000110: 90e9 92bd 59e3 503d 4dad 163e 61fb 123d
00000120: 81f4 f2bd 5875 5cbe f98d 2bbd a3f5 b4bd
00000130: 86ee 2cbd e62d b03d 42ac 383e 3de9 183e
00000140: d24c d53d 185e fabd e5a4 0a3e 00b4 3a3e
00000150: 0b88 ddbb 2130 92bb a104 d1be 6510 243e
00000160: d5b3 8b3c dfb6 3b3e 13b6 0c3d bd6a 273e
00000170: 6b75 213e d1aa 71be 83e4 c93c 5117 bd3c
00000180: 1d1f 053e 4cbd 243e 78bf 493e de8b d2ba
00000190: 9690 2e3e f8a5 f3bd dc4e 99be 4c9d 09be
000001a0: 04d2 abbd 2138 55bd 7b14 803e e0a3 e93b
000001b0: 7bcd cb3c 2687 acbd 0fcf a53d a394 533d
000001c0: e516 de3d 3e12 babc e30a 833d a6ae 6f3d
000001d0: c64a 593d d245 e0bd f4bf 36bd 50fc 003e
000001e0: 2471 a4be dcc8 abbd 48b2 9a3e 0454 5d3e
000001f0: a9c7 9c3d cc14 17bd 7b03 69be 306a 5cbe
00000200: 453e 41be f872 863d 2e14 8c3d 386d 05be
00000210: f6a4 573e 53e4 fb3e e62f 2b3c 42bb c3bc
00000220: 841d 573e a847 b53e 2596 e83d 439d c03b
00000230: 279f b63d 0a0f dabd ab3c debe bce5 95be
00000240: 8f3e e03e 699a 27bd 52a8 ce3d 8d7d b33d
00000250: 9eb8 e2bd 40a8 c83d 3830 6b3e 2ed2 113e
00000260: 8573 28be 4495 3b3e 8fa9 ca3d 556e 92bd
00000270: 8938 e53d 053d 653c dc30 fcbd 0f5e 423b
00000280: c77b 753e eda8 e8be e106 9ebe 03cc 2cbe
00000290: 526d 1b3e 0b0f 293c 0ee6 9bbd 66af 463e
000002a0: 74ec e3bd 0944 9b3e a33d 913d 38a1 71be
000002b0: c08e f33d c7d5 10be c3fc 223e d636 aa3d
000002c0: 4d86 17bd 6f29 acbd 9507 ccbd 44d0 a93e
000002d0: 7df5 643e f8f7 54be ddaf d23e 535b 84be
000002e0: 387e 18be 2699 ff3d 6c47 b2bd 8e20 8c3e
000002f0: 80a3 29be 355b cdbc b56d 15be f748 15be
00000300: 1fbb 16be b61b 9f3d d0fb e13c 868f f33d
00000310: 7d22 7ebe f6cd 4fbd 6acb f33d da30 f03d
00000320: b0c9 8d3e bdc9 04bd 6bef c03d 5965 4f3c
00000330: 1ee6 ca3e 0b1b 163e d92c 1d3d a8a4 b8be
00000340: 673d 323e 8cb9 1e3e 8b75 bf3d 09c6 aabe
00000350: f8bc f0bd 69a7 a13d cf8f d4bd ad5f 093e
00000360: 207b 6cbe 32c6 f2bc deec d2be eda6 933e
00000370: 7b7b c3be af33 403e e808 a23d 4494 443e
00000380: c421 163e a222 6c3e 4949 fc3c 4b7d 883c
00000390: 1bec dc3d 415c 8bbd 63cc 9b3d 163e 02be
000003a0: b039 0b3e f831 f3bc bef8 32bc ccb3 96bd
000003b0: ed78 55be a852 553e b40f 4e3e e23c f43d
000003c0: 277f f93d fa38 bc3d a0eb b9bb 7453 07be
000003d0: 098b d13c 4965 1a3e b6c2 acbd d395 6e3d
000003e0: 5d5b 433d af14 2d3e 886c 103e 4ac3 cbbd
000003f0: 8bd2 823e bf67 473c 0778 56bd 0fb2 cc3c
-0.058203127 0.09456807 -0.16295971 -0.028327076 0.17602015 0.13560498 0.27953202 0.15817964
0.11903195 -0.21859828 0.19956878 0.028304832 0.24073887 -0.07006426 -0.29198858 0.2719855
-0.004256329 -0.084044956 0.27019852 -0.1906848 -0.13146658 -0.20129234 -0.3552259 0.26259544
-0.23552239 -0.38531277 0.32783923 0.031964403 0.10251278 0.4402066 0.06451817 0.36066267
-0.14280473 -0.17069593 0.07799224 -0.11000784 -0.34062693 -0.15861247 0.024454081 -0.15776293
0.05789478 -0.07980995 -0.2404674 -0.019290652 0.040004045 0.23198067 0.20390533 0.26140076
0.4883976 0.13120143 0.13959873 -0.19083835 -0.19109146 -0.11431232 -0.10206079 -0.14504515
0.055067997 0.2461102 -0.17650545 0.040784076 0.19213836 0.21152163 -0.079510175 -0.10448287
-0.11392736 -0.19949001 0.084956415 -0.12751901 -0.07173455 0.050998066 0.14714547 0.035884265
-0.11863042 -0.21529138 -0.041883443 -0.08835914 -0.04221966 0.086025044 0.18034461 0.14932723
0.10415043 -0.12224978 0.13539465 0.18232727 -0.0067606024 -0.004461304 -0.40823844 0.16021879
0.017053524 0.18331479 0.034353327 0.16349311 0.15767448 -0.23600318 0.024645096 0.023082407
0.1300015 0.16087836 0.19701946 -0.0016063412 0.17047343 -0.118968904 -0.29942977 -0.1343891
-0.08389667 -0.05205548 0.25015625 0.007130131 0.024878254 -0.08424215 0.08096134 0.051655423
0.108442105 -0.022713777 0.06398561 0.058516167 0.053049825 -0.10950817 -0.044616655 0.1259625
-0.3211757 -0.0838792 0.30214143 0.2161408 0.0765527 -0.036885068 -0.22755234 -0.21524882
-0.1887141 0.06564897 0.068397865 -0.13029945 0.21059021 0.49197635 0.010448432 -0.023893002
0.21007353 0.35406232 0.11356763 0.005878122 0.08917075 -0.106474 -0.4340566 -0.29276836
0.43797728 -0.04091874 0.10090698 0.08764181 -0.11070369 0.09797716 0.22967613 0.14240333
-0.16450317 0.18318659 0.09895622 -0.071499504 0.11192424 0.013991599 -0.12314007 0.0029658114
0.23972999 -0.4544138 -0.30864623 -0.168747 0.15178421 0.010318528 -0.07612239 0.19402847
-0.11129084 0.30325344 0.070918344 -0.23596656 0.11892462 -0.1414405 0.15916733 0.083112404
-0.036993314 -0.0840634 -0.09962384 0.33166707 0.22359271 -0.20797718 0.41149798 -0.25850925
-0.14891899 0.124803826 -0.08705029 0.27368587 -0.16566277 -0.025067905 -0.14592631 -0.14578615
-0.14719819 0.07768957 0.027585894 0.11892609 -0.24817844 -0.05073353 0.119040325 0.11728068
0.27692938 -0.032418955 0.09420665 0.0126584405 0.3962869 0.14658754 0.03837285 -0.36063123
0.17406236 0.15500468 0.093485914 -0.33354214 -0.11754793 0.07893259 -0.10378992 0.13415404
-0.23093843 -0.029635523 -0.4119634 0.28838292 -0.38180146 0.18769716 0.07911855 0.19197184
0.14661318 0.23060086 0.030796664 0.016661307 0.10787221 -0.068047054 0.07607343 -0.12718996
0.13596225 -0.029686913 -0.010923563 -0.07358512 -0.20846911 0.20832312 0.20123178 0.11925675
0.121824555 0.09190555 -0.0056738406 -0.13215429 0.025578992 0.150777 -0.08435576 0.058248352
0.047694553 0.16902421 0.14103901 -0.09949358 0.25551257 0.012170731 -0.05236056 0.024987249

predictor.net.1.bias f4 [32]
00000000: 4dd8 00bd 9162 113e f8aa e2be 352c 133e
00000010: b88f 493e d9f7 013e 451a 0fbe a5d5 e1bd
00000020: b90f 4ebe 4625 db3d 3520 163e 82bd 86be
00000030: 020e dbbd 0e44 d6bd 253a 013e 7a30 f5bd
00000040: d073 e53d e6a7 92bd 04f9 243d 630a f03d
00000050: 1d7e 053e 9a8a cabd 5194 ec3d 67d9 ecbd
00000060: dde1 d93d 3b61 083e d43c 07be 5726 e5bd
00000070: f0e5 e6bd 0ad4 463e a096 cb3d 242d e63d
-0.03145628 0.14197756 -0.44271064 0.14372332 0.1968373 0.12692203 -0.13974865 -0.110270776
-0.20123185 0.10700469 0.14660724 -0.26316458 -0.10696031 -0.10462199 0.12619837 -0.11972137
0.1120373 -0.0716093 0.040276542 0.11720731 0.1303639 -0.098897174 0.115517266 -0.11564904
0.10638783 0.1331834 -0.13206798 -0.11188953 -0.11274326 0.19416824 0.09940839 0.11239079

predictor.net.3.weight f4 [1, 32]
00000000: 0eea d53a 3fab 3a3e deb1 efbd c19f da3e
00000010: 02ac 723d 4643 743d 2838 12be e70d 88be
00000020: f50e 41be 3bb9 e43d fe10 ea3d e701 34bd
00000030: 5f11 c9be e1e9 93be 6147 8a3e 7cd6 43be
00000040: a7b3 2f3e 06ed 0abd 069d a63b 08ea 533e
00000050: d35b e03e 393d aebd 896d ee3e 18b8 cfbd
00000060: 40e6 0c3d 5796 e33e 068f a5be 22b2 01bf
00000070: 7a2b 44bd 4566 853d 85a5 263e 4847 a33e
0.0016320364 0.18229388 -0.11703847 0.42700008 0.05924607 0.05963447 -0.14279234 -0.26573107
-0.18853362 0.111681424 0.11429022 -0.043947127 -0.39271066 -0.28889373 0.27007583 -0.19124788
0.17158376 -0.03391745 0.0050846366 0.20694745 0.43820056 -0.08507771 0.46567944 -0.10142535
0.03439927 0.44450638 -0.3233568 -0.50662434 -0.047893025 0.06513647 0.16274078 0.3189032

net.0.weight f4 [60, 35]
00000000: 3dea fbbc ddf5 783b f6da 03be 14a0 7a3e
00000010: 0684 a6bc 8f9d a23d f95d 793c 57c2 28bd
00000020: f587 273e f343 3b3e 88ed 183e b8b8 7d3e
00000030: 0010 463d 6e24 14bd 4443 a43d 4f64 65be
00000040: 408b 9ebe b5b6 873a 7ec7 983d f8b6 093e
00000050: cd36 363c 4171 2ebe c35d 8dbe 64cc a33d
00000060: 8967 25bd c30d ffbd 9284 ab3b 86d6 273e
00000070: a74a 423e 1b03 8d3c 368f 0e3e b4e6 a03e
00000080: 2096 ebbd da7e 3e3e ff88 ebbd 795d f7bd
00000090: a045 fa3d ac16 053d befc a93c dcf0 19be
000000a0: 816a 773e 207f 3e3e d609 38be 33e3 f03d
000000b0: 8cd7 823e 26e8 553d 1150 fd3d e0f3 cd3d
000000c0: 4a34 9a3d b7fa edbb 600d ff3d 0360 f6bd
000000d0: f63e a9bc f107 b53d 9a77 823c 3d8f 09be
000000e0: 0859 943d 08d5 393e fc76 34bd 44fb 98bd
000000f0: 4e06 d23d c6ab 2dbc a4f6 33be dcb4 6dbd
00000100: 5df6 c3bc 5846 fabd 9664 b6bd feb5 a0bb
00000110: 6f63 ca3d c478 fd3d 0729 853e 0ad3 133d
00000120: 276f 97bd 19a3 103e b755 17be 3166 19be
00000130: c95e c73d bf93 673e 0e62 65be a309 603e
00000140: d433 04be 0f7e 5fbe f3f7 b5bd 132a 313e
00000150: 79de 19be dd2d 00bd 6a38 213e e2c3 523d
00000160: 9e46 183e cdac f13a e4c3 febd 1310 2abd
00000170: 8dc5 193d e966 923e 87cb 47be a6ea 5bbe
00000180: b662 1d3b 62ca 13bc 521b 15be cf2f 9dbd
00000190: f6a7 373e a6d6 f83d c367 103d 6a94 06be
000001a0: d0a0 93bd 5d91 82bd b2b0 d5bd 3864 433e
000001b0: 664d 49be 4a73 9b3d d695 ee3d ddf1 583d
000001c0: 2b5b aebd cf18 a33d c26a 3a3c 0cd5 9abe
000001d0: 7781 9a3d 0dcf 033e 4385 8f3d 2bdb 673e
000001e0: 46dc 223c cd48 a03d 4d4a 1bbd 51d0 0c3c
000001f0: 9561 12bd 7f54 753d ed32 653e 03a4 aabd
00000200: c682 653e 24fc 24bd e045 96be d2f0 56be
00000210: f877 1bbd 55d4 173d 1451 29bd 2a37 e63d
00000220: 4680 113e d075 bb3e 94d5 783d cda4 82be
00000230: 078e beba e834 18bd 2148 2bbc 9ded d4bd
00000240: dc34 a53d 17be 133d c45a af3d 12e9 ccbc
00000250: 9bab b53d 96a5 053e 57f8 b43d a148 b7bc
00000260: bf31 71bd 2818 82bc 3594 babd 79c5 06bd
00000270: f3f0 afbd 73c3 52be 5cb1 53be 73a2 5b3d
00000280: 05e4 293d 4b23 28bd f545 86be 80c3 b33d
00000290: bb5a cb3e ad2d 573e 6df3 e03d 0a36 753c
000002a0: 6838 58bd 5307 463e f110 ab3e c1d4 733d
000002b0: f736 9f3d 2d3d debd e87c 073d 4634 083e
000002c0: 39f9 a0be fe7d 1ebd ef79 83bd 1912 75bd
000002d0: 75ae e0bd 5762 963d c81a 063e e71b 013e
000002e0: 42a7 51bd b6dc 343e bebd 093d 07af 8c3e
000002f0: 7dd1 11be e5fb b93d e779 af3d a0a9 f63b
00000300: 5002 683e d8de 9a3e 6c87 e3bc df80 3fbd
00000310: 1e35 a83d 8f07 053e 154c ccbe 3917 e4bc
00000320: 7adf d33e ca20 14be 28a0 c33d 19a5 823d
00000330: 165c e8bd b605 17be 639a 603c 670e 2bbd
00000340: 2562 623d 3160 013e 6a44 403e 5149 a23d
00000350: 3519 1cbe ec29 053d ccbf adbd c49c 50be
00000360: 88e8 48be 6e00 ff3d 4e85 b53c 1f16 75be
00000370: 8c87 333e 8d9c 813e f04c cfbd c475 513d
00000380: f30b 803d 8112 b0bc 52dd 993d a217 003e
00000390: b753 4fbe 96e9 593d 8795 a33e 4e85 243e
000003a0: 2061 b4bd 78fc d33e 3c3e 193e 2f7f b13d
000003b0: 1061 dc3d 8bc8 febd dac7 1cbd e085 f7bd
000003c0: 59d6 303d 16ea 2f3c 01ac 90bd 5ba4 9dbc
000003d0: 577a 7fbe 34aa d03c 324d a3bd cbd0 17be
000003e0: 1735 efbd 2a39 703e 60ab c7bd 0268 2c3e
000003f0: 408b a33d b76f f3bd 2097 2b3e 2028 6dbe
-0.030751342 0.0037988343 -0.12876496 0.24475127 -0.020326626 0.07940208 0.015220159 -0.041200962
0.16360457 0.1828764 0.14934361 0.24777496 0.048355103 -0.036167555 0.080206424 -0.22401546
-0.30965614 0.0010354134 0.07459925 0.13448703 0.011121464 -0.1703539 -0.27610597 0.07997969
-0.040381942 -0.12453797 0.0052343095 0.16390428 0.1897379 0.017213395 0.13921818 0.31426013
-0.115032434 0.18603078 -0.11500739 -0.12078375 0.12220311 0.032492325 0.0207504 -0.15033287
0.24161722 0.18603182 -0.17972502 0.11762085 0.25555074 0.052223347 0.12368787 0.10056281
0.075295046 -0.0072625536 0.12453723 -0.120300315 -0.020659905 0.08839405 0.015926171 -0.13433547
0.07243544 0.18147671 -0.044058785 -0.074698 0.10255109 -0.010600036 -0.17574555 -0.05803381
-0.023921186 -0.12220448 -0.08905904 -0.0049045077 0.09882247 0.1237655 0.26007864 0.036089934
-0.073942475 0.14124717 -0.14778791 -0.14980389 0.09734876 0.22614954 -0.22400686 0.21878676
-0.12910396 -0.21825431 -0.08885183 0.17301206 -0.15026273 -0.03129374 0.15744177 0.05145634
0.14870688 0.001843834 -0.12439707 -0.041519236 0.037541915 0.2859414 -0.19511233 -0.2147623
0.0024015135 -0.00902042 -0.14561203 -0.076751344 0.17935166 0.12150316 0.035255205 -0.13142553
-0.07208407 -0.06375382 -0.104340926 0.19081199 -0.19658431 0.07590349 0.11649673 0.052965034
-0.08513483 0.07963716 0.011377992 -0.30240667 0.07544225 0.12871952 0.070078395 0.226422
0.009940213 0.07826386 -0.037912656 0.008594588 -0.035737593 0.059895035 0.22382708 -0.08332064
0.22413167 -0.040279523 -0.29350185 -0.20990303 -0.037956208 0.03706773 -0.041337088 0.112409905
0.14209089 0.3661332 0.06075056 -0.25516358 -0.0014538177 -0.03715983 -0.010454209 -0.10396884
0.08066723 0.036069956 0.08562234 -0.02501348 0.08870622 0.13051447 0.088364296 -0.0223735
-0.058885332 -0.01588066 -0.091102995 -0.03290317 -0.08590879 -0.2058237 -0.20673126 0.05362172
0.041477222 -0.041049283 -0.26225248 0.08777523 0.3971766 0.21013518 0.1098393 0.014966497
-0.05278817 0.19338731 0.33411363 0.05952907 0.077741556 -0.10851512 0.033078104 0.1330119
-0.31440142 -0.038694374 -0.06419741 -0.059831712 -0.10970775 0.073429756 0.13096154 0.126083
-0.0511849 0.1766232 0.033628218 0.27477285 -0.1424007 0.09081248 0.08568173 0.007527545
0.22657132 0.3024814 -0.027774535 -0.04675376 0.08213256 0.12991165 -0.39901796 -0.027843105
0.41381437 -0.14465633 0.09552032 0.06379146 -0.11345689 -0.14748272 0.013708684 -0.041761782
0.05526938 0.1263435 0.18776098 0.0792414 -0.1524399 0.032510683 -0.08483848 -0.20372301
-0.19619954 0.12451254 0.022158291 -0.2393422 0.17532176 0.2531475 -0.101220965 0.0511377
0.06252279 -0.021493198 0.075129166 0.12509015 -0.20246778 0.05320128 0.31950018 0.16066477
-0.088075876 0.41403556 0.14965147 0.086668365 0.10760701 -0.12440594 -0.03827653 -0.120860815
0.043173168 0.010736963 -0.07064057 -0.01924341 -0.24949013 0.025471784 -0.07973708 -0.14825742
-0.11680048 0.23459306 -0.09749484 0.16836551 0.07985544 -0.11886542 0.16756868 -0.23159838

net.0.bias f4 [60]
00000000: 3e37 1c3e dc52 933c 7616 023d 2917 37bc
00000010: 69a2 c7bc d65f d0bd 982f 00be 0207 f63d
00000020: b3c7 00be 81fd 2bbe 9c35 643d 48c5 2a3e
00000030: f54b fa3d b4f6 4cbd f052 06bd 26bd df3d
00000040: 2046 c5bd f91c b8bd 23d5 403b b8a3 12be
00000050: 6c64 b5bd 3f6b 003d eee2 873d ab55 2a3d
00000060: 8e97 923d 7fcb 33bd 2703 0d3e b52f fdbd
00000070: 05be f23d 3830 2a3b 964f f03d 3bcb 12be
00000080: 5205 7ebd 1a75 a5bc 848b a3bd b5d8 f83d
00000090: 6ea8 f6bd 9f46 d7bd 0613 19be 0788 153e
000000a0: e29e ff3b 0e8b 00be 65bf dc3d ae4a a2bb
000000b0: 87d2 0ebe eb8c dabd 84ed a6bb 51a7 00be
000000c0: 7c23 523e 2355 0bbe aa26 b43d b09f c3bd
000000d0: c6c6 1b3e ff1a 8dbd d1e4 f6bc ee50 4fbc
000000e0: 0b08 eabd 38ea c6bd f6f0 40be e87e 093e
0.15255448 0.017983846 0.0317597 -0.011174955 -0.024369435 -0.10174529 -0.12518156 0.120130554
-0.12576179 -0.16795923 0.05571519 0.1667682 0.12221519 -0.050039962 -0.03279394 0.10924749
-0.09632516 -0.08989901 0.0029423914 -0.14320266 -0.088570446 0.031352278 0.0663508 0.041585606
0.07157813 -0.04389524 0.13770734 -0.12362615 0.118526496 0.0025968682 0.1173393 -0.14335339
-0.062016793 -0.02019744 -0.07985595 0.121507086 -0.12043844 -0.10511517 -0.14948663 0.14602672
0.0078009227 -0.12553045 0.10778693 -0.00495275 -0.13947497 -0.10671409 -0.005094232 -0.12563826
0.20521349 -0.13606696 0.08796437 -0.09551942 0.15212545 -0.06889915 -0.030138405 -0.0126535725
-0.11427315 -0.097126424 -0.1884192 0.13427317

net.2.weight f4 [60, 60]
00000000: 38dd 893e 42e1 4f39 8055 76bc b340 3ebd
00000010: 7d71 253e 6e24 39be 6e6e 423e 87a4 9d3e
00000020: 6889 a3bb 2181 bdbc 6bd8 fabc f4e0 3e3e
00000030: 0593 aebc 3c65 e23d c21a a63d 218a c53d
00000040: 6778 963e c393 bb3d 04da ae3b 1bd5 04bd
00000050: 7171 193e d001 373e 4123 9b3d 82d5 023d
00000060: 194d 32be 7f0d bcbd 10b9 07bd 119d 433d
00000070: 196f cabc 4a43 c1bc 51ee 8abe 7faa e43d
00000080: 51b9 36bd e6b1 7b3d 059e 04be 4a92 23be
00000090: a5df e33d 83c1 a7be df2f b23d ff7f a7bd
000000a0: 5659 68bd ca49 eb3c 0dcb adbd 37aa 8abc
000000b0: 67ad 013e 0a48 22be 5d08 8e3d 1844 39be
000000c0: 832a dbbc 8763 87bd 9280 65bd 3f41 61be
000000d0: 70e6 7e3d a860 253d 6124 f03d a464 963c
000000e0: aa9e 77be 80f8 a43e cfd1 f13d c6fd 773e
000000f0: b081 aa3c d8b9 18bd de10 e13c be14 eabd
00000100: 6eb7 813d bc8e d5bd 7e3f 19be d546 c0bd
00000110: e862 b3be e185 bd3d 34c3 fd3a 8acf 883e
00000120: 0087 833c ab8f 043e 0d34 063d 4bc2 5e3e
00000130: c697 743d e76f 573e 8eaf 073e bdc0 84bd
00000140: c6fd 60bd 4f8d 323d 6c81 d3bd 7d23 95ba
00000150: 0355 f73d b8c2 7fbd 08b5 88bc 6c71 ddbc
00000160: c9ab 8cbe 32a1 1c3e 5c7f 8e3b 6cc3 82bd
00000170: dc90 40be 964a 283e 3b5a b0bd c8f5 053d
00000180: 64f8 413c 6468 bdbd a950 e8bb 487f 9cbd
00000190: 0c27 a03d 2198 9a3d 4e17 513c a284 7f3e
000001a0: 8e1e f83d 9c8f 5fbd 5b2a b83d f080 9f3e
000001b0: 5395 c3bd 7942 833e 43eb 8cbd e3b6 c7bd
000001c0: e69e 503c 2ccc 393d 9866 c53c eeff 933d
000001d0: c646 763e 9dc6 80bd a0f3 6bbc 898f 9fbd
000001e0: 0550 0b3e 8617 a73d 322d 8fbe f698 4d3d
000001f0: 7e10 9b3d 84fb c13c bb3c 75be c5dc 963e
00000200: 03c8 863b 9d12 e9bc 1448 2a3e be8d c73d
00000210: 14ae 82bd 1016 45be 98fc 083e 10ba 343c
00000220: 666b 2d3e 87c8 353e ab10 dabd 420e d73d
00000230: 2737 223e ac57 a2bd 9410 57be 0a68 043e
00000240: 0a57 923c 8a4e 163e 3d39 a13d 2522 96bd
00000250: 633a 573c a004 0a3e 2a45 a93d f72e 1f3e
00000260: 4e16 ebbd 5df7 05be 4b18 3c3d b586 20be
00000270: 6df9 8abd 5967 c03d 24b1 463d e61f dd3d
00000280: cc97 5f3d 601a 2fbc 59aa 1e3e 1663 403e
00000290: cd19 113e 2c9c f8bd 3c90 193e 005b 6d3d
000002a0: 0ba8 c2bd cc2f c63c 1bed 1dbe bc36 913d
000002b0: 30a1 263e 5db7 c63d b1e8 d43b e709 b5bd
000002c0: 41b3 11bd 6092 ce3e 697f 72bd 15cf 843d
000002d0: 25af 653e 88fa 1cbe cfbe 9b3d e5f3 553d
000002e0: 431d 403e 756e 74be 7544 20be 78b0 ddbc
000002f0: f545 4cbe 670e 8dbd f835 fc3b 9f1c 84bc
00000300: 70a4 95bd 6f11 733e 325e bc3c df1e 1c3e
00000310: f2d2 25bd 94d9 1d3c 7065 5abd f6ed 063e
00000320: fb80 cfbd 9d0f 06bd 9fb8 d9bd a794 fbbc
00000330: 7aa9 9f3d a0d4 fe3d 1c9a 183e 207a 903e
00000340: 4b7f b33c 3810 1a3d e441 033e 9988 0ebe
00000350: 5190 bdbc 2bec 79be 531c c0bd 4bc6 d4bd
00000360: 2d85 bd3d 3b0a bd3b 8753 983c 2756 4f3e
00000370: e1e9 21bd 1bef 0ebd 17e1 fcbd 5a20 4b3c
00000380: 1129 d0bd 5de0 633e 2f05 7ebe 1bb1 993d
00000390: ca2a 41bd d950 9a3d 53ed ae3c 66ca 77be
000003a0: aa03 e8bc 7b1e c1bd e90f 2b3d 6d00 483d
000003b0: b3a0 fbbd 8383 683e 38e4 7b3d 55f5 a4bd
000003c0: 8c8e 0dbd ef0f 30bd 436e 523d f3d5 203d
000003d0: 11aa d1bd e28f 543d cc4b 9e3d 1a3b e0bd
000003e0: 7400 83bd bb38 1a3d 561a 38be 611f dfbd
000003f0: 33db e8bd 9eb3 fabc 5b36 873d b02a 25be
0.2692659 0.00019824973 -0.015035033 -0.04644842 0.16156574 -0.18080303 0.18987438 0.30789587
-0.0049907453 -0.023132863 -0.030620774 0.186405 -0.021310339 0.11054465 0.081105724 0.096454866
0.29388735 0.09159043 0.005336048 -0.032429796 0.1498468 0.17871785 0.075750835 0.0319419
-0.17412223 -0.09182262 -0.033135474 0.047757212 -0.024711179 -0.023591656 -0.27134946 0.11165332
-0.044610325 0.061448954 -0.12950905 -0.15973774 0.11126641 -0.32764825 0.08700537 -0.0817871
-0.056725822 0.028721709 -0.084859945 -0.016926868 0.12663804 -0.15847793 0.06935189 -0.18092382
-0.02675367 -0.0661078 -0.056030817 -0.21997546 0.06223148 0.04037538 0.11725689 0.018358536
-0.2418162 0.3222084 0.11807596 0.242179 0.020813793 -0.03728661 0.027473863 -0.114297375
0.063338146 -0.10427615 -0.14965627 -0.0938851 -0.35036397 0.09254051 0.0019360543 0.2672084
0.016055584 0.1294543 0.032764483 0.21753804 0.059715055 0.21038781 0.13250563 -0.064820744
-0.054929517 0.043591794 -0.1032742 -0.0011378374 0.120767616 -0.062441558 -0.016687885 -0.027031623
-0.27474812 0.15295866 0.0043486785 -0.0638493 -0.1880526 0.16434702 -0.0861096 0.0327051
0.011839006 -0.092484266 -0.0070896936 -0.076414645 0.078199476 0.075485475 0.012761904 0.24952939
0.12115203 -0.054580316 0.08992454 0.3115306 -0.09549966 0.25636652 -0.0688081 -0.0975168
0.012733197 0.04536073 0.024096772 0.07226549 0.24050435 -0.062878825 -0.014401346 -0.07791049
0.13604744 0.081587836 -0.2796417 0.050194703 0.07571505 0.023679502 -0.23948948 0.2946531
0.0041131987 -0.028451258 0.16629058 0.09743832 -0.06380859 -0.19246697 0.13377607 0.011030689
0.169355 0.17752276 -0.106477104 0.10500766 0.15841351 -0.07926878 -0.21002418 0.12930313
0.01786377 0.14678398 0.078722455 -0.07330731 0.013136479 0.13478327 0.08265145 0.1554526
-0.11478864 -0.13082643 0.045921605 -0.15676387 -0.067858554 0.09394712 0.04850878 0.107971
0.054588124 -0.010687441 0.1549467 0.18787798 0.14169998 -0.121391624 0.14996427 0.057948112
-0.09504708 0.024192713 -0.1542248 0.07090518 0.16272426 0.097029425 0.0064974655 -0.08839779
-0.03557134 0.4034605 -0.05920354 0.0648481 0.22430094 -0.15329945 0.07604753 0.05223455
0.18761162 -0.23870261 -0.15651114 -0.027061686 -0.19948561 -0.06887513 0.0076968633 -0.016126929
-0.073067546 0.23737119 0.022994135 0.15246151 -0.040484376 0.009634394 -0.053319395 0.13176712
-0.10132023 -0.032729734 -0.10630917 -0.030710531 0.07795997 0.12442899 0.14902538 0.28218174
0.021911284 0.037613124 0.12818104 -0.13919295 -0.023140104 -0.24406497 -0.093804024 -0.10389384
0.09253917 0.005769042 0.018594516 0.20247708 -0.039529685 -0.034895997 -0.1234762 0.01239785
-0.10164083 0.22253557 -0.24806665 0.07504483 -0.047159947 0.07534952 0.0213534 -0.24198303
-0.02832206 -0.09429642 0.04176322 0.04882853 -0.1228651 0.22706418 0.061496943 -0.08054606
-0.03455977 -0.042983945 0.051374685 0.039266538 -0.10237516 0.05189503 0.07729301 -0.10948773
-0.06396571 0.03765176 -0.17978796 -0.10894657 -0.11369934 -0.030603226 0.06602164 -0.16129565

net.2.bias f4 [60]
00000000: 4364 93bd c995 083d 6638 a83d 63ae f53c
00000010: 1330 393a 5593 443d 3b80 b53c ebf1 9e3d
00000020: 8cca 19bb 83d8 5c3c af7d 2e3d d494 8b3c
00000030: c948 fa3d 1c60 d7bd 654f 87bd af4e 86bd
00000040: d810 a53d d210 5cbd 90aa a7bd 80f2 9fbd
00000050: f3a5 c63c 86e3 213d 97e8 26bd edcd 8cbd
00000060: 940a c9bc faa8 6d3c 84d0 9abd 15d2 a7bd
00000070: 0e68 c53d 48e9 c83d 1de9 583d 8e1b f63d
00000080: c0a3 fabb b884 593d 73e9 99bd cd4e 53bc
00000090: edd4 8fbd b6e0 9b3d eedf 4abc 1343 e9bd
000000a0: 9287 b73d bf9a 633d 9c47 853d cef4 30bc
000000b0: a088 92bd a849 c53c 342c ed3d 3e6b d13d
000000c0: 10b1 09be ff84 70bd ae02 de3d 1e45 fe3d
000000d0: 0b54 623c 7878 0e3b 2a5e 83bc 6920 f53d
000000e0: c6bc bd3d 045f 183d fe07 98bd 8845 a53d
-0.07196858 0.03334597 0.08213882 0.02999038 0.00070643536 0.04799207 0.022155872 0.07760986
-0.0023466675 0.013479355 0.04260033 0.01703874 0.12220914 -0.10516378 -0.0660694 -0.065579765
0.08059853 -0.05372698 -0.08186829 -0.07809925 0.024249053 0.039523624 -0.04074916 -0.06875215
-0.024541177 0.014505619 -0.075593024 -0.08194367 0.096389875 0.0981012 0.05295669 0.120169744
-0.007648915 0.053105086 -0.0751523 -0.012897206 -0.07023034 0.076112196 -0.012382491 -0.113897465
0.08961405 0.0555675 0.06507799 -0.0108005535 -0.071549654 0.024082974 0.11580697 0.10225533
-0.1344645 -0.058720585 0.10840355 0.12415527 0.013813983 0.0021739285 -0.016036112 0.11969072
0.09264521 0.03719999 -0.074233994 0.08069903

net.5.weight f4 [1, 60]
00000000: abd4 daba c000 2fbd 7a73 6c3b 52dc 5138
00000010: 111c 893d 02ce 0b3d 2df0 a1bd b63f 993b
00000020: 9b03 9d3e e1a5 813d 1694 1cba 2979 3c3d
00000030: 1a4c a6bb b697 3f3e 1858 513a 29e1 23be
00000040: 68bf a9bc 291c babd a844 b33b b9d4 92be
00000050: b034 3f3e 5137 63be 239c 7cbe dc27 11bd
00000060: fce0 f0bc de1e c8bd 020f 59bd 77b7 3cba
00000070: 5e3c c03d 2c1f b23e 1c53 213e 82ce af3d
00000080: 56a3 83bd 5d9a ccbc 0a9f 9dba e86a 8ebb
00000090: 8150 95bd ec24 4fbb 503d 1c3b d751 673b
000000a0: 7549 a03a 3bbe 2bbe a520 4a3e bcc9 3e3e
000000b0: ea6e 29be 82aa a9bd a036 2bbe 3d25 373c
000000c0: 1823 0dbe b244 6fbd 84ee 1ebe d129 20be
000000d0: 01f6 84ba fdfb 49be 905f a83c f310 403d
000000e0: 7c04 39ba 390d 83b8 67ee bb3a 43f9 3ebe
-0.001669546 -0.042725325 0.0036079572 5.0034672e-05 0.06694806 0.03413201 -0.07907138 0.0046767844
0.30666813 0.06330467 -0.0005972994 0.046013985 -0.00507499 0.18710217 0.0007985844 -0.1600386
-0.020721152 -0.090874024 0.005470831 -0.2867792 0.18672442 -0.2218907 -0.24668936 -0.035438403
-0.029404156 -0.097715124 -0.05299283 -0.0007198969 0.09386514 0.34789407 0.1575436 0.0858431
-0.06427638 -0.02497595 -0.0012025547 -0.0043462403 -0.072907455 -0.00316077 0.0023840256 0.0035296583
0.0012228923 -0.16771786 0.19739015 0.18631643 -0.16546217 -0.08284475 -0.16720057 0.011178312
-0.13782918 -0.058415122 -0.15520674 -0.15640952 -0.0010144116 -0.19725032 0.02055338 0.046891164
-0.0007057858 -6.24903e-05 0.0014338017 -0.18649773
